agent1_actor.pth (torch, 169231 bytes, 14 tensors)

fc1.weight f4 [256, 24]
0	0x3d57277a	0.052527882
1	0x3c709ecc	0.014686298
2	0x3ccf87f4	0.025333382
3	0x3c9eb7a5	0.019374678
4	0xbd332064	-0.043732062
5	0x3d91522e	0.07095753
6	0xbcff9bea	-0.031202275
7	0x3d0422e8	0.03225985
8	0x3dc145a2	0.094371095
9	0x3d6ff86e	0.05858653
10	0x3c665fb0	0.0140609
11	0xbd6e5760	-0.058188796
12	0xbd55207a	-0.052032925
13	0x3e02fa2f	0.1279075
14	0xbbff71cc	-0.007795548
15	0xbd20ce70	-0.039259374
16	0x3d829ed5	0.06377951
17	0x3d330a73	0.043711137
18	0xbccbe55a	-0.024889637
19	0x3cc73e8a	0.024321813
20	0xbdf3ea53	-0.11909928
21	0x3df5736d	0.11984906
22	0x3cf8425a	0.030305076
23	0x3c953b00	0.01821661
24	0x3dda8c8b	0.10671338
25	0x3e364e6a	0.1780335
26	0x3c829a10	0.015942603
27	0x3d96bf66	0.07360725
28	0xbc1ffb86	-0.009764558
29	0x3c8a523c	0.016884916
30	0x3ca3980e	0.019969966
31	0x3da75b0e	0.08171664
32	0x3d41e7f4	0.04734035
33	0x3e8cf035	0.27527013
34	0x3c87819a	0.016541291
35	0xbcae6155	-0.021286646
36	0x3d0c7307	0.034289386
37	0x39c8e7c7	0.0003831966
38	0xbc91ab3f	-0.017781852
39	0xbd717981	-0.058953766
40	0x3d285f27	0.04110637
41	0x3e6bbc23	0.23020987
42	0x3d261081	0.040543083
43	0xbd1f4705	-0.03888609
44	0xbceff1d7	-0.029290123
45	0x3d52b00a	0.051437415
46	0xbd726e49	-0.059187207
47	0xbd802a11	-0.062580235
48	0x3ce8d951	0.028423937
49	0x3dcff0da	0.10153361
50	0xbdabc5de	-0.083873495
51	0xbbbba244	-0.0057261307
52	0x3d82b324	0.063818246
53	0xbe678d7a	-0.22612563
54	0x3aebcb4f	0.0017989668
55	0x3d4cc6ad	0.04999416
56	0x3b9002f0	0.0043948814
57	0x3cf0cc16	0.02939419
58	0x3cdad6f3	0.026713824
59	0xbb9ca43c	-0.0047803205
60	0xbc33f9b3	-0.010984826
61	0xba39dab8	-0.00070897816
62	0xbcc27297	-0.023736281
63	0xbda8cffe	-0.08242796
64	0x3d37baa9	0.044855747
65	0xbdc1ef27	-0.09469443
66	0x3d6bd69c	0.057577714
67	0xbcace082	-0.021103147
68	0x3c94a09b	0.018142989
69	0xbdf24ffa	-0.118316606
70	0xba0f9563	-0.00054772774
71	0xbcf32a48	-0.029683247
72	0x3cbfa2b3	0.02339301
73	0xbd50eabe	-0.051005118
74	0x3c802684	0.015643366
75	0xbd36c6a1	-0.04462302
76	0xbc5fd2bb	-0.013661082
77	0xbda46744	-0.08027509
78	0x3cef8275	0.029237011
79	0xbdd65e73	-0.104672335
80	0x3db5e0c2	0.0888076
81	0xbc5a86c5	-0.013337796
82	0x3cf022a7	0.029313399
83	0x3c9de24c	0.019272946
84	0xbcfa0665	-0.030520627
85	0xbdabf91d	-0.08397124
86	0xbc1ff5b0	-0.009763166
87	0x3deb4df6	0.11489479
88	0x3da25371	0.079260714
89	0xbb50a88a	-0.0031838738
90	0xbd15a92a	-0.03653828
91	0xbd27f0bb	-0.041001063
92	0xbda3e43a	-0.08002515
93	0xbe54d6b7	-0.20785032
94	0x3cdc5ecd	0.026900673
95	0x3d28beb7	0.041197505
96	0xbdcbd8ad	-0.09953437
97	0x3bf114b9	0.0073572067
98	0x3d6fb98d	0.058526564
99	0xbd15511b	-0.0364543
100	0x3de3d517	0.11124628
101	0xbc4e2c2b	-0.012583773
102	0xbd153787	-0.036429908
103	0x3a97b7fd	0.0011575219
104	0xbdb9cfb3	-0.090728186
105	0x3d8e129c	0.06937143
106	0xbcb754e1	-0.02237934
107	0x3d0195b3	0.031636905
108	0xbd9264b3	-0.07148113
109	0xbd477042	-0.04869104
110	0xbc2399e7	-0.009985424
111	0xbbf6b208	-0.007528547
112	0xbc44fff8	-0.012023918
113	0x3d883a6e	0.066517696
114	0x3d3dc2ec	0.04632847
115	0xbd09f8ee	-0.033684663
116	0xbe286139	-0.16443338
117	0xbb96b92a	-0.00459971
118	0x3cae7ebf	0.021300672
119	0xbb697454	-0.0035622315
120	0x3d2eb5a5	0.0426537
121	0xbdedd932	-0.11613692
122	0x3d2d90ab	0.042374294
123	0xbcda7d8b	-0.026671192
124	0x3bb74ead	0.0055940957
125	0xbcd2defd	-0.025741095
126	0xbd118f21	-0.03553689
127	0xbd9c020f	-0.0761758
128	0x3b44abba	0.0030009584
129	0xbe62752a	-0.22115007
130	0xbd85a407	-0.06525426
131	0xbdad8d57	-0.08474224
132	0xbbd3269e	-0.0064438125
133	0x3d2c5d52	0.042081185
134	0x3cc0c8fc	0.023533337
135	0xbdaca02b	-0.08428987
136	0x3da29dbc	0.07940242
137	0xbe1d6730	-0.15371394
138	0xbc6393c8	-0.013890214
139	0x3d818e9c	0.06326029
140	0xbd010797	-0.03150138
141	0x3dbb33c2	0.091407314
142	0xbb770f9e	-0.0037698518
143	0x3d99067b	0.07471939
144	0xbce7e0ee	-0.028305497
145	0xbe03b57f	-0.12862204
146	0xbc155ee2	-0.00911686
147	0xbe25a09d	-0.1617455
148	0xbd8b4760	-0.06800723
149	0xbd78924e	-0.060686402
150	0x3c465be6	0.012106871
151	0xbe5ea0d3	-0.21741037
152	0xbce1bf3c	-0.027557008
153	0xba9cb129	-0.0011954653
154	0xbb694822	-0.0035595973
155	0xbda95089	-0.08267314
156	0xbc1cd00b	-0.009571086
157	0xbd1f1a45	-0.038843412
158	0xbd0f0a68	-0.034922034
159	0xbdd6254e	-0.10456334
160	0x3bb09011	0.005388268
161	0x3c717470	0.0147372335
162	0x3ce1faba	0.027585376
163	0xbd842af8	-0.06453508
164	0xbd70de9b	-0.058806043
165	0xbc036df4	-0.00802182
166	0xbd0911bb	-0.033464175
167	0xbc229513	-0.009923237
168	0x3c5e8734	0.01358204
169	0xbe0b7ca9	-0.13621773
170	0xbda34756	-0.079725906
171	0x3d1cf768	0.038321882
172	0x3dac8862	0.084244505
173	0xbd738c63	-0.059460055
174	0x390262e1	0.00012434601
175	0xbadc637d	-0.0016814318
176	0x3d834695	0.06409947
177	0xbd2ff4f2	-0.042958207
178	0x3d472865	0.048622508
179	0x3d88f3cd	0.06687126
180	0xbd9a3b7d	-0.07530878
181	0x3c3c83de	0.011506049
182	0x3c0344d6	0.008012017
183	0xbc51f6d4	-0.012815196
184	0x3d859eef	0.06524455
185	0xbdc9b21f	-0.09848427
186	0x3d011d57	0.03152212
187	0x3d81cc1a	0.063377574
188	0xbcd98a12	-0.026555095
189	0x3c2ad321	0.010426314
190	0x3b12f202	0.002242208
191	0x3daa25ce	0.08307992
192	0x3d3b042f	0.045658287
193	0x3d20e899	0.039284322
194	0x3d2b3a84	0.04180385
195	0x3cc18da5	0.023627112
196	0x3d6b6655	0.05747064
197	0x3dd70085	0.10498146
198	0xbd49d48e	-0.049274974
199	0xbcbe93f5	-0.02326391
200	0x3d7c9294	0.061663225
201	0x3d80e743	0.0629411
202	0xbd75b592	-0.059987612
203	0x3c0cc868	0.008592702
204	0x3da16625	0.07880811
205	0x3da1faf4	0.07909194
206	0x3d49147c	0.0490918
207	0xbc4ee90c	-0.012628805
208	0x3d524be1	0.051341895
209	0x3c3f48d6	0.01167508
210	0x3beeb600	0.0072848797
211	0xbc4c1ea0	-0.012458473
212	0x3e2ff50d	0.17183323
213	0xbd8dfd87	-0.06933122
214	0xbc0110f6	-0.007877579
215	0xbcd2f872	-0.025753234
216	0xbcbf44af	-0.02334818
217	0x3db84bb0	0.08998811
218	0xbc81fd9b	-0.015867999
219	0x3d739daa	0.059476532
220	0x3d9f50fc	0.077791184
221	0x3c7f13e5	0.015568708
222	0xbd8f3c4c	-0.069939226
223	0x3dda3a7d	0.10655687
224	0x3cb50d73	0.02210114
225	0x3d5b9bdf	0.053615447
226	0x3b661bd3	0.00351118
227	0x3d30ff06	0.04321196
228	0xbc68efe4	-0.014217351
229	0x3c88da27	0.016705586
230	0x3b4ca8fb	0.003122865
231	0x3d93940b	0.07205971
232	0x3d87dd72	0.06634034
233	0x3da21d2b	0.079157196
234	0xbd275a78	-0.040857762
235	0xbda629bb	-0.08113428
236	0xbccee39a	-0.025255013
237	0x3dc4f168	0.09616357
238	0x3d05dd1c	0.03268157
239	0xbd87add8	-0.06624955
240	0x3d46eae4	0.048563853
241	0x3e19d577	0.15022837
242	0xbcb6c312	-0.022309814
243	0xbc002658	-0.007821642
244	0x3d6655f1	0.056234304
245	0xb96b9fdd	-0.000224709
246	0xbd9b9691	-0.07597078
247	0x3c05d87d	0.008169291
248	0x3dfa8feb	0.122344814
249	0x3e0231b6	0.12714276
250	0xbc2cda53	-0.010550099
251	0xbd25c042	-0.040466554
252	0x3c985b94	0.018598355
253	0xbcfbf777	-0.030757649
254	0x3adbc724	0.0016767723
255	0xbd60ff08	-0.054930717

fc1.bias f4 [256]
0	0xbd3a47cf	-0.04547864
1	0x3d69ae6c	0.057051107
2	0xbe118926	-0.14212474
3	0xbcaa8668	-0.020816043
4	0x3d56ac42	0.05241037
5	0xbddfa096	-0.10919301
6	0xbc6fb3b0	-0.014630243
7	0xbe894577	-0.2681081
8	0xbd8e4f96	-0.069487736
9	0xbe531ed8	-0.20617235
10	0xbe13deb8	-0.14440429
11	0xbe70beb9	-0.23510255
12	0xbe8519f0	-0.2599635
13	0xbdd1a58a	-0.10236652
14	0xbd025823	-0.031822335
15	0xbe16a84d	-0.14712639
16	0xbd9ae2da	-0.075628
17	0x3aec6e73	0.0018038288
18	0x3d5042e8	0.050845057
19	0xbbcb9fb6	-0.0062141074
20	0xbdc143b8	-0.094367445
21	0x3d9f5dfe	0.077815995
22	0xbe32e20d	-0.17469044
23	0xbe1103b2	-0.14161566
24	0x3d4ca96d	0.049966265
25	0x3cc66152	0.024216328
26	0x3cc25f89	0.023727195
27	0xbe4766e8	-0.1947285
28	0xbcb0256e	-0.021502223
29	0xbe0bdd45	-0.13658626
30	0xbe7d9b80	-0.2476635
31	0x3e527f09	0.20556273
32	0xbe56ccd9	-0.2097658
33	0xbd96b909	-0.073595114
34	0xbe6a67b8	-0.22891128
35	0x3e11b978	0.14230907
36	0xbe0bb4c2	-0.13643172
37	0xbec28b1b	-0.37996754
38	0x3dd79949	0.10527284
39	0xbd9adbd1	-0.07561458
40	0x3cb474e9	0.022028403
41	0x3cd4352f	0.025904266
42	0xbdfc321a	-0.123142436
43	0xbb08fb10	-0.0020901598
44	0xbcee90f3	-0.029121852
45	0xbe0bc6d4	-0.13650066
46	0xbed0d175	-0.40784803
47	0xbc564d61	-0.013079972
48	0xbe1c7a1d	-0.15280958
49	0xbc13ba11	-0.00901653
50	0xbde2fd15	-0.11083428
51	0x3dd09a74	0.101857096
52	0x3e06e5da	0.13173619
53	0xbe89b58b	-0.2689632
54	0xbe0318b4	-0.12802392
55	0xbe1a795b	-0.15085356
56	0xbe4d2b15	-0.20035966
57	0xbe35d74c	-0.1775791
58	0x3d182342	0.037143
59	0xbe4f7433	-0.2025917
60	0xbe134b89	-0.14384283
61	0xbe851507	-0.25992605
62	0xbe533374	-0.20625097
63	0xbe97edb8	-0.29673553
64	0xbe8c39a0	-0.27387714
65	0x3d331320	0.04371941
66	0x3e0f863a	0.14016047
67	0xbe381f39	-0.1798066
68	0x3d80ef3b	0.062956296
69	0xbeaa3cd0	-0.3324952
70	0xbe80be73	-0.251453
71	0x3e556282	0.20838359
72	0xbcd337a0	-0.02578336
73	0xbe626128	-0.22107375
74	0x3ce1a8b0	0.027546257
75	0xbdbc23fb	-0.0918655
76	0xbdf9aec0	-0.12191534
77	0xbdd9d46a	-0.10636218
78	0xbdcb0c0d	-0.09914408
79	0xbeaf061e	-0.34184355
80	0xbe812809	-0.25225857
81	0xbe29c267	-0.16578065
82	0xbe259fba	-0.16174212
83	0x3d86d6a9	0.06583912
84	0xbe1ff7be	-0.1562185
85	0xbe36473f	-0.17800616
86	0xbd87db2f	-0.06633603
87	0xbe0d825a	-0.13819256
88	0xbe2040f6	-0.1564978
89	0xbcc1a220	-0.023636878
90	0xbe6c52a3	-0.23078398
91	0xbe88f0dc	-0.2674626
92	0xbcf75249	-0.030190604
93	0x3e203a57	0.15647255
94	0xbd4ee39f	-0.050510045
95	0xbda47671	-0.080304034
96	0xbd8bf092	-0.068329945
97	0xbd36f49a	-0.044666864
98	0xbe6f4dd8	-0.23369539
99	0x3d6a4e63	0.05720366
100	0x3cca1a71	0.024670811
101	0xbc9d636f	-0.019212453
102	0xbe366c34	-0.17814714
103	0xbe8108dd	-0.25202075
104	0xbd41f44e	-0.047352128
105	0xbc7c75c5	-0.015408938
106	0xbe846aa6	-0.25862616
107	0xbe9b76a7	-0.30363962
108	0x3dd8e42f	0.105903976
109	0x3d1a8a6b	0.037729662
110	0xbdeaa381	-0.11456967
111	0x3d86d3d8	0.06583375
112	0xbe9137e5	-0.28362957
113	0x3d4e4618	0.050359815
114	0xbcd081a4	-0.025452442
115	0x3dc209ca	0.09474523
116	0x3c7ad77f	0.015310167
117	0x3dd0f160	0.10202289
118	0xbe27e808	-0.16397107
119	0xbea07498	-0.31338954
120	0xbe21b003	-0.157898
121	0xbe871596	-0.26383656
122	0xbdb582e4	-0.08862856
123	0xbe2ab751	-0.16671492
124	0xbe03a73c	-0.12856764
125	0x3d6f3caa	0.058407463
126	0xbeb4f657	-0.35344192
127	0xbe44e9c3	-0.19229798
128	0x3e479e4a	0.19493976
129	0x3e0ec52f	0.13942407
130	0xbc6deec1	-0.014522255
131	0xbdd92a7f	-0.106038086
132	0xbe0507dc	-0.1299128
133	0xbc7de47d	-0.01549637
134	0xbd00af52	-0.0314172
135	0xbde60086	-0.112305686
136	0x3e12d86c	0.14340371
137	0xbd614414	-0.054996565
138	0xbe29c4bd	-0.16578956
139	0xbe66c295	-0.22535165
140	0xbd440992	-0.04786069
141	0x3ccae437	0.024767024
142	0xbdd66da3	-0.1047013
143	0xbd7cc5f7	-0.06171223
144	0x3d230861	0.039802913
145	0xbe38bfc0	-0.18041897
146	0xbe187c92	-0.1489127
147	0x3d5db6e2	0.05412949
148	0xbe28ac62	-0.16472009
149	0x3d8fbcef	0.07018458
150	0x3e0179aa	0.12644067
151	0x3c7e3946	0.015516585
152	0xbe5ef22a	-0.21772066
153	0x3cb0f02e	0.021598902
154	0x3c91d0c5	0.017799744
155	0x3d2735d3	0.040822815
156	0xbe8a294c	-0.26984632
157	0xbdcd9b7a	-0.100394204
158	0xbd70cac0	-0.058787107
159	0xbdda1888	-0.1064921
160	0xbb64614e	-0.0034848037
161	0xbce1645a	-0.027513672
162	0xbea33761	-0.31878188
163	0x3e2846e9	0.164333
164	0xbd9b9922	-0.07597567
165	0xbd6f9961	-0.058495883
166	0xbe084919	-0.13309135
167	0xbe1e3fce	-0.15454027
168	0xbd6e9925	-0.05825152
169	0xbe179b16	-0.14805254
170	0xbe8dff2b	-0.2773374
171	0xbce0c224	-0.027436323
172	0xbdb67897	-0.089097194
173	0x3e039a75	0.1285189
174	0xbe9675d7	-0.2938678
175	0xbe2dfa50	-0.16990018
176	0x3b35c89a	0.0027737976
177	0xbe41238b	-0.18861215
178	0xbdd5b31b	-0.10434552
179	0x3d7bf1e8	0.061509997
180	0xbd9f6f28	-0.07784873
181	0xbd490ca5	-0.049084324
182	0xbe34ca86	-0.17655382
183	0xbe311a23	-0.17295127
184	0xbe8165ee	-0.2527308
185	0xbe5c9fb4	-0.21545297
186	0xbe3258ba	-0.17416659
187	0x3e73a7f7	0.23794542
188	0x3e439e90	0.19103456
189	0x3d67dfbb	0.05660985
190	0xbd9307b2	-0.07179202
191	0xbd48f303	-0.04905988
192	0xbec1d153	-0.37855014
193	0xbe7c2949	-0.24625124
194	0x3d0bb122	0.034104474
195	0x3e484c3b	0.1956033
196	0xbe3f462a	-0.18679109
197	0xbe261496	-0.1621879
198	0x3e0428ca	0.12906185
199	0x3d62e6f6	0.055396043
200	0xbc9cf3a4	-0.019159146
201	0xbe2d4d2c	-0.1692397
202	0xbd9c0d72	-0.07619752
203	0xbcae8e74	-0.021308161
204	0xbb10645c	-0.0022032475
205	0xbc8e1fbc	-0.017349117
206	0xbcf091cb	-0.029366395
207	0xbd8fcf4f	-0.07021963
208	0xbd22bda1	-0.039731625
209	0x3d6e6b50	0.05820781
210	0xbc3957dd	-0.011312452
211	0x3e7f74fa	0.24946967
212	0xbe779787	-0.24178897
213	0xbe4b2c72	-0.19841173
214	0xbdf46b19	-0.1193449
215	0xbde4b1dc	-0.111667365
216	0xbea20024	-0.31640732
217	0x3d723f22	0.05914224
218	0xbdaaf472	-0.083474055
219	0x3d19edde	0.037580363
220	0xbe45003e	-0.19238374
221	0xbe06a944	-0.13150507
222	0xbe3331ce	-0.17499468
223	0x3e2dec5e	0.16984698
224	0x3d375f05	0.044768352
225	0xbe23e27e	-0.16004369
226	0x3dde4f01	0.108549125
227	0xbe3eac41	-0.18620397
228	0xbe9fd6fa	-0.31218702
229	0xbcfd94a7	-0.030954672
230	0x3d3024b0	0.043003738
231	0xbd996574	-0.07490054
232	0xbeaeabd3	-0.34115466
233	0xbdf49d82	-0.11944105
234	0xbd6fa1bc	-0.05850385
235	0xbd0ba64b	-0.034094136
236	0xbe2a53c8	-0.16633523
237	0xbe148fb4	-0.14507943
238	0xbe562563	-0.209127
239	0xbe701d54	-0.23448688
240	0xbdde1153	-0.10843148
241	0xbe494e9d	-0.19658895
242	0x3d217c5a	0.03942523
243	0x3d565a9c	0.052332506
244	0xbdcd0c89	-0.100121565
245	0xbe8fbfbc	-0.2807597
246	0xbe8a6a9b	-0.2703446
247	0xbe084846	-0.1330882
248	0x3dc15e5c	0.09441826
249	0x3dd1f7cd	0.102523424
250	0xbd28463d	-0.04108261
251	0xbd6a701a	-0.057235815
252	0xbe821caf	-0.2541251
253	0x3d5c71de	0.05381953
254	0xbe0eacdd	-0.1393313
255	0x3cb037c1	0.02151096

fc2.weight f4 [128, 256]
0	0xbdb206a8	-0.08692676
1	0x3d93cb07	0.07216459
2	0x3db69fa1	0.089171655
3	0x3ca74689	0.020419376
4	0x3cabcee4	0.020972677
5	0xbd8be3a4	-0.068305284
6	0x3e05ae68	0.13054812
7	0x3e0af68f	0.13570617
8	0xbe2d2383	-0.16908078
9	0x3def1f97	0.11675947
10	0x3dcf9d54	0.1013743
11	0xbdbd847f	-0.09253787
12	0x3e235462	0.15950158
13	0x3d9f1785	0.07768158
14	0xbd20fe36	-0.039304934
15	0xbd90bc1c	-0.07067129
16	0x3d5a7b2d	0.053340126
17	0xbd9edbf4	-0.077567965
18	0x3d38e19f	0.045137044
19	0x3c81b487	0.015833152
20	0x3d24dcfd	0.040249813
21	0x3d957512	0.0729772
22	0xbdc80e00	-0.09768295
23	0xbd0df392	-0.034656115
24	0xbdccb2ea	-0.09995063
25	0xbe0cf67d	-0.13765903
26	0x3c76013b	0.015014942
27	0x3d4f2b1d	0.050578225
28	0xbdba0b89	-0.090842314
29	0x3e4f2c85	0.20231827
30	0xbd19a471	-0.03751034
31	0xbe449a79	-0.19199552
32	0x3d6b26bf	0.057409998
33	0xbd35e39b	-0.044406515
34	0xbc4c0a4b	-0.012453626
35	0x3d15f28d	0.036608268
36	0xbd717f30	-0.058959186
37	0x3da561d6	0.08075301
38	0x3d89f25b	0.06735679
39	0x3e2600cb	0.1621124
40	0xbc0de889	-0.008661398
41	0xbe039150	-0.12848401
42	0x3cd8df5a	0.02647369
43	0xbe3218ca	-0.17392269
44	0x3c429ce5	0.011878227
45	0xbce5df77	-0.028060658
46	0xbd9c9fce	-0.07647668
47	0x3e1bc626	0.15212306
48	0x3bb5f40b	0.005552774
49	0xbe2bd472	-0.1678026
50	0xbc29848a	-0.010346541
51	0xbc6889b5	-0.014192988
52	0x3cb754dc	0.022379331
53	0x3bc4e7fa	0.006009099
54	0x3e2993f8	0.16560352
55	0xbd824be3	-0.063621305
56	0x3d89b0d4	0.067231804
57	0x3dd474e6	0.10373859
58	0x3e33ea49	0.17569841
59	0x3d9961ec	0.0748938
60	0x3cf5ad15	0.029989759
61	0xbd6cdf22	-0.057829984
62	0xbd98748f	-0.07444107
63	0xbd3655d0	-0.04451543
64	0xbe78ef75	-0.24310096
65	0xbcf1371e	-0.029445227
66	0x3d0640f3	0.032776784
67	0xbabcf55e	-0.0014416387
68	0x3d0712ef	0.03297704
69	0xbdc01377	-0.093787126
70	0xbb292e56	-0.0025814972
71	0xbe09ea16	-0.13468203
72	0xbd47620d	-0.048677493
73	0x3e23ffc7	0.1601554
74	0xbdff212b	-0.12457498
75	0x3c1bc7fb	0.009508128
76	0x3df51fe6	0.11968975
77	0xbd927908	-0.07151991
78	0x3d3039f0	0.043024004
79	0x3ea9d7c5	0.33172432
80	0xbbd08af9	-0.006364223
81	0xbd5af38a	-0.053454913
82	0x3cba4b58	0.022741005
83	0xbdfbccb9	-0.12294907
84	0x3dd603d2	0.104499474
85	0x3cd353eb	0.025796851
86	0x3e414531	0.1887405
87	0xbe1f4006	-0.15551767
88	0xbe13bdb0	-0.14427829
89	0x3d0dec4c	0.03464918
90	0xbe29d7d5	-0.1658624
91	0x3dd7ce52	0.10537399
92	0xbdf1bdce	-0.118037805
93	0xbce31b02	-0.02772284
94	0x3c9b8997	0.018986506
95	0xbd2cb9cd	-0.04216938
96	0x3d51d829	0.051231537
97	0x3c53b12e	0.012920661
98	0xbc653ad0	-0.013991073
99	0x3d750997	0.0598236
100	0x3b531d02	0.0032213335
101	0xbdad9301	-0.084753044
102	0xbc1973fe	-0.009366034
103	0xbcb5f345	-0.022210727
104	0xbcacbf24	-0.021087237
105	0x3bda0505	0.0066534304
106	0xbe17a670	-0.14809585
107	0xbe82f409	-0.2557681
108	0x3e17cdb5	0.14824565
109	0x3c682887	0.014169819
110	0x3cc01ba2	0.023450676
111	0x3ddfeba5	0.109336175
112	0xbdbb742c	-0.091530174
113	0x3e064fde	0.13116404
114	0xbd9a0fee	-0.075225696
115	0x3ca14268	0.019684985
116	0x3e32e250	0.17469144
117	0xbb2f84c5	-0.0026782018
118	0xbde70e45	-0.112820186
119	0x3de03571	0.10947693
120	0x3d4cf70c	0.05004029
121	0x3d54dfda	0.051971294
122	0x3da99e8e	0.08282195
123	0x3df6d839	0.1205296
124	0x3dbd5870	0.09245384
125	0xbdd1c055	-0.102417625
126	0x3de241a6	0.11047678
127	0x3d883813	0.0665132
128	0xbdc6c92e	-0.09706341
129	0x3d23d55d	0.0399984
130	0x3d1b1397	0.03786048
131	0x3d32ec0c	0.043682143
132	0x3e00f1a6	0.12592182
133	0xbd8c358b	-0.0684615
134	0xbd5f8918	-0.054574102
135	0xbda90a0c	-0.082538694
136	0x3d8323b6	0.06403296
137	0x3df35d68	0.1188305
138	0x3dbc50be	0.09195088
139	0x3dac2bde	0.084068045
140	0xbe7c62c8	-0.24647057
141	0x3d386956	0.04502233
142	0x3e25edfb	0.16204064
143	0xbd553582	-0.052052982
144	0x3d406e50	0.046980202
145	0xbd314a6f	-0.043283876
146	0x3dc7edf8	0.09762186
147	0xbe122b5e	-0.14274356
148	0x3d5c60b9	0.05380318
149	0xbc2f1b82	-0.010687711
150	0xbd926608	-0.07148367
151	0x3d8b6d07	0.06807905
152	0xbde236c6	-0.110456035
153	0xbd7dc554	-0.061955765
154	0xbdb491ff	-0.08816909
155	0xbcaf3568	-0.02138777
156	0x3d96c60a	0.07361992
157	0x3cfe243e	0.031023141
158	0xbda4c05c	-0.08044502
159	0x3e1301b7	0.14356123
160	0x3c99bf7b	0.018768063
161	0xbc83ef3d	-0.016105289
162	0xbd76b6ee	-0.06023305
163	0xbcc6f608	-0.024287239
164	0xbe0cd5e5	-0.1375347
165	0xbdd176ff	-0.10227775
166	0xbcb2216a	-0.021744449
167	0xbb87459c	-0.004128171
168	0xbdddc264	-0.10828093
169	0x3e22fac3	0.1591597
170	0x3d012988	0.031533748
171	0x3df27bb7	0.11840003
172	0xbd6e1e66	-0.05813446
173	0xbda775a4	-0.08176735
174	0x3d9906a7	0.07471972
175	0xbc35be31	-0.011092708
176	0x3df0a990	0.117510915
177	0xbc05b3e7	-0.008160568
178	0x3d842045	0.064514674
179	0xbc963822	-0.018337313
180	0xbd72023e	-0.05908417
181	0xbb91682d	-0.0044374675
182	0xbd480acc	-0.04883842
183	0xbdbd4a4f	-0.09242689
184	0x3e0caa58	0.13736856
185	0x3cc5322e	0.02407178
186	0xbe59fbc0	-0.21287441
187	0xbd86c22e	-0.065800056
188	0xba0d3245	-0.0005386214
189	0x3df00e01	0.11721421
190	0xbcbcaba0	-0.023031056
191	0xbce3a411	-0.027788194
192	0xbd333ebe	-0.043761007
193	0xbcac3c70	-0.021024913
194	0xbdcca5d7	-0.09992569
195	0x3cb2e5b6	0.02183805
196	0xbc700107	-0.014648682
197	0x3cc4ae1d	0.024008805
198	0xbd947e15	-0.07250611
199	0x3db7c2c9	0.08972699
200	0xbbc9859d	-0.006149961
201	0x3df495ba	0.119426206
202	0xbdf3b980	-0.11900616
203	0xbe489ffa	-0.19592276
204	0x3db046f1	0.08607281
205	0x3d94756a	0.072489575
206	0x3da4426f	0.08020484
207	0xbd2adf82	-0.04171706
208	0xbd4503a7	-0.048099186
209	0x3e32dea3	0.17467742
210	0x3e4b64ec	0.19862717
211	0xbd9dabfa	-0.076988176
212	0x3d823d99	0.06359405
213	0x3dca330d	0.098730184
214	0x3d99cecb	0.07510146
215	0xbb3de4a2	-0.0028975387
216	0xbacdaa25	-0.0015690966
217	0x3de4da0b	0.11174401
218	0xbe05537b	-0.13020127
219	0xbc699254	-0.014256079
220	0xbe0e3b37	-0.13889776
221	0xbc3e88f2	-0.01162933
222	0xbd3e2b10	-0.046427786
223	0x3dd7d65f	0.10538935
224	0x3d7bd74c	0.06148462
225	0x3d209c0d	0.03921132
226	0xbdcfed61	-0.10152698
227	0x3d455369	0.04817525
228	0xbadc2a44	-0.0016797264
229	0xbd59c122	-0.0531627
230	0x3d912ebd	0.07088993
231	0xbd05a64f	-0.032629307
232	0xbe3fcb66	-0.18729934
233	0x3d35af9a	0.04435692
234	0xbde88ab0	-0.113545775
235	0x3df6f5d6	0.12058608
236	0xbc2142e6	-0.00984261
237	0x3e209fc7	0.1568595
238	0xbe433f65	-0.19067152
239	0x3e001af6	0.12510285
240	0x3d3aae36	0.045576297
241	0xbd913735	-0.07090608
242	0xbda6890b	-0.081316076
243	0x3cfd4503	0.030916696
244	0xbe037b6f	-0.12840055
245	0x3cd50406	0.026002895
246	0xbe273ffb	-0.16333
247	0xbc140905	-0.009035354
248	0xbd836ad1	-0.06416858
249	0xbc94498d	-0.018101478
250	0xbd6b5c50	-0.057461083
251	0x3c7de8dc	0.0154974125
252	0xbdf56e3a	-0.11983915
253	0xbde220b3	-0.11041393
254	0xbbdfab57	-0.006825845
255	0x3c819f5f	0.015823064

fc2.bias f4 [128]
0	0x3d751675	0.05983587
1	0x3dc9f048	0.09860283
2	0x3d3ea079	0.046539757
3	0x3d90b6e8	0.070661366
4	0x3ccce2b9	0.025010454
5	0x3c9830c7	0.018577946
6	0x3d90af67	0.07064705
7	0x3cafebaf	0.021474687
8	0xbd9dc182	-0.07702924
9	0x3d970644	0.07374242
10	0x3d443c8c	0.047909304
11	0x3d07bc44	0.03313853
12	0xbc4680c7	-0.012115664
13	0x3e37d304	0.1795159
14	0x3baab522	0.005209581
15	0xbc8b1336	-0.016976934
16	0x3db86eaa	0.090054825
17	0x3d2391be	0.039933912
18	0xbd8aa7bd	-0.06770275
19	0xbd579bd4	-0.052638844
20	0x3dc107bb	0.094253026
21	0xbd871c5d	-0.06597207
22	0x3e831413	0.25601253
23	0xbcedff7c	-0.029052489
24	0xbd34ec20	-0.0441705
25	0xbd75ce06	-0.060010932
26	0x3da54ca0	0.08071256
27	0x3dd810a1	0.10550047
28	0xbda7516a	-0.081698254
29	0xbcfcb433	-0.030847644
30	0x3c826195	0.015915671
31	0xbd0345e5	-0.03204908
32	0xbd9ddc8d	-0.07708082
33	0x3d8be0d5	0.06829993
34	0x3c492e9b	0.012279178
35	0x3c1c2051	0.009529189
36	0xbc09a5ea	-0.008401373
37	0xbca80fbc	-0.020515315
38	0xbd0546e3	-0.032538306
39	0xbd459578	-0.048238248
40	0xbd719f08	-0.058989555
41	0xbd104dcc	-0.035230443
42	0xbd56e708	-0.052466422
43	0x3ccf1c73	0.02528212
44	0x3e2c4fa1	0.16827251
45	0x3d8c3b4f	0.0684725
46	0x3e90dfd1	0.28295758
47	0x3e8c6388	0.27419686
48	0x3dc30fb7	0.09524482
49	0x3c359567	0.011082984
50	0xbbe17f73	-0.006881648
51	0xbc855c61	-0.016279401
52	0x3bdc82fc	0.0067294817
53	0xbd8d0b77	-0.06886952
54	0x3d54a916	0.051919065
55	0xbdab0423	-0.083503984
56	0x3d3233f8	0.043506593
57	0x3e1f4d38	0.155568
58	0xbcfde535	-0.030993083
59	0xbcd0e960	-0.025501907
60	0x3d19347d	0.037403572
61	0xbd165c6d	-0.036709238
62	0x3d9fc1da	0.07800646
63	0xbda0eeca	-0.078580454
64	0xbd3b9210	-0.045793593
65	0xbc6fd6ae	-0.014638586
66	0x3d2ae993	0.04172666
67	0xbe39fe76	-0.18163475
68	0x3d60afbf	0.054855105
69	0x3c8b7363	0.017022794
70	0x3da116ae	0.07865654
71	0x3c021fbc	0.007942136
72	0xbcb2a56b	-0.021807393
73	0x3d780e72	0.06056065
74	0xbbf7a0d0	-0.007557012
75	0x3d05af53	0.032637905
76	0x3d3e2a8e	0.046427302
77	0x3d4554bc	0.048176512
78	0xbd08893f	-0.033334013
79	0x3e4c6591	0.1996062
80	0x3e4159a3	0.1888185
81	0x3d947e09	0.07250602
82	0x3dab2c00	0.08358002
83	0x3cbfa434	0.023393728
84	0x39f8a835	0.0004742757
85	0x3b01b122	0.0019789417
86	0x3c0f4172	0.008743631
87	0x3d8ba303	0.068182014
88	0xbcde34ba	-0.027124751
89	0x3ca05d31	0.019575687
90	0x3cdefb43	0.02721942
91	0x3e53eba2	0.20695356
92	0xbd38b58c	-0.04509501
93	0x3df83f08	0.12121397
94	0x3dfed1a8	0.124423325
95	0x3dc9a021	0.09844995
96	0x3cc1e45a	0.023668457
97	0x3daca31c	0.08429548
98	0x3d5c4621	0.053777818
99	0x3e08bcd8	0.13353288
100	0x3c6bd271	0.014393435
101	0xbdbe74e5	-0.092996396
102	0x3c37dcfb	0.011222119
103	0xbdd25356	-0.10269801
104	0x3d033b48	0.032038957
105	0x3cf37805	0.029720316
106	0x3cb0a59d	0.021563346
107	0x3b42755c	0.0029672002
108	0xbdab1dd7	-0.08355301
109	0xbd21d8be	-0.039513342
110	0xbc7efaf2	-0.01556276
111	0x3d24a40a	0.040195502
112	0x3e488e85	0.19585617
113	0x3d49411d	0.049134362
114	0x3c90a9bb	0.017659059
115	0xbd0040eb	-0.03131191
116	0x3ead69b4	0.33869708
117	0xbdbc343a	-0.09189649
118	0x3cd29838	0.02570735
119	0x3e517c2d	0.20457526
120	0xbd92e744	-0.07173017
121	0xbcdc642a	-0.02690323
122	0x3d8ded73	0.069300555
123	0xbd0099fc	-0.03139685
124	0x3d606e07	0.05479243
125	0x3d41a0f6	0.047272645
126	0x3db88a00	0.090106964
127	0xbd190c3c	-0.037365183

fc3.weight f4 [2, 128]
0	0xbe028d63	-0.12749247
1	0xbe0ffd1c	-0.14061397
2	0x3d996134	0.07489243
3	0x3e1cfe28	0.15331328
4	0xbe50cdf9	-0.20391072
5	0x3dee4cf9	0.11635775
6	0xbdbeb8d8	-0.093126
7	0xbdeb1962	-0.11479451
8	0xbeb3d1bc	-0.35120952
9	0x3e266cf7	0.16252504
10	0xbe2f4b0b	-0.1711847
11	0x3dd341ff	0.10315322
12	0x3e1c3e22	0.15258077
13	0xbbbaf29d	-0.0057051913
14	0xbd8ebeba	-0.06969972
15	0xbdc89a2c	-0.09795031
16	0x3e21bb46	0.15794095
17	0x3ee96033	0.45581207
18	0xbe467ab1	-0.1938274
19	0x3de6bffd	0.112670876
20	0xbd78fc74	-0.060787633
21	0xbe35188b	-0.17685144
22	0x3c5ae49e	0.013360171
23	0x3e4862bc	0.19568914
24	0xbe41316d	-0.1886651
25	0xbe28efc3	-0.16497712
26	0x3d386206	0.045015357
27	0xbef18f4f	-0.47179648
28	0xbef8b65b	-0.48576626
29	0xbe3fdfc5	-0.18737705
30	0x3d45cabe	0.048289053
31	0xbdec7667	-0.11546021
32	0xbf0538cd	-0.52039796
33	0xbe0b656b	-0.13612907
34	0x3d6c57b0	0.057700813
35	0xbbf97f4e	-0.007614053
36	0x3e6021f7	0.21887957
37	0xbedc1561	-0.4298506
38	0x3eaf5138	0.34241652
39	0x3ea9e51f	0.33182618
40	0xbe6ed746	-0.23324308
41	0xbe2c8e9b	-0.16851275
42	0xbe0171e0	-0.12641096
43	0xbdd1df32	-0.10247649
44	0x3cdb78b5	0.026790956
45	0x3c44ef6c	0.012019973
46	0x3cdb1fdc	0.02674859
47	0x3cab20ca	0.020889658
48	0xbe9f2d6d	-0.31089345
49	0x3e90ee36	0.2830674
50	0x3df992dd	0.12186215
51	0xbdfb0cbe	-0.1225829
52	0xbdf51d59	-0.11968488
53	0xbdd3d5bc	-0.10343501
54	0x3e908875	0.28229108
55	0xbe39bf0c	-0.18139285
56	0x3e453247	0.1925746
57	0xbcc9f994	-0.024655141
58	0xbe47b234	-0.19501573
59	0xbe853d59	-0.26023367
60	0x3e19483b	0.1496896
61	0x3d5015a5	0.05080189
62	0xbc9dd6b6	-0.019267421
63	0x3e906e13	0.2820898
64	0xbde5462e	-0.11195026
65	0xbe95ade2	-0.29234225
66	0x3e0ee4a0	0.13954401
67	0xbe3f1536	-0.18660435
68	0x3e40ff74	0.18847448
69	0xbde71ee7	-0.11285191
70	0xbd5d519b	-0.054032903
71	0x3c9e80d8	0.019348547
72	0x3e01ad2a	0.12663713
73	0xbe80ee7d	-0.25181952
74	0xbdf855e4	-0.12125757
75	0xbddc51f2	-0.10757817
76	0xbb589f42	-0.003305391
77	0x3e4e51a3	0.2014833
78	0x3d8ae4c4	0.06781915
79	0xbcac8472	-0.021059249
80	0x3d6c8c7e	0.05775117
81	0xbdd8f95d	-0.10594437
82	0x3d44a8ee	0.048012666
83	0xbe06dea3	-0.13170867
84	0x3de89329	0.113561936
85	0xbde9cbb5	-0.11415807
86	0x3dc6e57a	0.09711738
87	0x3de89240	0.1135602
88	0xbe07fd64	-0.13280255
89	0x3e173f6d	0.14770289
90	0x3d875524	0.06608036
91	0x3cf7b340	0.03023684
92	0x3cbdce85	0.023169765
93	0xbca92c40	-0.020650983
94	0x3d9191ae	0.07107864
95	0x3d6c3d73	0.05767579
96	0x3e100b71	0.14066865
97	0xbdfad73e	-0.122480854
98	0xbe011dd5	-0.12609036
99	0xbd652e02	-0.05595208
100	0x3e823b8f	0.25436065
101	0x3e2508df	0.16116665
102	0x3e8d9d7c	0.27659214
103	0xbe372164	-0.17883831
104	0xbe15eac8	-0.14640343
105	0x3dcdeecb	0.10055312
106	0xbe4dac73	-0.20085315
107	0x3e46fa1f	0.19431351
108	0x3e9e3aa7	0.30904123
109	0xbe31ce99	-0.17363967
110	0xbd83a708	-0.06428343
111	0x3decc463	0.11560895
112	0xbc45a11a	-0.012062335
113	0x3e6596e1	0.22420837
114	0x3e394cf4	0.18095762
115	0xbe1ec275	-0.15503867
116	0x3c7fdd0c	0.0156166665
117	0x3e6368ad	0.222079
118	0xbe5018de	-0.20321986
119	0xbcc8327f	-0.02443814
120	0xbd973df9	-0.07384867
121	0x3e063ac3	0.13108353
122	0xbe21141f	-0.15730332
123	0xbe28a11f	-0.16467713
124	0x3db75f7e	0.089537606
125	0xbe86cd38	-0.26328444
126	0x3e452fe3	0.19256549
127	0xbe84a561	-0.25907424
128	0xbecbb6b3	-0.39787826
129	0x3d35d200	0.044389725
130	0xbf31d987	-0.69472545
131	0xbd32c582	-0.04364539
132	0xbdae1af3	-0.08501234
133	0x3d5a39dd	0.05327784
134	0x3d80a1a5	0.06280831
135	0xbdd56893	-0.104203366
136	0xbcf08544	-0.029360421
137	0xbe456202	-0.19275668
138	0xbea5f0cf	-0.32410285
139	0xbeaaca09	-0.33357266
140	0xbd535085	-0.05159046
141	0x3eaf3cb9	0.34226015
142	0x3e951ddd	0.29124346
143	0x3dff85c3	0.12476685
144	0xbd79fe0c	-0.061033294
145	0x3d004997	0.03132018
146	0xbed791fb	-0.42103562
147	0xbeee6eac	-0.4656881
148	0x3e19d5db	0.15022986
149	0x3e65f137	0.22455297
150	0x3eaf441d	0.34231654
151	0xbe161213	-0.14655332
152	0x3e4dc674	0.20095235
153	0xbc3c7ec1	-0.01150483
154	0x3e56a9a6	0.20963153
155	0xbd2b2b6c	-0.041789457
156	0x3e8b5e90	0.27220583
157	0x3cdd2b4b	0.026998183
158	0xbf0f1e04	-0.55905175
159	0xbd051a29	-0.03249565
160	0x3c861064	0.016365238
161	0xbec38340	-0.38186073
162	0xbda992fe	-0.0827999
163	0x3ec8ee23	0.39244184
164	0xbe7934e7	-0.24336587
165	0xbe60ce60	-0.21953726
166	0x3dc9cb46	0.098532245
167	0xbcef0eb1	-0.02918181
168	0x3e16641b	0.14686625
169	0x3c007177	0.007839552
170	0xbe8e0dc7	-0.27744886
171	0xbeae77f0	-0.3407588
172	0x3e6dd941	0.23227407
173	0xbef7a9d9	-0.4837177
174	0x3eda0638	0.4258287
175	0x3e995cbb	0.2995356
176	0x3da124ec	0.078683704
177	0xbe8651e9	-0.26234367
178	0xbda1ed1c	-0.07906553
179	0xbe9443d2	-0.28957993
180	0xbf752ddf	-0.9577312
181	0xbb723565	-0.0036958095
182	0x3d342042	0.043976076
183	0x3e8b1d15	0.27170625
184	0xbe2e7543	-0.1703692
185	0x3e8df119	0.27723005
186	0xbe411ffa	-0.18859854
187	0x3e046f49	0.12933077
188	0xbe8f5e78	-0.2800176
189	0xbf0dc3ef	-0.55377096
190	0xbf4998cd	-0.7874878
191	0xbf0deb3b	-0.5543706
192	0x3dba1e0b	0.090877615
193	0x3c9ddc87	0.019270195
194	0xbe98ff77	-0.29882404
195	0xbe00e6b6	-0.12588009
196	0x3d3a7cfd	0.045529354
197	0x3e2ac59f	0.16676949
198	0xbee2452d	-0.44193402
199	0xbf06b762	-0.5262357
200	0xbe908faf	-0.28234622
201	0xbed041b8	-0.4067514
202	0x3d6ecabf	0.058298822
203	0x3dbfc266	0.093632504
204	0xbf0dd63e	-0.5540503
205	0xbd7d7c42	-0.06188608
206	0xbed6d01a	-0.41955644
207	0x3e934f16	0.28771275
208	0x3e963d09	0.2934344
209	0xbf14c865	-0.5811828
210	0xbebc524d	-0.3678154
211	0x3d5aa0d6	0.05337604
212	0xbf061060	-0.52368736
213	0xbeec62aa	-0.46169025
214	0xbe477e43	-0.19481759
215	0xbdb44cf8	-0.08803743
216	0xbe9465b5	-0.28983846
217	0xbeb248e3	-0.34821233
218	0xbefb8750	-0.49126673
219	0x3f013eaf	0.5048627
220	0xbec614c8	-0.3868773
221	0xbf18ae2e	-0.5964078
222	0x3e4a8f6e	0.19781277
223	0xbf03d029	-0.514895
224	0xbf031ada	-0.5121285
225	0xbe5b6087	-0.21423541
226	0x3c95ee84	0.01830221
227	0xbf012b80	-0.50457
228	0xbf0fe5e4	-0.5621016
229	0xbecf7513	-0.40519008
230	0xbeacc1ad	-0.33741513
231	0x3e15b83c	0.14621061
232	0x3e6e94f3	0.23299007
233	0xbebd0bb6	-0.36922997
234	0xbc5bbd0a	-0.01341177
235	0xbeaeae09	-0.34117153
236	0xbe8efd75	-0.27927747
237	0x3c899be6	0.016797971
238	0xbed9d851	-0.4254785
239	0xbe1eb1fc	-0.15497583
240	0x3ebe6cf6	0.37192506
241	0x3e74edb6	0.23918805
242	0xbdcb470c	-0.099256605
243	0x3e848586	0.2588312
244	0x3ee6a404	0.4504701
245	0xbf344713	-0.7042095
246	0x3a3a4321	0.000710534
247	0x3ebf1bc9	0.37325886
248	0xbf3000f7	-0.6875147
249	0xbecd2918	-0.40070415
250	0x3e213665	0.15743406
251	0x3d0c7d45	0.034299154
252	0xbed91490	-0.423985
253	0xbdafeb29	-0.08589775
254	0x3d593bd5	0.053035576
255	0xbe3d29cb	-0.18472974

fc3.bias f4 [2]
0	0xbd436436	-0.04770299
1	0x3e83abc6	0.2571699

bn1.weight f4 [256]
0	0x3f99ac01	1.2005616
1	0x3f9a57d1	1.205805
2	0x3f94d9df	1.1628989
3	0x3f97c262	1.1856196
4	0x3f8c150a	1.0943921
5	0x3f9ca547	1.2237939
6	0x3f91d386	1.1392677
7	0x3f917fc6	1.1367118
8	0x3f9ad45a	1.2096055
9	0x3f96a808	1.1770029
10	0x3f9104c2	1.1329577
11	0x3f9da68d	1.2316452
12	0x3fa2773a	1.2692635
13	0x3f920c4f	1.1410006
14	0x3fb32e59	1.3998519
15	0x3f9c505a	1.2212021
16	0x3f95dd61	1.1708184
17	0x3f99f7a5	1.20287
18	0x3f9230f5	1.142119
19	0x3fa1cb40	1.2640152
20	0x3f9a89c8	1.2073298
21	0x3f911ea8	1.133748
22	0x3f93ecba	1.1556618
23	0x3f9731fd	1.181213
24	0x3fa62e05	1.2982794
25	0x3f9ece42	1.2406695
26	0x3fa34d8b	1.2758039
27	0x3f8cb69d	1.0993229
28	0x3f9cbb0c	1.2244582
29	0x3f9438f7	1.1579884
30	0x3f9f9108	1.2466135
31	0x3fae8564	1.3634458
32	0x3f8bb58c	1.0914779
33	0x3fa5a004	1.2939458
34	0x3f902551	1.1261388
35	0x3f8d744f	1.105112
36	0x3fac33db	1.3453325
37	0x3fad622a	1.3545582
38	0x3f908147	1.1289452
39	0x3fa287ab	1.2697653
40	0x3fa3602c	1.2763724
41	0x3fa07389	1.2535259
42	0x3fb1030d	1.3829056
43	0x3f923984	1.1423802
44	0x3f85cd6f	1.0453318
45	0x3f9ec9c5	1.2405325
46	0x3fb1330e	1.3843706
47	0x3f8c9fdf	1.0986289
48	0x3f9834c5	1.1891104
49	0x3f99a866	1.2004516
50	0x3f923532	1.1422484
51	0x3f8cc6c6	1.0998161
52	0x3f8f522e	1.1196954
53	0x3fa09ab3	1.254721
54	0x3f9bec35	1.218146
55	0x3f929739	1.14524
56	0x3f9d3808	1.2282724
57	0x3f9c24e8	1.2198763
58	0x3f9a801b	1.2070345
59	0x3f98f64b	1.1950163
60	0x3f97357e	1.18132
61	0x3fb881dd	1.4414631
62	0x3f9bcf7f	1.2172698
63	0x3f935a4e	1.1511934
64	0x3fa6bd4c	1.3026519
65	0x3f95b4a2	1.169575
66	0x3fad95c7	1.3561333
67	0x3f863c58	1.0487165
68	0x3f99fc3b	1.20301
69	0x3fa7424f	1.3067111
70	0x3fa3692c	1.2766471
71	0x3f96d4cc	1.178369
72	0x3f8293da	1.0201371
73	0x3f9b2627	1.2121018
74	0x3f9ae8b9	1.2102271
75	0x3fa378b0	1.2771206
76	0x3f88aac0	1.0677109
77	0x3f9cdee5	1.2255522
78	0x3f9d177d	1.2272793
79	0x3fb18c68	1.3870974
80	0x3f91c39a	1.1387818
81	0x3f9289a3	1.1448253
82	0x3f8b6b75	1.0892168
83	0x3fa1bcd5	1.2635752
84	0x3fa22c65	1.2669798
85	0x3f90da21	1.1316568
86	0x3f979d33	1.1844848
87	0x3f98abdd	1.1927449
88	0x3f9317b9	1.1491615
89	0x3f9ae359	1.2100631
90	0x3f9ee600	1.241394
91	0x3f966c28	1.1751757
92	0x3f99fa28	1.2029467
93	0x3f9be342	1.2178729
94	0x3fa79414	1.3092065
95	0x3fa30615	1.2736231
96	0x3f9d32a8	1.2281084
97	0x3f981905	1.1882635
98	0x3f8ec50d	1.1153885
99	0x3f983a14	1.1892724
100	0x3fa0f3d8	1.2574415
101	0x3f8bdae7	1.0926179
102	0x3f96799d	1.1755863
103	0x3f9eeefd	1.2416683
104	0x3fa0f2e0	1.257412
105	0x3fa12203	1.2588505
106	0x3f880e6a	1.0629399
107	0x3f9cd3fd	1.2252194
108	0x3f8fe275	1.1240984
109	0x3f928479	1.1446677
110	0x3f90c41c	1.1309848
111	0x3f9460bb	1.159202
112	0x3f9b1c3f	1.2117995
113	0x3f9ef476	1.2418354
114	0x3f989355	1.1919962
115	0x3f91507e	1.1352689
116	0x3f9c0ea7	1.2191972
117	0x3f9b0208	1.2109995
118	0x3f9f52a4	1.2447095
119	0x3f9b5777	1.2136067
120	0x3fa38034	1.27735
121	0x3f95329f	1.1656073
122	0x3f8c8d08	1.0980539
123	0x3f9ed434	1.2408509
124	0x3fb8b1f9	1.4429313
125	0x3f8ccbe0	1.0999718
126	0x3fa20a8e	1.2659471
127	0x3f9c0f78	1.2192221
128	0x3f92afeb	1.1459936
129	0x3f9d1e18	1.2274809
130	0x3fa04f06	1.2524116
131	0x3f8c8ccb	1.0980467
132	0x3f8d89fb	1.1057733
133	0x3fa6fe30	1.3046322
134	0x3f97747d	1.1832424
135	0x3f94c796	1.1623409
136	0x3f937bd3	1.1522163
137	0x3f90a5ab	1.1300558
138	0x3fa2d78d	1.2722031
139	0x3f9e21d4	1.2354074
140	0x3f8ec792	1.1154654
141	0x3f9bb077	1.2163228
142	0x3fa4d6e2	1.2878077
143	0x3f8f61cc	1.120172
144	0x3f9e377e	1.2360685
145	0x3f94f206	1.163636
146	0x3f91482b	1.1350149
147	0x3f9ee140	1.2412491
148	0x3f9f07dc	1.2424273
149	0x3f87f2e5	1.0621
150	0x3f949d69	1.1610538
151	0x3f9271e4	1.1441007
152	0x3f9b0d49	1.2113429
153	0x3fa30629	1.2736255
154	0x3fb0adf4	1.3803086
155	0x3f9d14ce	1.2271974
156	0x3f88c50a	1.0685132
157	0x3f9fc69c	1.2482486
158	0x3f8b89f6	1.0901477
159	0x3f93982d	1.1530815
160	0x3f9fca3c	1.2483592
161	0x3f91be21	1.1386148
162	0x3f8dcbf6	1.1077869
163	0x3f8c82b0	1.0977383
164	0x3f8aa8e3	1.083279
165	0x3f9e9b75	1.2391192
166	0x3f911cfa	1.1336968
167	0x3f8b0181	1.0859834
168	0x3fa6ba4f	1.3025607
169	0x3fa8cec9	1.3188106
170	0x3f99ce8c	1.2016158
171	0x3f92b3ad	1.1461083
172	0x3f952985	1.1653296
173	0x3f92f391	1.148058
174	0x3f943e2e	1.1581476
175	0x3f8eac0e	1.1146257
176	0x3f98652d	1.1905876
177	0x3fa8a0a6	1.3174026
178	0x3f97a7ef	1.1848124
179	0x3f97809b	1.1836122
180	0x3fa05f4d	1.2529083
181	0x3f8bb8c6	1.0915763
182	0x3f9ea362	1.239361
183	0x3f9462e0	1.1592674
184	0x3f9fceb0	1.2484951
185	0x3f972d33	1.1810669
186	0x3f9c838d	1.2227646
187	0x3f859ddc	1.04388
188	0x3f88620d	1.0654923
189	0x3f9762d8	1.182704
190	0x3f9cbe34	1.2245545
191	0x3f89e332	1.077246
192	0x3fa2b84a	1.271249
193	0x3f9c4df0	1.2211285
194	0x3fa3c39b	1.2794069
195	0x3f9b5320	1.2134743
196	0x3fa6285f	1.298107
197	0x3f995aea	1.198087
198	0x3f97fedc	1.1874652
199	0x3f937b9c	1.1522098
200	0x3f94ed6c	1.1634955
201	0x3f97a268	1.1846437
202	0x3f99adea	1.2006199
203	0x3f8f2135	1.1182009
204	0x3f960906	1.1721504
205	0x3f92d64e	1.1471651
206	0x3f8da1f7	1.1065053
207	0x3fa9e56f	1.3273143
208	0x3f9abd55	1.208903
209	0x3f9fff5a	1.2499802
210	0x3f9f76a6	1.2458084
211	0x3f966c17	1.1751736
212	0x3faa5112	1.3305991
213	0x3f9f6461	1.2452508
214	0x3fa4731d	1.284763
215	0x3f9e838e	1.2383897
216	0x3f95f55c	1.1715503
217	0x3f8c7bb1	1.0975248
218	0x3f9f9f19	1.2470428
219	0x3f92170d	1.1413285
220	0x3fb3073b	1.3986582
221	0x3f912b7e	1.1341398
222	0x3f988371	1.1915113
223	0x3f985de0	1.1903648
224	0x3f8b09ac	1.0862327
225	0x3f9ae773	1.2101883
226	0x3f9a4bcb	1.205438
227	0x3f973b37	1.1814946
228	0x3f9d93ff	1.231079
229	0x3fb0bec0	1.3808212
230	0x3fb1166b	1.3834966
231	0x3fa5a3e0	1.2940636
232	0x3fa19d30	1.2626095
233	0x3f8e9ee6	1.1142242
234	0x3f98b9a8	1.1931658
235	0x3f9290db	1.1450456
236	0x3f949f2b	1.1611074
237	0x3fa8db1b	1.3191866
238	0x3f94a2dd	1.1612202
239	0x3f8f559a	1.1197999
240	0x3f8ba191	1.0908681
241	0x3f9a41ae	1.2051294
242	0x3f944a03	1.1585087
243	0x3f8ac3f9	1.0841056
244	0x3fa48a86	1.2854774
245	0x3f97f41e	1.1871374
246	0x3f966d0e	1.1752031
247	0x3fc22c31	1.5169736
248	0x3f93535b	1.1509813
249	0x3f932d35	1.1498171
250	0x3f9a1c34	1.2039857
251	0x3f959041	1.1684648
252	0x3f9fe243	1.2490925
253	0x3fa6a33c	1.3018565
254	0x3f9a82b0	1.2071133
255	0x3f95b7a6	1.169667

bn1.bias f4 [256]
0	0x3bcf83d2	0.006332853
1	0xbdc28599	-0.09498138
2	0xbcf02bb1	-0.029317709
3	0x3d8cc1a2	0.0687287
4	0xbdd3d5d9	-0.103435226
5	0x3deba638	0.11506313
6	0xbdbcea7a	-0.0922441
7	0xbc863b47	-0.016385688
8	0x3d8924d9	0.06696481
9	0xbe037845	-0.12838848
10	0x3acc1c76	0.0015572447
11	0x3cd8efdc	0.026481561
12	0x3c778129	0.015106478
13	0x3c2e9a7e	0.010656951
14	0x3db9c7d2	0.09071316
15	0x3d47ab39	0.048747275
16	0xbbbb185a	-0.00570969
17	0x3e16f03d	0.14740081
18	0xbc0aee48	-0.008479662
19	0xbdc24781	-0.094862945
20	0xbdc5bc06	-0.09655003
21	0xbcfd56aa	-0.030925114
22	0xbccaa587	-0.024737133
23	0xbc8fc37f	-0.017549274
24	0x3d115d9e	0.03548967
25	0x3dbcb07d	0.0921335
26	0x3de5e27f	0.11224841
27	0xbde9ff2b	-0.114256226
28	0x3d8f9d7d	0.070124604
29	0xbcf670d7	-0.030083103
30	0xbd26babf	-0.04070544
31	0xbb293224	-0.002581724
32	0x3dc381d1	0.09546245
33	0xbce16d25	-0.027517864
34	0xbc4150ba	-0.011799032
35	0x388253ad	6.214469e-05
36	0xbdb16096	-0.086610004
37	0x3ca7b6aa	0.020472843
38	0x3d85a868	0.065262616
39	0xbd148eb6	-0.036268912
40	0xbd657d6a	-0.056027807
41	0x3df493ca	0.11942251
42	0xbd053ae7	-0.032526877
43	0x3c9540a6	0.018219303
44	0x3d30ca94	0.043161944
45	0xbcc75751	-0.024333628
46	0x3ca3ea2d	0.020009125
47	0x3d406ef2	0.046980806
48	0xbd47266e	-0.048620634
49	0x3dd6a2b7	0.10480254
50	0xbd108307	-0.035281207
51	0x3c44a92c	0.012003224
52	0xbd13dc93	-0.036099028
53	0xbd224f69	-0.039626513
54	0xbdd6ce4a	-0.10488565
55	0x3d14f8ff	0.036370274
56	0xbd99e738	-0.075148046
57	0x3c965087	0.018348945
58	0xbd499467	-0.049213793
59	0xbdc76055	-0.09735171
60	0xbd1cfe65	-0.038328547
61	0xbdde9ff0	-0.108703494
62	0x3d5932ef	0.05302709
63	0xbdd93b3c	-0.10607001
64	0xbb222620	-0.0024741963
65	0x3d3c3c42	0.045955904
66	0xbb0b96eb	-0.002129967
67	0xbd1fba70	-0.03899616
68	0xbd98a074	-0.07452479
69	0xbde0bdf4	-0.10973731
70	0xbc6d68f3	-0.014490354
71	0x3df3e0eb	0.11908134
72	0xbd1b154f	-0.03786212
73	0x3c7cfc73	0.015441048
74	0x3db5e657	0.088818245
75	0xbc3f9492	-0.011693137
76	0x3bb91dd6	0.0056493087
77	0x3cfc4e92	0.030799184
78	0x3cd27080	0.02568841
79	0xbc039e6a	-0.008033374
80	0x3ca8322e	0.02053174
81	0x3d52cbb6	0.051463805
82	0xbe26262e	-0.16225502
83	0x3d51e692	0.05124528
84	0xbd6bd30f	-0.057574328
85	0xbe0bb721	-0.13644077
86	0xbd88998f	-0.06669914
87	0x3cf4e140	0.029892564
88	0x3d496a50	0.049173653
89	0x3d83c0de	0.06433271
90	0x3d19a81f	0.03751385
91	0xbd0dfd08	-0.034665138
92	0x3d4a982e	0.049461536
93	0xbd05e2a4	-0.032686844
94	0xbd694775	-0.056952912
95	0x3e0212da	0.12702504
96	0xbd73bb45	-0.059504766
97	0xbc9031af	-0.017601816
98	0xbcf8d94e	-0.030377056
99	0xbda254d4	-0.07926336
100	0xbd0f52f8	-0.034991235
101	0x3911afc4	0.00013893755
102	0x3d84fb7f	0.064932816
103	0x3db60e63	0.08889463
104	0xbd527e38	-0.051389903
105	0x3d88861a	0.06666203
106	0xbd4fb4ef	-0.05070966
107	0x3e621e3d	0.22081847
108	0xbd9c5247	-0.07632881
109	0x3c8649ab	0.01639255
110	0x3bc89914	0.006121764
111	0xbc809f31	-0.015700908
112	0xbc1cb092	-0.009563582
113	0xbdfc8093	-0.12329211
114	0x3d00563d	0.031332243
115	0x3d8e3b64	0.069449216
116	0xbda9daed	-0.0829371
117	0xbe185dab	-0.14879481
118	0x3c338ffc	0.0109596215
119	0xbd996942	-0.074907795
120	0x3be31c99	0.0069308993
121	0x3dd26f4c	0.102751344
122	0xbd04c2b6	-0.032412253
123	0xbdb64bfa	-0.0890121
124	0x3e170f88	0.14752018
125	0x3d682d96	0.0566841
126	0xbde02cec	-0.10946068
127	0xbe1ef50e	-0.15523168
128	0x3d8cd679	0.06876845
129	0x3b5af55c	0.0033410406
130	0x3d8187e9	0.06324751
131	0x3d16676d	0.03671973
132	0xbdcc47fa	-0.09974666
133	0x3d2e21ea	0.04251281
134	0x3d8eac26	0.069664285
135	0x3d24b43f	0.04021096
136	0xbd19d883	-0.037559997
137	0xbce75cb5	-0.028242448
138	0xbbfea6b3	-0.007771337
139	0x3d347370	0.044055402
140	0xbc943594	-0.018091954
141	0xbd623f27	-0.055236008
142	0xbdbaee43	-0.09127476
143	0xbe14393a	-0.14474955
144	0xbda243a0	-0.07923055
145	0xbd01318b	-0.03154139
146	0xbe035b04	-0.12827688
147	0xbe188b03	-0.14896779
148	0xbd7840c8	-0.060608655
149	0x3bd3a827	0.0064592543
150	0xbccc2c3d	-0.024923438
151	0x3dbfb0f8	0.09359926
152	0x3dbfb144	0.093599826
153	0x3d88616f	0.06659209
154	0x3dad0f2c	0.084501594
155	0x3d6d5c84	0.057949558
156	0xbdf125a3	-0.11774757
157	0x3ce5cb6c	0.0280511
158	0xbc6a5e85	-0.014304762
159	0x3cac53c7	0.021036042
160	0xbe026ab7	-0.12736021
161	0x3de24942	0.11049129
162	0x3e022e50	0.1271298
163	0xbdac76e5	-0.08421115
164	0x3d1d5d81	0.03841925
165	0xbd0a1ec4	-0.033720747
166	0x3d408acc	0.047007367
167	0xbd1de4cb	-0.038548272
168	0x3cd8d2c3	0.026467687
169	0xbdce1401	-0.10062409
170	0xbc3f49dd	-0.011675325
171	0xbda9c8da	-0.082902625
172	0x3e1bce94	0.15215522
173	0xbce19857	-0.027538462
174	0x3ca44b53	0.020055449
175	0x3c873d21	0.01650864
176	0xbba1e21a	-0.0049402835
177	0x3e375a5a	0.1790556
178	0x3d04e9fc	0.032449707
179	0x3aa0c586	0.0012265898
180	0x3d2e6089	0.04257253
181	0x3b1ca8d6	0.0023904345
182	0xbc9db005	-0.019248972
183	0x3c108d80	0.008822799
184	0xbd93b434	-0.072121054
185	0xbd986e36	-0.07442896
186	0xbdc4ff42	-0.09618999
187	0x3c5fd01e	0.013660459
188	0xbd0acd19	-0.033887003
189	0xbced9563	-0.029001897
190	0xbdd1db45	-0.102469005
191	0xbc89db2e	-0.016828146
192	0x3d09c955	0.03363927
193	0x3d28137c	0.041034207
194	0xbd29fb5f	-0.04149949
195	0x3c81fa6e	0.015866484
196	0x3d23245b	0.039829593
197	0xbe1e06a9	-0.15432228
198	0xbd07ef4d	-0.0331872
199	0x3b22c9f0	0.0024839602
200	0xbd8daf97	-0.06918257
201	0xbcf3cc77	-0.029760582
202	0x3cea1bc9	0.028577702
203	0xbddeec95	-0.10884968
204	0xbd349b92	-0.044093676
205	0x3e1cc803	0.15310673
206	0xbc2543b0	-0.010086939
207	0xbdde8700	-0.10865593
208	0x3cbcb90e	0.02303746
209	0xbd90db97	-0.070731334
210	0xbc2b434b	-0.010453056
211	0x3e27cb0b	0.16386048
212	0x3d3492a2	0.044085152
213	0x3dd19c07	0.10234838
214	0xbe0a3fa2	-0.13500836
215	0x3db64202	0.08899309
216	0x3df50e45	0.11965612
217	0xbd46ad30	-0.04850501
218	0x3df6fca6	0.120599076
219	0xbd51d276	-0.0512261
220	0x3d89bde9	0.067256756
221	0x3bacdfde	0.0052757105
222	0x3c318c28	0.0108366385
223	0x3d561478	0.052265614
224	0xbca86350	-0.020555168
225	0x3dc9d703	0.09855463
226	0x3d9169ec	0.07100281
227	0x3d704426	0.05865874
228	0xbd639855	-0.055565197
229	0xbc8601bb	-0.016358247
230	0x3c933df9	0.017973887
231	0x3db52325	0.08844594
232	0xbd84563d	-0.06461761
233	0x3db00bd0	0.08596003
234	0x3d16efbb	0.03684972
235	0xbd96647e	-0.07343386
236	0x3d91719c	0.071017474
237	0x3e2c3324	0.16816384
238	0x3d286513	0.041112017
239	0xbb9b3088	-0.00473601
240	0x3e23130f	0.15925239
241	0xbd3d72ba	-0.04625199
242	0xbd305afd	-0.043055523
243	0xbd052fc4	-0.032516256
244	0x3d3afb6e	0.04564994
245	0xbdf0f1f0	-0.11764896
246	0xbbd4d068	-0.0064945705
247	0x3d81b995	0.06334225
248	0xbdc2edf3	-0.095180415
249	0x3d66e27a	0.05636833
250	0x3e21d1a1	0.15802623
251	0xbce2db01	-0.02769232
252	0xbb48cccc	-0.0030639647
253	0xbcccace5	-0.024984786
254	0x3cd5535e	0.02604073
255	0xbd7abed2	-0.061217137

bn1.running_mean f4 [256]
0	0x3eecb3ef	0.46231028
1	0x3e3c884f	0.18411373
2	0x3dc281ec	0.09497437
3	0x3dd5579c	0.10417101
4	0x3fbae213	1.4600242
5	0x3e829551	0.25504544
6	0x3f278c3e	0.6544837
7	0x3e576fb5	0.21038707
8	0x3f208053	0.6269581
9	0x3eaca370	0.33718443
10	0x3e17ac39	0.14811791
11	0x3eb10831	0.34576562
12	0x3f87e021	1.0615274
13	0x3fb1e919	1.3899261
14	0x402e4802	2.723145
15	0x3f18a331	0.5962401
16	0x3ea351dd	0.31898394
17	0x3efdd6c0	0.49577904
18	0x3ffe1db8	1.985282
19	0x3e9037ee	0.2816767
20	0x3fa39019	1.277835
21	0x3f4ff234	0.8122895
22	0x3eb42f5e	0.35192388
23	0x3dbd3e62	0.09240414
24	0x3d75d93a	0.060021617
25	0x3f5b58dc	0.85682464
26	0x3d9b1150	0.075716615
27	0x3d0b4f6c	0.03401129
28	0x3facd6c0	1.3503036
29	0x3f059f58	0.52196264
30	0x3ce823bd	0.028337354
31	0x3df33cb0	0.118768096
32	0x3faff719	1.3747283
33	0x3e3a1620	0.18172503
34	0x3eed9f14	0.4641043
35	0x401fa30c	2.4943266
36	0x3dda364d	0.10654888
37	0x3e86964c	0.26286542
38	0x3fc6c7a1	1.5529672
39	0x3e843ff7	0.2583005
40	0x3cba0644	0.022708066
41	0x3e885771	0.26629212
42	0x3ec9cf95	0.39416185
43	0x3f75d2dd	0.96024877
44	0x3fbc155c	1.4694018
45	0x3e4a729b	0.19770281
46	0x3ff38b6a	1.9026921
47	0x3f93c3d5	1.1544138
48	0x3f7332f4	0.94999623
49	0x3e845449	0.25845554
50	0x3f8640a7	1.048848
51	0x3fdf0076	1.7422016
52	0x3fea5550	1.8307285
53	0x3dbc7d10	0.09203541
54	0x3e798e5c	0.24370712
55	0x3fbd108f	1.4770678
56	0x3d3a1f84	0.045440212
57	0x3ed416bb	0.41423592
58	0x3e506c37	0.2035378
59	0x3f169c82	0.5883256
60	0x3f144964	0.57924485
61	0x3e4ce1f3	0.20008068
62	0x3dbd26f7	0.092359476
63	0x3f673f93	0.9033138
64	0x3e1065c9	0.14101328
65	0x3ed6d9da	0.41963083
66	0x3ed747b6	0.420469
67	0x3d2b9369	0.04188863
68	0x3f18cbce	0.5968598
69	0x3e8ed461	0.27896407
70	0x3cb78e9c	0.022406869
71	0x3da4d53e	0.08048485
72	0x403284ef	2.7893636
73	0x3f3124b9	0.6919666
74	0x3dcff834	0.10154763
75	0x3db173f8	0.086646974
76	0x40028ca0	2.039833
77	0x3e1764ae	0.147845
78	0x3f13b476	0.57697237
79	0x3d915265	0.07095794
80	0x3f1ffc4f	0.6249437
81	0x3f250fab	0.6447703
82	0x00000004	6e-45
83	0x3d8d53f9	0.06900782
84	0x3e58d326	0.21174297
85	0x3dff47a7	0.124648385
86	0x3ec95116	0.39319676
87	0x3f0c37cc	0.5477264
88	0x3ebeda78	0.37276053
89	0x3f05bc18	0.52240133
90	0x3cf63e69	0.030059056
91	0x3e7956aa	0.24349466
92	0x3e39a5cf	0.18129657
93	0x3ec37a0e	0.38179058
94	0x3d0c1017	0.034195032
95	0x3e8908fe	0.26764673
96	0x3e470b97	0.19438015
97	0x3f2495b4	0.6429093
98	0x3ed1a4dc	0.4094609
99	0x3d1228cf	0.03568345
100	0x3c8eaf3e	0.017417546
101	0x3ef1e39d	0.47243968
102	0x3ff6d51f	1.9283789
103	0x3e8410c1	0.25794032
104	0x3cfc6b1b	0.03081279
105	0x3cd8be39	0.026457893
106	0x3f54257f	0.82869714
107	0x3e10208b	0.14074914
108	0x3fd6eef5	1.6791674
109	0x3e8e235a	0.27761346
110	0x3ed758b5	0.42059866
111	0x3f48cd09	0.7843786
112	0x3e1fea4f	0.15616725
113	0x3e107880	0.14108467
114	0x3e49f694	0.19722968
115	0x3efc82d1	0.49318555
116	0x3dc76a42	0.09737064
117	0x3f65a8f6	0.8971094
118	0x3ef34e93	0.47520885
119	0x3e2d579c	0.16927952
120	0x3ec63e18	0.3871925
121	0x3fbeb639	1.489936
122	0x3eeda6d1	0.46416333
123	0x3f1e6c65	0.61884147
124	0x3dc4975a	0.095991805
125	0x3fc15f2c	1.5107169
126	0x3d042fb9	0.032272074
127	0x3db8cd3b	0.090235196
128	0x3fd2323e	1.6421583
129	0x3f9b2a54	1.2122293
130	0x3facebe1	1.3509485
131	0x4039460c	2.8949003
132	0x00000004	6e-45
133	0x3d781aa2	0.060572274
134	0x3fe08dd9	1.7543288
135	0x3fa55709	1.2917186
136	0x3e9fb3b1	0.3119178
137	0x3f32d15a	0.69850695
138	0x3ec9f796	0.39446706
139	0x00000004	6e-45
140	0x3ea60c0d	0.3243107
141	0x3e759104	0.239811
142	0x3ddee5de	0.108836874
143	0x40361c9d	2.8454964
144	0x3edf677e	0.43633646
145	0x00000004	6e-45
146	0x3fb2d462	1.3971064
147	0x3f51352f	0.81721777
148	0x401b2444	2.4240885
149	0x3fb9754c	1.4488921
150	0x3f8ebe34	1.1151795
151	0x3f762e10	0.96164036
152	0x3e6ce1e3	0.23133044
153	0x3e9e0769	0.30865029
154	0x3e22928a	0.15876213
155	0x403f2804	2.9868174
156	0x3e57472c	0.21023244
157	0x3eacf172	0.33777958
158	0x3fa72f75	1.3061358
159	0x3f455cb7	0.77094597
160	0x3d21d59f	0.039510366
161	0x3f641a6c	0.89102817
162	0x3caf6cf8	0.021414265
163	0x3fd11c3b	1.633674
164	0x3fa28f7e	1.270004
165	0x3f72bcb2	0.94819176
166	0x3f779a18	0.96719503
167	0x4002ba05	2.0426037
168	0x3eef7781	0.46770862
169	0x3e8e2cfa	0.2776869
170	0x3e24c5ba	0.16091052
171	0x3f53c91a	0.8272873
172	0x3e531916	0.20615038
173	0x3f35df55	0.710439
174	0x3e41eaee	0.18937275
175	0x3f19ced8	0.60081244
176	0x3e7a1f12	0.24425915
177	0x3e234d23	0.15947394
178	0x3f176e9e	0.59153163
179	0x3df9f40e	0.12204753
180	0x3e0c0ec7	0.13677512
181	0x3e5b45ca	0.21413341
182	0x3e849218	0.2589271
183	0x3fa79f37	1.3095464
184	0x3e2d20e9	0.16907085
185	0x3e408cd5	0.18803723
186	0x3f7b0e08	0.98068285
187	0x404e3802	3.2221684
188	0x3f914901	1.1350404
189	0x3eaba85b	0.33526883
190	0x3ce9f931	0.028561207
191	0x3f39d1e5	0.725859
192	0x3f67caee	0.9054402
193	0x3f04e72e	0.5191525
194	0x3d6a271b	0.0571662
195	0x3de62baa	0.11238797
196	0x3eb4ea8e	0.353352
197	0x3f06cc03	0.5265505
198	0x3ec5b0d9	0.38611487
199	0x3f866ee6	1.0502594
200	0x3efa1fd3	0.48852405
201	0x3d028c17	0.03187188
202	0x3f8480a8	1.0351763
203	0x3f48c1de	0.7842082
204	0x3ed6eafb	0.4197615
205	0x3f7d32cd	0.9890564
206	0x3fa4e45f	1.2882193
207	0x3f6ac75d	0.91710454
208	0x3ed0e679	0.40800837
209	0x3f28a179	0.6587139
210	0x3ee866a2	0.45390803
211	0x402976e2	2.647881
212	0x3d2cd9a4	0.042199746
213	0x3e3a30c6	0.18182668
214	0x3db0b4f0	0.08628261
215	0x3d8c2802	0.068435684
216	0x3f3ad343	0.7297861
217	0x3eed3501	0.463295
218	0x3ecceea6	0.40025824
219	0x3e844c19	0.25839308
220	0x3e001931	0.1250961
221	0x3f6220c5	0.8833125
222	0x3e3dfef6	0.18554291
223	0x3e49422e	0.19654152
224	0x400bf6cd	2.1869385
225	0x3dfa2d82	0.12215711
226	0x3f0e6ca1	0.55634505
227	0x3eaa7f3c	0.33300197
228	0x3c72020d	0.014770997
229	0x3dd7458f	0.10511314
230	0x3e8c8ce6	0.27451247
231	0x3ed3a287	0.41334936
232	0x3e0bed7b	0.1366481
233	0x3ea7bc89	0.32761028
234	0x3d99ac73	0.07503595
235	0x3e5dec56	0.21672186
236	0x3d3b4374	0.045718625
237	0x3a588bc7	0.00082605745
238	0x3d3f2d6f	0.04667419
239	0x3db63685	0.088971175
240	0x4037dcbc	2.8728476
241	0x3e5bd0c6	0.2146636
242	0x3f7e1682	0.99253094
243	0x3fa3cc0e	1.2796648
244	0x3e5f9007	0.21832286
245	0x3e8459be	0.25849718
246	0x3ee5c51b	0.44876942
247	0x3f1ff401	0.62481695
248	0x3e2ed423	0.17073111
249	0x3f0610f3	0.5236961
250	0x3f9fa6f5	1.2472826
251	0x3e8e2a1d	0.27766505
252	0x3ea9e6ae	0.33183807
253	0x3d8f7471	0.07004631
254	0x3fbf3315	1.4937464
255	0x3ebb887b	0.36627564
