agent0_actor.pth (torch, 169231 bytes, 14 tensors)

fc1.weight f4 [256, 24]
00000000: a659 60bd 4ae7 b9bd e075 ab3c b87a 97bb
00000010: 465c 1cbb 009c 853d c0d6 11bd a35b 073c
00000020: 9617 983c 3726 403c 86e2 733d ccfd 603b
00000030: a884 853d fa8d c23c 145c 1a3d d830 b73c
00000040: 8ca6 cbbd c1ec 013d 5499 a3bd 5e61 de3d
00000050: e6dc c13c c367 f1bc dc3d cabc 4ae0 d13d
00000060: 0d30 2d3d 1f33 0e3d 9cc1 71b8 dfce 92bd
00000070: 4826 423d fef2 393d 1012 823b 1f33 82bd
00000080: 413b 15bd 8b95 b53d d9ff f03c 7077 1b3d
00000090: 3a2d 5c3c cc17 ea3d 45b6 a0bb 117a 9739
000000a0: fea9 f9bd 28df 133d d940 523d 6a34 513b
000000b0: 18cf bebd 2173 7b3e af3e 46bd 7ff3 a7bc
000000c0: 7ca1 6dbc 5481 ee3d 6730 8ebd 8d94 0ebb
000000d0: 2427 0b3d e7c9 bfbc 2016 853c 8c51 5b3d
000000e0: 198f 3c3c 16cb 003e 47e7 ea3a 0c8b 5bbc
000000f0: c3f4 563d d185 1b3d 104d 47bd 7977 babd
00000100: 5693 a1bd 2b59 05bd a7e0 acbb 504e 703c
00000110: 373e 113e 294c b8bc 65d8 81bd f675 c73b
00000120: e2bf d6bb 22ce 063e cb91 bf3c 756f 00bc
00000130: d4d0 3bbd f7fb ddbd 9977 173d 2609 8bbd
00000140: ac7f 8e3d d310 853e 0f8d 783c 18b7 213d
00000150: 1341 d63b 0e89 f2bd 79d5 c3bc 8d58 0a3e
00000160: c645 973b 6575 823e fc80 3cbd 5791 773c
00000170: 9960 6f3d 7735 04bd 44af 8e3c e948 c73d
00000180: 4e7f 83bd 4142 723d 756f 983d a801 81bd
00000190: 430a e53d e2b7 293d 6b25 a8bc 33e7 cfbc
000001a0: 1dd3 7dbd 945c aa3d 72c2 b93b 7273 033d
000001b0: 02f3 e8ba ef64 f0bc c8f7 933c eabb e7bb
000001c0: f988 b73c 8360 893d 3dfe 55bd d988 07bd
000001d0: a1c8 883b 5287 17be 9c41 9ebd 975e 42bb
000001e0: 36c1 83bc cd7e fcbc c76a 273d 9634 a73c
000001f0: d315 1ebe 6c5d 44bd 35b5 17bd 1255 eebc
00000200: 7fb8 62bb c1a6 cebc b4df 54bd fa89 3dbd
00000210: fb15 b6bd 7242 dbbd e6cc 163d 76af 3bbd
00000220: a8b8 523d 4a42 2e3d 31b3 a8bc 5c29 9f3c
00000230: 6dcc 5ebd 33c0 e5bd 4597 2bbc 1908 fd3c
00000240: 240e b739 73ef bfbd 09f6 05bd fa95 5c3d
00000250: e33b 593b 64b8 d23c 201d 3cbc 3453 edba
00000260: 1340 9c3c 6843 c03c 57b4 bcbb 4b7b b63b
00000270: ffbb c43d 147e bf3d df0b 18bd 80b5 85bc
00000280: 5b06 063d 0b1f 82bc 1737 bbbb a21d bdbd
00000290: a9fa 823d 8692 3b3e 90ba 88bd 4e88 1abd
000002a0: 0ac0 2d3c f3c7 043b 15a5 9cbc a1b8 e93d
000002b0: 6afa 6f3d 0447 1a3d 45bd 783d 49cb 973d
000002c0: b990 4c3d ff9e d73d 2bc7 b63c fd0c 7a3d
000002d0: 257a 80bb 8fbb 153d b7e7 95bc 80b2 98bc
000002e0: cdd9 6a3d 8ad4 903d 7957 a53d 0264 2a3d
000002f0: e57f 9f3d 4fb0 45bd b8bf 523d 3c17 7b3d
00000300: 1fc0 05bb 02b2 25be 9ddc 2f3d e832 82bc
00000310: 5a9a c63d 14c4 51bd 5132 45bd 0195 80bd
00000320: 98be aebc 2250 0dbe 08c8 38bd 522f 923d
00000330: e660 a33d 29f2 5cbd f900 833d 2f72 4d3d
00000340: 6c74 1bbb e936 0dbe e7e2 eabc 3779 703d
00000350: e878 e93c ae48 d8bd be8c 33bd 3504 3a3d
00000360: 6697 27bc 2be5 8e3d e36a 953c 4115 bebc
00000370: 5a10 76be c9a1 58bd 8ac3 12bd 839a c33c
00000380: 93d4 f93c 48f1 e23b 3ee1 f33a 42d4 d7bc
00000390: 70a5 08be e627 23bc d6f9 c03a 6503 243b
000003a0: 987c 8d3d 4b16 4a3d e488 1cbd 4dc7 7e3d
000003b0: a5d7 483c a27e c33d f0ae 103d 98df 9d3d
000003c0: 478b 093d 16fe 623c e689 4d3d e30b 033e
000003d0: 02ea 12bd f477 beb9 8509 64bb 4d6c 133e
000003e0: cc65 803d 3cca 7abb de03 c1bc f65e 5b3d
000003f0: e037 a5bd 630b a4bd 3db3 39bc 1220 203d
-0.054772995 -0.09077318 0.02093023 -0.0046227835 -0.002385871 0.06523895 -0.035605192 0.008261594
0.018565934 0.011727861 0.0595422 0.0034330962 0.06519443 0.02374934 0.03768547 0.022362158
-0.09943876 0.031719927 -0.079882294 0.10858415 0.023664903 -0.029468423 -0.0246877 0.10247858
0.042282153 0.03471672 -5.763919e-05 -0.07168364 0.04739979 0.04539775 0.0039694384 -0.06357407
-0.036433462 0.08866414 0.029418873 0.0379557 0.013438517 0.1143032 -0.0049045407 0.0002889191
-0.121906266 0.03610149 0.051331375 0.003192211 -0.09316844 0.24555637 -0.048399623 -0.02050185
-0.014503833 0.11645761 -0.06942826 -0.0021756024 0.033972874 -0.023411704 0.016245902 0.053544566
0.0115087265 0.12577471 0.0017921709 -0.013399851 0.052479517 0.037969414 -0.048657477 -0.09104819
-0.0788943 -0.03255574 -0.005275804 0.014667109 0.1418389 -0.022497253 -0.06340102 0.00608706
-0.006553636 0.13164571 0.02338495 -0.007839073 -0.04585345 -0.10839074 0.03697929 -0.06788854
0.06957945 0.25989398 0.01517035 0.039481252 0.006538519 -0.11842547 -0.023905503 0.13510342
0.004616472 0.2548019 -0.046021447 0.015110335 0.058441732 -0.03227755 0.017417558 0.097307034
-0.06420766 0.059145216 0.07443134 -0.06299144 0.11183598 0.04143513 -0.020525655 -0.025378799
-0.06196891 0.08318439 0.0056689316 0.03209252 -0.0017772617 -0.029345004 0.018062487 -0.0070719616
0.02240418 0.06707861 -0.052244414 -0.033089492 0.0041743075 -0.14797714 -0.07727358 -0.002965843
-0.016083341 -0.030822182 0.040873315 0.020410817 -0.15438013 -0.047940657 -0.037038047 -0.029093299
-0.0034594832 -0.025225999 -0.051971152 -0.046274163 -0.08890911 -0.10706033 0.0368165 -0.04582163
0.051445633 0.042543687 -0.020593258 0.019428901 -0.054394174 -0.112183 -0.010473077 0.03088765
0.00034915016 -0.09371843 -0.03270534 0.053853966 0.0033147268 0.02572269 -0.011481553 -0.0018106462
0.019073522 0.023469642 -0.005758803 0.005568897 0.0960617 0.09350219 -0.037120696 -0.016321898
0.032720905 -0.015883943 -0.0057133543 -0.09234168 0.06395466 0.18317613 -0.06676209 -0.037727647
0.010604868 0.002026078 -0.019121686 0.11412168 0.058588423 0.037665382 0.060727376 0.074118204
0.049942706 0.10528373 0.022311768 0.061047543 -0.0039208108 0.036555823 -0.018298967 -0.018639803
0.057336617 0.070717886 0.08073325 0.04159928 0.07788066 -0.048263844 0.05145237 0.061301455
-0.0020408703 -0.16181186 0.042935003 -0.015893415 0.09697409 -0.051212385 -0.04814369 -0.0627842
-0.021331117 -0.138001 -0.04511264 0.07137932 0.07977466 -0.05394188 0.0639667 0.050157722
-0.0023720516 -0.13790478 -0.028672649 0.05870935 0.028500035 -0.105607376 -0.043835394 0.04541417
-0.010228967 0.06977304 0.018239444 -0.023203494 -0.24029675 -0.052888665 -0.03583101 0.023877388
0.030496871 0.0069257356 0.0018606556 -0.02634633 -0.1334436 -0.009958243 0.0014722894 0.0025026437
0.0690853 0.049337666 -0.038216487 0.062201787 0.012258445 0.09545638 0.035323083 0.07708663
0.03358009 0.013854524 0.05018034 0.12797503 -0.0358677 -0.00036328996 -0.0034795713 0.14396782
0.06269416 -0.0038267514 -0.023561414 0.05355736 -0.08067298 -0.08009984 -0.011334238 0.039093085

fc1.bias f4 [256]
00000000: 8524 df3d 2408 91bd adb2 8fbc 0973 e9bd
00000010: 7a54 093e 71d0 5fbe 6802 11be fd55 85be
00000020: 934a 883d 1aa6 35be 9dbd b5bd ea82 40be
00000030: a00a 79be a8f3 cebe 78c6 ca3c d55e 06be
00000040: c8f8 93bd 5bb9 8b3d d432 f7bb 4297 de3d
00000050: 388f 19bc e856 0d3d 54ef 22be 217d 6dbe
00000060: 3760 39bd 4b85 b9bc 4d14 76bc 9bd6 82be
00000070: f75c 1cbe 733c 2abe 4368 3dbe 3427 483e
00000080: 6701 84be 1f3e 51be 1c5e 7dbe 3218 24bd
00000090: 44f0 98bd 821e 8dbe 771c efbc 6d26 edbd
000000a0: 8680 32bd 1fd3 313d 3dea 8fbe e931 9c3c
000000b0: f984 5fbd 8c6f 56bd 33a5 11be 87df 303e
000000c0: b256 2abe 3c0f ea3b 2e2a 41be c276 a9bd
000000d0: 0daa 2e3e 7b9a 37be 7365 30be 2d27 aabd
000000e0: f217 99be bb92 cbbc 34fa 263d 4c3f 26be
000000f0: c192 a2be 4491 69be a077 83be 030d 8cbe
00000100: a043 afbd ae94 d93d e156 a5bd 5d98 11bd
00000110: 54f8 a63d 30f1 c4be c926 15be 22ac b13d
00000120: ff65 98bd a7e5 cebd 1c2e 4dbd 2316 803d
00000130: b506 81be 9b6c 10be ad10 41be 64c0 88be
00000140: 9cec 06be 1ba0 2abe 11b3 08be 5f77 dc3d
00000150: 55b8 02be 437d 12be 2167 4dbe 74c7 44be
00000160: dbe7 5fbd 1683 bf3d befd 82be 3753 9abe
00000170: c174 8dbd d5bf af3d 7212 913b e252 00be
00000180: dcb8 1fbe ffce 02bd e654 f0be ebb2 0f3d
00000190: 88a1 0e3e a11b debc fb2a 12be 90f6 4abe
000001a0: 6da7 ecbd 8eb7 d43d c5f3 55be 4213 90be
000001b0: 562a cebb 5779 233e 689d 70be f2cf 67bd
000001c0: 12e8 83be abec d33d 0313 ce3d 8dc2 25bd
000001d0: a24a 663d 4978 373d 3de6 333c 5675 83be
000001e0: 6915 00be e0d7 9ebe 9867 01be 0fe5 acbe
000001f0: 22fb 8ebd 5fda 17bc d796 6dbe b262 12bd
00000200: efef 85bb 9aca 4b3e 73ee b0bc d459 5cbe
00000210: 3088 1cbe 3bff a7bd bfa9 c5bd 35a0 26be
00000220: 5c3a fe3c 6f34 b9bd 1193 1fbe 3793 08be
00000230: 2337 033d ad56 113e f8e6 1bbe 5a6e 58be
00000240: 95b7 8a3e 34dd 5bbe 9854 03be 7f54 87bb
00000250: 0a77 54be cba4 7f3d bb43 94bd 850a 99bd
00000260: e121 8cbe 7f5e 333d 546d 843d 95aa 733d
00000270: e240 14be 9b69 09be 5bd5 0cbe 5ce1 08be
00000280: a433 eb3d b956 56be 72e7 58be a09e af3e
00000290: 5174 adbe 2373 5fbd 47b6 08bd 3db1 5bbe
000002a0: 0a14 43be 2b0d 30bd b388 63be eaca c6bd
000002b0: 5245 b9bd 461a 453e c282 a9be 57fc 17be
000002c0: 2a39 afbd 16bc 75be 5953 aabd bd23 153c
000002d0: a349 bc3d 9295 9cbd 9bef 0cbe 576c 0fbe
000002e0: 9eed 01bc a804 a9be a561 37be bb34 8e3e
000002f0: 7676 813e e92b a83d 1154 fcbd 5035 743d
00000300: 34d9 5bbe 591b 95be 7e03 b73c b2f2 383e
00000310: 17c8 1bbd 4e04 0cbe c776 5d3e 755a 7f3d
00000320: 9e1f 93bb bb56 96be 4e05 8fbe d3f4 cfbd
00000330: 8b4f 94bd 02b0 2abc 504e 86bd 6d3e febd
00000340: f9cb 54bd 5a0d 7d3e af3c f8bd ec4b 793d
00000350: de96 5abe efe9 d8bd cf47 7bbe a45d 85be
00000360: add7 71be 5bca 59bd b613 2abd d275 8abd
00000370: 6a35 2cbe c9e2 d2bd 96b7 74be 0ba6 723d
00000380: f246 b83d bc23 32be 2304 85bd 1f82 93be
00000390: 4de0 59be 4f75 d73d 74a2 3a3d fde6 39be
000003a0: 540f 78be be2d 0b3c 794e 1ebd 4839 01be
000003b0: 869d 0bbe b401 7fbd e088 00be 18e1 82be
000003c0: bb91 82be 830b c9bd 90b5 3e3c 336b 15bd
000003d0: 6701 8abe 3912 20be 3853 8cbe 4159 b1bd
000003e0: 12b6 893d db3b febc f9f8 0cbe aacf b6bd
000003f0: 0bdf 4abe 7e87 3a3e 81f2 46be 6ae2 b33b
0.108956374 -0.07081631 -0.017541254 -0.11398894 0.13411132 -0.21856858 -0.14161074 -0.26042166
0.06654849 -0.17739144 -0.088740565 -0.1879994 -0.2432046 -0.4042027 0.02475284 -0.13122113
-0.07225186 0.06822463 -0.007543901 0.10868694 -0.009372525 0.03450671 -0.15911609 -0.23192264
-0.045257773 -0.022646567 -0.0150194885 -0.25554356 -0.15269838 -0.16624622 -0.18496804 0.19546205
-0.2578232 -0.20433854 -0.24742931 -0.040062137 -0.07467702 -0.27562338 -0.029188378 -0.11579595
-0.0435796 0.04341423 -0.28108397 0.019066768 -0.054570172 -0.052352473 -0.14223175 0.17272769
-0.16634634 0.0071429294 -0.18863747 -0.082746044 0.17057057 -0.17930023 -0.172262 -0.083082534
-0.2990108 -0.02485024 0.040765956 -0.16235083 -0.3175259 -0.2280932 -0.25677204 -0.27353677
-0.0855782 0.106240615 -0.080732115 -0.035545696 0.081528336 -0.3846526 -0.14565577 0.0867541
-0.07441329 -0.101023965 -0.0500928 0.06254222 -0.2520043 -0.1410393 -0.18854018 -0.26709282
-0.13176197 -0.16662638 -0.13349558 0.10764956 -0.1276563 -0.14305596 -0.20058872 -0.1921671
-0.054664474 0.093511745 -0.25584215 -0.30141613 -0.06907035 0.08581511 0.0044272477 -0.12531617
-0.15597862 -0.031935688 -0.46939772 0.03508274 0.13928807 -0.027112784 -0.14274208 -0.19820619
-0.115553714 0.10386573 -0.20893772 -0.28139693 -0.006291668 0.15964256 -0.23497546 -0.056594796
-0.25762993 0.10347875 0.1006222 -0.04046874 0.05622352 0.044792447 0.010980186 -0.25675458
-0.12508167 -0.31024075 -0.12637174 -0.33768508 -0.069814935 -0.009268372 -0.23202072 -0.035738654
-0.00408744 0.19901505 -0.021598076 -0.21518642 -0.15286326 -0.08202978 -0.09651517 -0.16272052
0.031033687 -0.09043204 -0.15583445 -0.13337408 0.032035004 0.1419322 -0.15224826 -0.21135846
0.27093187 -0.21471101 -0.12825239 -0.0041299458 -0.20748535 0.06241302 -0.07239481 -0.074727096
-0.27369598 0.04379129 0.06466165 0.05948885 -0.14477876 -0.13419192 -0.13753264 -0.13367218
0.11484459 -0.2093152 -0.2118204 0.3430071 -0.33877805 -0.054553162 -0.03337696 -0.2145433
-0.19050613 -0.042981308 -0.22220115 -0.097066715 -0.09046425 0.19248304 -0.33107573 -0.14842354
-0.08555825 -0.2399753 -0.083166786 0.009102759 0.091937326 -0.07645716 -0.13763277 -0.14006172
-0.0079301875 -0.33011365 -0.17908342 0.27774605 0.2528569 0.082115 -0.12320722 0.059621155
-0.21469575 -0.29122427 0.022340532 0.18061331 -0.038032617 -0.13673517 0.21627341 0.062342126
-0.004489853 -0.29363045 -0.27933735 -0.101541184 -0.07241734 -0.01041794 -0.06557906 -0.124142505
-0.051952336 0.24712124 -0.121209495 0.06086342 -0.21346614 -0.10591494 -0.24539112 -0.26048005
-0.2361743 -0.053171497 -0.041522704 -0.06760754 -0.16817251 -0.10297162 -0.23898157 0.059240382
0.08997907 -0.17396444 -0.0649493 -0.28810212 -0.2127697 0.10520422 0.045565084 -0.18154521
-0.24224597 0.0084947925 -0.038649056 -0.12619507 -0.13634309 -0.062257484 -0.12552214 -0.25562358
-0.2550181 -0.09816649 0.011639968 -0.036479186 -0.26954195 -0.15631951 -0.2740724 -0.08659602
0.0672418 -0.0310344 -0.1376685 -0.089263275 -0.19811647 0.18215749 -0.19428445 0.005489637

fc2.weight f4 [128, 256]
00000000: 669b d43d 66e2 79bd b1ef 5c3c 8f5a 243e
00000010: 70dc 963d 3455 25be 066e f3bc e160 91bd
00000020: ef31 81bd ea03 13be 6fff 063e ab11 a0be
00000030: b53b b5bc 1260 64bd f0ec 9fbb 181d 65bc
00000040: 65a7 0d3e 2ddc 79bd 3032 fa3d a4dc 04bd
00000050: c895 e5bd 4d23 723e 6abe 933d d358 71bd
00000060: 166b 8bbc 7586 a1bc 7573 bfbb 3cd3 4dbe
00000070: 9c43 f83c 13b5 98bc 995d 0fbe 676e c3bb
00000080: 52e8 653d aa63 47be bbf9 d5bc 7898 383e
00000090: b1d9 79bd 833a fe3b d3e5 1c3e 76a9 273c
000000a0: 22f6 233d c647 733d 7dd7 273d bbc9 55bd
000000b0: 6f9d 623d 9661 f63c 7512 09bd b96f 0e3d
000000c0: 8218 5f3d 6591 b2bd d053 4c3e a570 fd3b
000000d0: e00e 013e 0cce 283d 89c3 f73c 656b d83d
000000e0: 886d 1ebe 5ec0 32bc bfe3 593d 0fdf 423d
000000f0: 1800 193d f6fa 15bd 5ef7 a23d 04bb 8f3d
00000100: d9de 83bb 8136 64bd 18aa d53d c22d 603d
00000110: ad31 0f3d f5d0 4c3a 3b73 033e 1535 eebd
00000120: bdd8 75bd f30b 95bc 4e0c f4bd 90f9 62bd
00000130: 1172 063d 370d df3d e0b4 8a3e 8304 b63d
00000140: 30e4 a23d 08a6 b2bd bdf6 363d ed87 14bd
00000150: 4f58 dfbc f789 91bd 9e3a ed3d a9e6 ecbd
00000160: 2061 c2bc 9db4 ffbb d50b a5bb e5b7 ce3d
00000170: dd9f 31bd 83bb 6abd 59ac e6bc 0e0d 103e
00000180: 508d 00bd 857d b8bb aef8 a03d 0c0a 59bd
00000190: d742 4ebe 711c 873d fe64 db3d a261 343c
000001a0: 18f2 3abe 4ad6 c63d 47fd 7b3d 744d 383d
000001b0: 9391 443d 7002 45be dcc0 9c3d bca0 a63d
000001c0: 4699 983d 306c d9bc f4d7 92bd 5a37 e83b
000001d0: a926 f43d dde2 54bd 7ed9 44bd 2b44 b23d
000001e0: 6546 0f3d a128 833c a5cf 113d c4c0 99bd
000001f0: c91e 023c b122 ccbd 495a abbc 5656 8a3b
00000200: bb0b f9bd 5cd0 323c e800 b5bc 1cd6 3e3d
00000210: 67a2 733d b009 91bd cc89 9a3d f411 44be
00000220: 64b5 ebbc e130 393e 0204 1bbe 6c5d e43b
00000230: 342b 94bd edbe fc3d 43a6 4e3c 7b46 df3d
00000240: 0116 0e3e 2b54 67bd f732 273d 4970 23be
00000250: d451 59bc 9cf6 413d 32c5 d63d 1311 4ebd
00000260: 44e8 8cbd f1ff 53be 48d8 e23c 897b 11bd
00000270: 38cf 203d c276 233d 7bda f8bd cef1 b43d
00000280: 50d9 8dbd b1e0 df3d 5a61 4bbd 1253 25bc
00000290: 97be 3ebe c373 4bbb a5ec 8b3d 6aae 0f3d
000002a0: 10ef 043d 1ab2 a23c b2bb dd3c 3a85 9c3d
000002b0: 1575 e03c 9e30 9a39 c738 1abd 7fc3 21be
000002c0: 2d84 f93d 2b4d b03d 0543 bfbd f60b c13d
000002d0: 343f 6e3d 9ef0 bc3d 1b6b 113e a404 973d
000002e0: adab 333e ba03 063d 34db 61bd 531f fbbc
000002f0: ce3c 15be 4deb c13d f4d7 8ebd 29ec 0fbd
00000300: 1523 f43c 1e49 e9bc 2d24 adbd c8d4 6fbe
00000310: 0eea 26be 733e 51be 0b55 23be 8a2a 1a3e
00000320: 2dcf 90bd 5755 51be cf80 8c3a 453d ccbd
00000330: a1fd a93c 57fd f33d 49da b73d 829c bebc
00000340: 9d84 20bd 3bc6 d53d b8f6 873d f823 babd
00000350: 0b63 17bd 662c bf3d d27d a73c 4d55 493e
00000360: fcec cd3c af55 e73d 9b19 85be 0767 3d3d
00000370: 8603 fdbd 7e87 c93d ee11 183c 7e4c 253e
00000380: 2d87 433c 99f1 e6bc f9f3 74bd 4b6e 813d
00000390: 1b98 6ebd f33e 1c3d d4df 1c3b 95a2 0d3e
000003a0: a7c2 4cbe a9a2 10be 897f ffbd 9925 343e
000003b0: 05ed 57bd e8c2 fb3c 1b9b a7bc 69d1 23bc
000003c0: 9a4f 8ebd fd07 10bd 2218 07bd 3d0d 263c
000003d0: 9932 8d3d 654a 403d f00e a5bb 8a0d cabd
000003e0: 31fa 79bd f602 b6bb 7f16 1ebd 0daa bbbd
000003f0: 9cf7 fe3d 8948 cfbd cb3b edbd e43c 38bd
0.103812024 -0.061006926 0.013484881 0.1605017 0.07366264 -0.16145784 -0.02971555 -0.07098556
-0.06308352 -0.14356962 0.13183378 -0.3126348 -0.022123197 -0.055755682 -0.00488054 -0.013983987
0.13833387 -0.06100099 0.12216604 -0.03243698 -0.11210209 0.23646279 0.07214053 -0.0589226
-0.017018836 -0.019717434 -0.005842621 -0.20100111 0.030305676 -0.01864103 -0.14000548 -0.0059640887
0.05612976 -0.19471613 -0.026120057 0.18026912 -0.060998622 0.00775844 0.15322046 0.010233274
0.040029652 0.05939462 0.04097699 -0.05219434 0.05532592 0.03007583 -0.033464868 0.034774516
0.05446673 -0.08719138 0.19953847 0.0077343755 0.1260333 0.041212127 0.030244606 0.10567359
-0.1547147 -0.010910122 0.05319571 0.047576007 0.037353605 -0.036616288 0.07957338 0.07018092
-0.0040243682 -0.05571604 0.104328334 0.054731138 0.034959484 0.00078131194 0.12836926 -0.11631218
-0.06002115 -0.018194174 -0.119164094 -0.055413783 0.032823626 0.108911924 0.27091122 0.08887579
0.079536796 -0.08723074 0.0446689 -0.03626244 -0.027263789 -0.07106393 0.11583446 -0.115674324
-0.023727953 -0.007803513 -0.005036811 0.10093669 -0.043365348 -0.05730773 -0.028158354 0.1406748
-0.031384766 -0.0056301975 0.07859932 -0.052988097 -0.20142685 0.06597222 0.10712622 0.011009606
-0.18256414 0.09708841 0.06152084 0.04499574 0.047990393 -0.19239211 0.076539725 0.081361264
0.074511096 -0.026540846 -0.07170096 0.0070866765 0.11921436 -0.051974166 -0.04805898 0.08704408
0.034979243 0.016010584 0.035598416 -0.0750747 0.00794191 -0.09967554 -0.020917075 0.004221718
-0.121604405 0.010913935 -0.022095159 0.04659091 0.05948105 -0.07081926 0.07545814 -0.19147474
-0.028773017 0.18085052 -0.15138248 0.0069691446 -0.07234803 0.12341104 0.012612882 0.10902115
0.13875581 -0.056476753 0.04082009 -0.15960802 -0.013264138 0.047354326 0.10486831 -0.050309252
-0.06880239 -0.20703103 0.027691022 -0.035518203 0.03926012 0.03990818 -0.12151047 0.08835183
-0.06926215 0.10931528 -0.04965339 -0.010090606 -0.18627392 -0.003104434 0.06832246 0.035078444
0.03245455 0.019860316 0.02706704 0.076425985 0.027399579 0.00029409392 -0.037651803 -0.15797232
0.12183414 0.086084686 -0.09338955 0.094261095 0.058165744 0.092255816 0.14201014 0.07373932
0.17545958 0.032718398 -0.05514069 -0.030654585 -0.14573976 0.09468708 -0.069747835 -0.03513733
0.029801885 -0.028477248 -0.084541656 -0.23421013 -0.16300222 -0.20433979 -0.1595041 0.1505529
-0.07070766 -0.20442711 0.001071954 -0.09972624 0.020750822 0.11913555 0.089771815 -0.023267988
-0.03918897 0.104382 0.06638855 -0.09088892 -0.03695969 0.0933464 0.020445738 0.19661446
0.025137417 0.1129564 -0.25996098 0.046240833 -0.12354188 0.09840296 0.0092816185 0.1614246
0.011934084 -0.028191375 -0.059802983 0.06319865 -0.058250528 0.03814597 0.0023937123 0.13831551
-0.19996129 -0.1412455 -0.12475497 0.17592467 -0.052716274 0.030732587 -0.020459702 -0.009998658
-0.069487765 -0.03516387 -0.032982 0.010134992 0.06894416 0.04694595 -0.005037181 -0.098658636
-0.061029617 -0.005554552 -0.038595673 -0.09163294 0.124495715 -0.10121257 -0.1158367 -0.044979945

fc2.bias f4 [128]
00000000: d85e bb3c 9f6b f53d d901 03be 9ff3 873e
00000010: 41a8 b6bc 33ec acbd a84f 873b 86b8 fb3c
00000020: 4a5b 40bc 05ed b13b 9880 c83d 7005 e7bc
00000030: bab4 53bc 6cdf c7bc f16e bc3c 877d f6bd
00000040: 38d1 f23b 4795 96bc 791d a5bd 5496 323d
00000050: 34a7 623d 5ab1 3c3d 0556 b7b8 1222 d33c
00000060: 6b87 94bc 095f 773d 2556 6c3b 0f73 683d
00000070: a229 7dbc c188 6d3e c9bd e13c d8e6 ea3c
00000080: 9ae0 a8bd ab71 5dbc 70c6 293c be75 5abc
00000090: a714 f8bb 0aa6 bf3d ef24 89bc 6e04 62bc
000000a0: ad91 60bc 7965 17bd 8851 60bd 3099 813c
000000b0: bc59 91bc 4c64 71bc ac58 773d fde3 b13d
000000c0: fe0d dbbc 5250 83bb 9c26 4b3a feb1 bb3d
000000d0: 18a0 53bd 2775 87bd 351d 893d 04f9 89bd
000000e0: 41a4 883d 5ae3 03be 61c6 f43c 2d41 5fbd
000000f0: ccfe 82bc 5092 8c3b 99ee 48bd a9aa 26bd
00000100: e148 c0bd 8f96 4e3d 5dd9 8dbd fc39 b8bd
00000110: 6de1 01bd 20d4 b8bd d673 b2bc a9ca 4cbd
00000120: 226b acbb 07cb d8bb e9d3 893b 0fbf e8bb
00000130: b180 65bc be68 84bc 05ca 4cbd f935 60bc
00000140: 60c8 073e 4867 803d d17a afbd dab7 b93b
00000150: 3f1f 3f3d aeb4 8e3d f727 3c3d 9735 303c
00000160: f56a 28bd f7fc 783d c01a 26bd d862 2b3c
00000170: 783d 633e 1519 143c a15a 903d ebea 633d
00000180: ca30 18bd 01a0 8e3d e6a6 45bc f224 c33c
00000190: a9f4 463d fafd ff3c 3355 643d 89f9 d8bc
000001a0: 88fb 063b a249 fdbd 3e4d 223d e38b b73c
000001b0: 3cf2 38bd e58f 82bd 206b 4b3c a318 0f3c
000001c0: 677c 8ebb d259 8fbd 8617 153e 7d9e 37bc
000001d0: f5d0 e53d 2ffb 82bd ea92 803b 4441 6fbc
000001e0: 2394 02bd 5cf2 bcbd 7c4e c63d 8d70 35bc
000001f0: b7ae 2a3d aec6 ac3d a1db 863d da9b eb3c
0.022872373 0.11983418 -0.12793674 0.26553056 -0.022297027 -0.08443489 0.004129369 0.030727636
-0.011740515 0.0054298663 0.09790152 -0.028200835 -0.012921507 -0.024398528 0.02300212 -0.12035661
0.0074101947 -0.018381728 -0.08062262 0.043600395 0.05533524 0.046067573 -8.7421424e-05 0.025773082
-0.018130979 0.060393367 0.0036062088 0.056750353 -0.015451821 0.23196699 0.027556317 0.028674528
-0.08245964 -0.01351587 0.010362253 -0.013333736 -0.0075708213 0.09357841 -0.016741244 -0.013795001
-0.013706607 -0.036962006 -0.054765254 0.015820116 -0.017742984 -0.014733385 0.0603873 0.086860634
-0.02674007 -0.0040073777 0.00077495887 0.09164809 -0.05166635 -0.06614142 0.06695024 -0.06736949
0.06671954 -0.12879696 0.02987975 -0.054505516 -0.015990637 0.0042899027 -0.04905567 -0.040690098
-0.093889005 0.050436553 -0.069262244 -0.08995435 -0.031709123 -0.09024835 -0.02178375 -0.04999796
-0.0052617947 -0.0066159996 0.00420617 -0.007102854 -0.014007733 -0.016163226 -0.04999735 -0.013684743
0.13260031 0.06269699 -0.08568347 0.005667669 0.046660658 0.06968056 0.04593655 0.010754964
-0.041117627 0.06078812 -0.040552855 0.010460578 0.22191417 0.009039183 0.07048536 0.055643957
-0.037155904 0.06964112 -0.0120637175 0.023821328 0.04857317 0.031249035 0.055745315 -0.026486175
0.0020596702 -0.1236756 0.039624445 0.02240557 -0.045152888 -0.06375102 0.012415677 0.008733901
-0.004348326 -0.06999554 0.14559755 -0.01120722 0.11221496 -0.06395566 0.0039237635 -0.014602963
-0.031879555 -0.09225914 0.096829385 -0.0110741975 0.041670527 0.08436333 0.0658486 0.02876084

fc3.weight f4 [2, 128]
00000000: 97ca 3bbd 388b 773e 7bc9 d7be 94f1 3d3e
00000010: 6724 6a3d b9c4 14be db36 87be 39d2 df3d
00000020: 5bbc 22be 59f2 b1be 551c 8abd cf50 b23d
00000030: a393 69be ff88 af3c b902 91bb d40a 17bf
00000040: ff28 5ebe 15b4 3dbe f429 393d 40d9 f9bd
00000050: 16cb aa3e 187b 963c 865a 74be d93b 0bbe
00000060: 82e3 bfbd 94d6 ce3d b234 7fbd a21f ae3e
00000070: 8f3d 033e 8232 8c3d c514 19bf 3b29 e9be
00000080: fb23 0d3e 21a6 993e e761 2ebe d52f 3e3d
00000090: 4723 92be 1268 a4bd a861 bbbd 21d0 d9bd
000000a0: dd01 9abe 8a59 05be 2bd4 5ebe f730 4e3e
000000b0: 75c1 eabd ee0d 25be b733 3fbe 1b91 623e
000000c0: e71d 61be fbfa abbc 6311 fdbd 5d2d dfbd
000000d0: 34d4 1fbe 14ea 9cbe eab1 3b3e 7fc5 2a3e
000000e0: 7f1a 143e 778f a2be 6d5a 0c3e 3b4d 64be
000000f0: 0999 a0be 6fdc 38be 50d0 083d 8df1 d4be
00000100: bd92 3d3d f62f 53bd 420a 6dbd 2839 883e
00000110: 7c1c 423e a51a 7a3d 78ef 04bf be14 85be
00000120: 32ac 11be c0f3 90be 715b 87bd 0fc9 d2bd
00000130: 95cd 02be 1fd9 38be 17da 31be 9a24 84be
00000140: a46d ebbd 084f d23c 93e6 8b3e 2d84 41bd
00000150: ece9 68be d2c2 083e 855d b83d 70ed dfbe
00000160: f30c 0d3e 5068 0c3e 7526 86be 113f d9bb
00000170: 04d5 c83d e74b dfbd f792 553e e378 043e
00000180: cf0f 00be b976 423d 5824 a0be 3398 79be
00000190: af9a b23a 38c7 4a3e 8f04 2f3e cefc 60bd
000001a0: 682e f33d 7ea7 7ebe 4fe5 933e f1f3 323c
000001b0: 5c15 5fbe e893 26be 3dd7 323e 5d7c 1d3e
000001c0: d153 18bd 8aea b83e e433 d33d d446 31bd
000001d0: 9adc 623e cfa0 41bd 7a09 0dbd 4597 a1be
000001e0: cbcb 78be 4bce 1abd 8656 af3d d583 ff3c
000001f0: 1fab 1dbe be08 ba3e 24d7 2abe b4d7 36bd
00000200: 43db ab3e 8fdd df3c 142f 863d bd15 8bbe
00000210: d9ee ae3e 8f21 e2bd 19ef e13e 1366 b23e
00000220: 8146 37be fca8 843e 994c 81be 2cb4 f23e
00000230: caf6 0ebe 8442 fabe f960 473e c773 c7bc
00000240: 4eac 143e ea1b c7bd 10a8 443e 4359 c23b
00000250: faac b1bd 2a61 c8be c0c2 963d 43da f5bd
00000260: 77c1 38be 8ad5 913c 15f4 53be 9fd9 873e
00000270: 5ea9 5a3e 3f93 ebbd 6b3a 71be 350e 1dbd
00000280: ed6a f53e e3c6 27be c40c 7ebe a11a f0be
00000290: d3b6 ca3e 2ec3 19be 8cf7 da3e ab10 3fbe
000002a0: e012 073a 225e 7c3e ae01 5f3d 2e28 433e
000002b0: bd45 46be 18d5 0d3d 7a1b 9c3e 618c c13d
000002c0: 4c34 983e e991 54be 4f0d fbbc 8de9 f2bc
000002d0: d991 4d3e bf33 ac3e f5db b13d 6bbf 853e
000002e0: ab4f 45be 67be 32be 697d c83d acca 3d3e
000002f0: 2a28 87be 3aa3 73be 1ea3 f83e 3866 933e
00000300: a19a d83e 7cc8 2abe 1dba 833e bcf9 9a3d
00000310: 7b71 e53e 71c5 9b3e 91ea 0b3e e144 84be
00000320: 92ff 87be ce2f d6bd 454d a5ba a954 f63e
00000330: f62f 713e b11a fdbe 716e 9d3e cc41 843e
00000340: aa2a 953c 3437 793e 4d13 083e 8f4e b53e
00000350: 3e4a bb3e 6cac 673e b387 783e 0967 0dbe
00000360: e436 263e 57ec 92be cf7f 77bd 2748 8a3e
00000370: 8491 1fbe 6abb ccbd 085b 48bd 98c5 87be
00000380: c858 e33e a59c 9bbd 2999 07be 5a64 11bd
00000390: c6ec 823e 03b1 0bbf 53fd 9b3d 5814 c3be
000003a0: 3edc b5be b893 d4be c549 65bd ea20 86be
000003b0: 2cf2 6e3d 0584 e33e df03 12bf f227 4c3e
000003c0: 7d24 65be 2ae4 623e db62 a5bd 97fa 9d3e
000003d0: 8812 b1be 3e8a 6fbe dca2 083f 336a 2fbe
000003e0: ca85 31bd 3384 5abe 0039 b43b 44d2 b83e
000003f0: f4f6 5ebe eb13 953d 8a3b 82be e43d 58be
-0.0458475 0.24174201 -0.42145905 0.18549186 0.057163622 -0.14528169 -0.2640904 0.10928769
-0.15892164 -0.3475521 -0.06743685 0.08706819 -0.22810225 0.02142763 -0.0044253734 -0.590009
-0.21695326 -0.18525727 0.045206025 -0.1219964 0.33358067 0.018369243 -0.23862657 -0.13597049
-0.093695655 0.10099521 -0.062306114 0.3400851 0.12816451 0.06845571 -0.59797317 -0.4553927
0.13783257 0.3000956 -0.17029534 0.046432335 -0.2854254 -0.08027662 -0.09149486 -0.106354006
-0.30079547 -0.13022438 -0.21760623 0.20135866 -0.1146268 -0.16118595 -0.18672071 0.22125666
-0.21984063 -0.0209937 -0.12356832 -0.10897324 -0.15608293 -0.30647337 0.18329588 0.16676901
0.14463232 -0.3175008 0.1370637 -0.22295086 -0.31366757 -0.18052839 0.033401787 -0.4159054
0.04628252 -0.05155941 -0.05787111 0.26606107 0.18956178 0.061060566 -0.519279 -0.25992388
-0.14225844 -0.28310966 -0.06609238 -0.10292255 -0.12773736 -0.18051575 -0.17368351 -0.25809175
-0.11495522 0.02567245 0.27324352 -0.047245193 -0.22745484 0.13355568 0.090022124 -0.43735838
0.13774471 0.13711667 -0.26201215 -0.0066298326 0.098062545 -0.10903149 0.20856844 0.1293674
-0.1250603 0.047476504 -0.31277728 -0.24374466 0.0013626422 0.19802558 0.17091583 -0.054928593
0.11874086 -0.2486858 0.28885886 0.010922418 -0.21785492 -0.1626736 0.1746492 0.15379472
-0.03718931 0.3611644 0.10312632 -0.043280438 0.22154465 -0.0472725 -0.034432866 -0.31560722
-0.24296491 -0.037794393 0.08561425 0.031190792 -0.15397309 0.36334795 -0.16683632 -0.044639304
0.3356572 0.027327327 0.06551948 -0.27165022 0.341666 -0.11041557 0.4412773 0.348435
-0.17897989 0.25910175 -0.25253752 0.47403085 -0.1396133 -0.48878872 0.19470586 -0.0243472
0.14518854 -0.09722121 0.19204736 0.005931051 -0.08675571 -0.3913663 0.07361364 -0.12004521
-0.18042551 0.017802019 -0.20698579 0.2653322 0.21353671 -0.11502694 -0.23557441 -0.038343627
0.4793314 -0.16384463 -0.24809557 -0.46895316 0.3959261 -0.15015861 0.42766988 -0.18658702
0.0005152654 0.24645284 0.05444496 0.19058296 -0.1936254 0.03462705 0.30489713 0.09450603
0.297274 -0.20758785 -0.030645994 -0.029652381 0.20075168 0.3363323 0.086845316 0.26122603
-0.19268672 -0.17455445 0.09789545 0.18534344 -0.2639783 -0.23792735 0.4856195 0.28788924
0.42305472 -0.16678041 0.2572793 0.07567164 0.4481314 0.30424073 0.13663699 -0.258338
-0.26562172 -0.10458337 -0.0012611529 0.48111466 0.23553452 -0.49434426 0.30748323 0.2583145
0.01820882 0.24337465 0.13288613 0.35411498 0.3658008 0.22624367 0.24270515 -0.13808836
0.16231877 -0.28695938 -0.060424622 0.27008173 -0.15582854 -0.09996684 -0.04891494 -0.2651794
0.44403672 -0.07598237 -0.1324202 -0.035496093 0.2557127 -0.54566973 0.07616677 -0.3810146
-0.35519594 -0.4151895 -0.055978555 -0.26196986 0.05833642 0.4443666 -0.57037157 0.19937113
-0.223772 0.2215735 -0.08075496 0.30855247 -0.3458445 -0.23392579 0.53373504 -0.17130356
-0.04334048 -0.21339492 0.005499959 0.3609792 -0.21773893 0.0727919 -0.2543605 -0.2111736

fc3.bias f4 [2]
00000000: 99c3 e13c 86db bf3c
0.027559089 0.023420107

bn1.weight f4 [256]
00000000: f657 9b3f fc91 af3f 7dfc a13f 8cc3 943f
00000010: 6f39 8e3f 8822 9e3f cc07 913f 026d 9b3f
00000020: de70 933f 96e9 aa3f 8caa 903f a9d8 953f
00000030: 3743 a33f 6410 9b3f 3bc5 953f 1702 a63f
00000040: 4113 9b3f f68c 943f 0551 8e3f fbe5 a03f
00000050: 2bc2 8e3f d79d a13f 4ec8 8f3f 97f1 9f3f
00000060: 77c1 b23f b423 973f 2e59 963f 6bb3 9b3f
00000070: 88ac 963f fe4e 933f 6459 a83f 55d2 893f
00000080: ebfb 923f 98e9 903f a0b9 863f 8705 9e3f
00000090: 6011 a43f ba61 973f a489 a33f 0a9a a53f
000000a0: 8999 a53f a3f2 ac3f 65e1 963f f914 a33f
000000b0: dd21 873f b835 a73f e211 a23f 0138 933f
000000c0: 3254 9a3f b7a6 903f 6732 8f3f 41c1 a13f
000000d0: b468 a03f 5903 ab3f 593e b23f ba8f 8d3f
000000e0: df34 9e3f 5502 aa3f 063d 8e3f bc84 943f
000000f0: 8ac8 933f 58f6 983f 0fbb 963f 04aa 8d3f
00000100: 7b66 943f e2f4 9f3f da2f a33f bdb2 ab3f
00000110: 2b91 973f 177d a33f 7058 a43f 450f 913f
00000120: 3583 933f 6076 a93f 5856 9e3f 4709 9f3f
00000130: db3c a53f 370b a53f cd60 b53f 3a5c a33f
00000140: 8da9 973f 4146 8b3f a66a 973f a561 9d3f
00000150: ac78 993f d7f2 b33f d01c 853f 56d4 9a3f
00000160: b56a 983f ce65 963f 2b57 a23f aecf 973f
00000170: b617 933f d565 a93f 1ca7 973f 9dc6 883f
00000180: ef9d 923f e267 963f 396d a63f 29a6 993f
00000190: 35f2 9b3f 3ff4 9b3f fee7 953f f9eb 8c3f
000001a0: b139 973f d427 9c3f 4243 973f 9210 ca3f
000001b0: c88e 8a3f 500b 8e3f 026b 853f b6c3 953f
000001c0: 5523 943f 416e 8e3f a2cf a23f 2d9a a03f
000001d0: 58b8 8c3f dc4a 913f d2d3 9f3f ca91 9d3f
000001e0: 2665 8a3f ecaa 8b3f 3b04 9a3f b9d2 993f
000001f0: d115 9c3f d8d0 903f 33e7 863f d045 a23f
00000200: dd76 a03f 372f c53f e012 963f f578 9b3f
00000210: f02f 983f e990 9d3f ea1f 903f fef3 9c3f
00000220: 7585 913f ff5a 8e3f 14cd a03f d15f 973f
00000230: 5f9e 9e3f bb44 9a3f 0059 943f d7fb a83f
00000240: 6d15 a73f 6bd6 9a3f 7959 9a3f cf5d 9a3f
00000250: fe95 9e3f 0b5b 9a3f f89a 9c3f a645 9c3f
00000260: a51d 993f a099 8e3f 0cf3 a83f d092 a63f
00000270: 9bb0 933f 0bef 9b3f ba8f 8c3f 3a6f 963f
00000280: 235c 9d3f 2342 a03f 1121 a93f dea8 8d3f
00000290: e0a0 a93f c408 a83f bfe8 a03f 2e23 9b3f
000002a0: eaca ac3f 0db0 913f cd90 973f 67bb 923f
000002b0: 7b30 943f 2f7a 973f b7ab 9c3f bf0b 913f
000002c0: 570d 983f e5f1 8b3f 0e15 9f3f f381 953f
000002d0: a27b 923f f9e6 953f 1285 a13f 6daa ad3f
000002e0: f25d 883f 123b 9b3f a2d3 9b3f 762d 943f
000002f0: d8fd 913f 68c9 9b3f 90a3 9b3f e6ee 9b3f
00000300: 373e 8b3f 891a 973f d949 8e3f 5bc7 a83f
00000310: c33e 9e3f 55ca 993f 014b 9f3f bc44 a83f
00000320: 26b1 a13f 23a1 a13f e84b aa3f 51e7 9c3f
00000330: a91a a83f bd70 923f 3b9f 993f 652d 973f
00000340: ea51 9d3f a7cc a03f f794 a03f f1a5 9f3f
00000350: 929e 8a3f 4aad 893f 33a6 953f c67e 953f
00000360: 863e 923f 1027 893f 5dfd 943f 5793 9a3f
00000370: c462 a13f 1e5a 8f3f 7a59 8a3f 27ce 9d3f
00000380: 0cb7 9a3f 123e 8d3f 27c5 a63f 860c 983f
00000390: 15ad 9e3f f301 883f 5ec8 983f 3045 ae3f
000003a0: df42 9a3f 5b79 8b3f 1b4b a63f dc1d 913f
000003b0: 63cd 983f 2052 973f 6d7e 9a3f caba ac3f
000003c0: f645 9b3f 63f3 903f 8fbe a53f 8c3d 8b3f
000003d0: 2d29 963f ac16 8e3f 9c97 8f3f 2b90 953f
000003e0: c51d 8e3f 39c5 903f e7fd 963f bda2 923f
000003f0: af89 923f 9cce 963f 012a 8c3f 9851 a73f
1.2136219 1.3716426 1.2655178 1.1622176 1.1111277 1.2354288 1.1330504 1.2142642
1.1518819 1.3352535 1.1302047 1.1706744 1.2754887 1.2114377 1.1700815 1.2969388
1.2115251 1.1605518 1.1118475 1.2570184 1.1153005 1.2626294 1.1233003 1.2495602
1.3965291 1.1807771 1.1745965 1.2164129 1.1771402 1.1508482 1.315228 1.0767313
1.1483129 1.1321287 1.0525398 1.2345437 1.2817802 1.1826699 1.277638 1.2937634
1.293748 1.3511547 1.1787535 1.2740775 1.0557209 1.3063269 1.2661707 1.1501466
1.2056944 1.1300877 1.1187257 1.2637101 1.2531953 1.3360397 1.3925277 1.1059487
1.2359885 1.3281962 1.1112373 1.1603007 1.1545575 1.1950178 1.1775836 1.106751
1.1593775 1.2496607 1.2748978 1.3413922 1.1841177 1.2772549 1.2839489 1.1332785
1.1524416 1.323925 1.23701 1.2424706 1.2909197 1.2894047 1.4170166 1.276252
1.1848618 1.0880815 1.1829422 1.2295424 1.1989951 1.4058484 1.0399418 1.209605
1.1907564 1.1749818 1.2682852 1.1860254 1.1491611 1.3234202 1.1847873 1.0685612
1.1454448 1.1750453 1.3002082 1.2003833 1.2183291 1.2183913 1.1711423 1.1009513
1.1814481 1.2199655 1.18174 1.5786307 1.0824823 1.1097202 1.0423281 1.1700351
1.1573282 1.1127397 1.2719615 1.2547051 1.0993757 1.135097 1.2486517 1.2310116
1.0812118 1.0911536 1.2032541 1.2017432 1.2194158 1.1313734 1.0539306 1.2677555
1.2536274 1.5405034 1.172451 1.2146288 1.1889629 1.2309848 1.1259739 1.226196
1.1368853 1.112152 1.2562585 1.1826116 1.2392081 1.2052225 1.1589661 1.3201855
1.3053414 1.2096685 1.2058555 1.2059878 1.2389524 1.2059034 1.2234793 1.2208755
1.1962172 1.1140633 1.3199172 1.3013554 1.1538271 1.2182325 1.0981362 1.1752694
1.2293743 1.2520183 1.3213216 1.1067159 1.325222 1.3127675 1.2571028 1.2120111
1.3499424 1.1381851 1.1841065 1.1463441 1.1577295 1.1834162 1.2239903 1.133171
1.1879071 1.0933195 1.24283 1.1680282 1.144398 1.1711112 1.2618735 1.3567635
1.065367 1.2127402 1.217396 1.1576374 1.1405592 1.2170839 1.215929 1.2182281
1.0878361 1.1804973 1.1116287 1.3185838 1.2362903 1.2014872 1.2444764 1.3145976
1.2632186 1.26273 1.3304415 1.2258092 1.3133136 1.1440655 1.2001718 1.1810728
1.2290623 1.2562455 1.254546 1.2472516 1.0829642 1.0756009 1.1691345 1.1679313
1.1425331 1.0715046 1.163982 1.2076215 1.2608266 1.1199377 1.0808556 1.2328538
1.2087111 1.1034567 1.3028916 1.1878822 1.239657 1.0625595 1.1936147 1.3614864
1.2051657 1.089641 1.299167 1.1337237 1.1937679 1.1821938 1.2069832 1.3494503
1.2130725 1.1324276 1.2948779 1.0878158 1.1731316 1.1100669 1.1218143 1.1684622
1.1102835 1.1310188 1.1796235 1.1455914 1.1448268 1.1781802 1.0950319 1.3071775

bn1.bias f4 [256]
00000000: b462 fd3c ec12 43bd b140 67be 7102 c2bd
00000010: 0375 22bd e6d8 69bd 161a 61bd b19a f9bb
00000020: e8d6 e3bd 64de bbbc f54b a6bd 87a4 233d
00000030: bd92 0b3e 26bb 0abe 1edc 07be dde1 dfbd
00000040: d145 4bbe 7771 963d a7c3 54bd 4dfc 49bd
00000050: 6762 07bd 8402 61bd bd06 6cbd a377 0c3d
00000060: 48b7 84bd 6d06 10be 1bd4 f3bd 1e42 523d
00000070: 5e79 13be f204 b8bd 3217 e1bd 3423 2d3d
00000080: 244a 21be f70e cebd c4a7 e9bd 65e3 d5bd
00000090: 0da9 833d 0ad7 ed3b b1f3 13bc 0f3d b3bd
000000a0: 0de8 13be 7fde 6a3d 4a06 d9bd bb67 de3b
000000b0: fc89 15bd 7296 073c 9eed f0bd 8224 243c
000000c0: 8297 74be 052d bcbd deda f8bd ae9d fdbd
000000d0: 2ea9 5f3d e949 23be 855a 193e 369f fbbd
000000e0: bb09 41bd f3ca 65bd 7967 b13d 40d2 67bd
000000f0: 0967 2dbe 343f 17be 9aed a9bd c408 3cbe
00000100: 496f f2bd 0cdf f7bc 284a 2bbe 3456 93bd
00000110: acf1 733c cd24 a6bd aa97 4d3b 773c dcbc
00000120: e64d f2bd b454 2fbc d0df 2d3e 1d16 6c3c
00000130: fc8c 6abd 2d80 d7bd f7c8 4ebc fed6 5ebe
00000140: ceca 03bd 4cb7 513d 4868 80be 35a4 f0bd
00000150: 3d5b 253c 37d6 56bc f3af ecbd f123 b3bd
00000160: 3792 a7ba 4f9d 94bc d1b8 a13c 3f42 dcbd
00000170: 2e17 e4bd deda 81bd d7f1 28bd e93e d83d
00000180: 7b27 6abd 3793 c13d 7808 23bd aa8c 0bbe
00000190: 1d92 bfbc 3768 b3bd c972 12bd d2e5 e7bd
000001a0: 93c6 88bd 2760 2abd 454f 2a3d b5a9 8e3d
000001b0: 9266 373d a872 28bd e4c6 debd 1486 e9bd
000001c0: f9a2 40be f0c2 fb3d 167d 15bc 3215 cdbd
000001d0: 2e1a b73d 4007 f93d b7c3 ec3d e0e1 aabd
000001e0: b5de d5bd f701 d7bd 8164 e4bc 08f8 a43d
000001f0: a808 b13d 7ddd f0bb c673 07be 9fd3 713c
00000200: 8a67 f9bd f647 48bd a236 07bc 4612 f4bc
00000210: b793 cbbd 8529 d0bb 3105 a03d aa7f 8dbd
00000220: 69f5 78bd 423b 043e 068d 363e 4052 943d
00000230: bb5e 0abe bbc3 233d aa5a ccbd b6d1 11bc
00000240: babb febc c730 bfba e7ac 2f3e f660 f33d
00000250: 0cb7 87bd 480a b4bc 322a 09be c509 89bc
00000260: eb0e 4bbe 1752 153e b610 d7bb f572 0bbe
00000270: 3c14 04be 2844 04be 4f4e 0a3c 9f18 c3bd
00000280: 12fa f33c 29bd c7bd 5287 21be b7e5 f73d
00000290: 6f73 3abd fd49 2eb9 5661 203c 7d97 5cbe
000002a0: 0a6a 7cbe dce0 303e 75ad 27be 1593 92bd
000002b0: 06b7 37be e23d f23d 9566 3e3d 2272 163d
000002c0: 8b73 37be 7496 f2bd aaf3 55bd dc4c dbbd
000002d0: 1cd5 463e cba4 aa3c 84d6 1cbd 3f02 3abb
000002e0: 176f 943c 49f9 05be aba9 25bc abe2 ff3c
000002f0: d7ef bdbd 30a2 98bd a320 98bd 6a1d 883c
00000300: 5aa5 5bbd 3947 8dbd 697e fc3c cb4b e53d
00000310: ee9f ab3d 97d1 463b 8a8b 2ebd a228 3c3d
00000320: 14dd ed3d a051 efbd 67f3 1cbd de73 ae3d
00000330: 4f50 773d 5f72 a5bd 8f5f 42bb e01d da3b
00000340: f6ad 6cbd e9e5 9f3c e7c5 973d c35f 07be
00000350: 15c6 03be 720f bfbd 6f2a f8bd 81d7 f7bd
00000360: dbf5 fdbd 123c ccbd 628b 16bd 2c6b f73d
00000370: 9186 40bd 104d 0abe 851d 5c3c 18aa 28bd
00000380: ada7 86bd ab49 5c3d 81b0 b1bd 416a afbd
00000390: de11 94bd e92d ab3d 2aa3 16be bf55 e0bc
000003a0: f2b1 81bd 7d3d 2b3e 20fd c2bd 58f6 c3bd
000003b0: 73ce 2ebe bf75 03bc d119 e5bd 7220 abbd
000003c0: 2e2c 0fbe b601 ebbc 5c2d 03be fd80 32be
000003d0: 5f35 04be d356 80bd f40b fbbd 46a3 1cbd
000003e0: b15b 1d3e 870a 37be 8b6a aabd 25e3 62bc
000003f0: 1a83 c6bc f8b9 c13d 2662 e6bd d311 49bd
0.030930854 -0.047625467 -0.22583272 -0.09473122 -0.039662372 -0.057091616 -0.054956518 -0.0076173176
-0.111249745 -0.022933193 -0.081199564 0.039951827 0.13630195 -0.13547954 -0.13267562 -0.10931752
-0.19850852 0.073458605 -0.0519444 -0.04931288 -0.03305283 -0.05493404 -0.057623614 0.034293782
-0.064802706 -0.14064951 -0.1190569 0.051332586 -0.14401767 -0.08985318 -0.10990752 0.0422699
-0.15750939 -0.10061448 -0.11408952 -0.10443763 0.06428728 0.0072583007 -0.0090302685 -0.087518804
-0.14443989 0.057341095 -0.10596903 0.006787268 -0.036508545 0.008275615 -0.11764072 0.01001847
-0.2388592 -0.09188274 -0.121511206 -0.12383591 0.0546047 -0.15946163 0.14975937 -0.122862265
-0.04712842 -0.05610175 0.08662314 -0.056596994 -0.16933836 -0.14770204 -0.08297272 -0.18362719
-0.11837632 -0.030257724 -0.16727507 -0.07194176 0.014889162 -0.08112488 0.0031370916 -0.0268843
-0.11831264 -0.010701347 0.16979909 0.014409569 -0.05726336 -0.105224945 -0.012621156 -0.217617
-0.03217583 0.051200196 -0.2507956 -0.1175007 0.010092554 -0.013112596 -0.11556997 -0.0874709
-0.0012784664 -0.018141417 0.019741448 -0.10754823 -0.11137234 -0.06340574 -0.04124626 0.10558874
-0.057166558 0.09451907 -0.039803 -0.13627878 -0.023385102 -0.08760112 -0.035754 -0.113231316
-0.066785 -0.041595604 0.041579504 0.06965963 0.044775553 -0.04112497 -0.10877779 -0.114025265
-0.18812169 0.12293041 -0.009124061 -0.10013808 0.0894054 0.12159586 0.11560767 -0.083438635
-0.104428686 -0.10498422 -0.027879955 0.08055121 0.08644229 -0.007350622 -0.13227758 0.014759927
-0.12177952 -0.048896752 -0.008252772 -0.02979387 -0.09940284 -0.0063526058 0.0781349 -0.069091156
-0.060780916 0.1291323 0.17827234 0.072422504 -0.135127 0.039981585 -0.0997823 -0.008900097
-0.031095374 -0.001458668 0.17155801 0.11883728 -0.0662671 -0.021977559 -0.13395002 -0.016728291
-0.1982991 0.14582096 -0.0065632714 -0.13618071 -0.12898344 -0.12916625 0.008441522 -0.095261805
0.029782329 -0.09752876 -0.15774277 0.121043615 -0.045520242 -0.00016621496 0.009788832 -0.21542163
-0.24649826 0.17273277 -0.16374762 -0.0715696 -0.17940912 0.118282095 0.04648455 0.03672994
-0.1791517 -0.11845103 -0.05223433 -0.10708019 0.19417232 0.020830533 -0.038290516 -0.0028382686
0.018119378 -0.13083376 -0.010111253 0.031236013 -0.092742614 -0.0745281 -0.074281 0.016615588
-0.05362449 -0.0689835 0.030821996 0.11196097 0.083801135 0.0030337328 -0.042613544 0.045937188
0.11614433 -0.116854906 -0.038318064 0.08518194 0.060379323 -0.08078455 -0.0029659008 0.0066563934
-0.05778309 0.01951881 0.07410794 -0.13220124 -0.12868531 -0.09329118 -0.121174686 -0.12101651
-0.12400409 -0.09972395 -0.03675402 0.12080988 -0.047003333 -0.1350596 0.013434772 -0.04117784
-0.0657495 0.053781193 -0.086762436 -0.08565188 -0.072299704 0.08358366 -0.1471068 -0.027384637
-0.063327685 0.16722675 -0.09520936 -0.09568471 -0.17070942 -0.008023678 -0.11186565 -0.08355798
-0.13981697 -0.02868734 -0.12810272 -0.17432018 -0.12910984 -0.062665604 -0.12258139 -0.038241647
0.15367009 -0.1787511 -0.08321103 -0.013848101 -0.024232436 0.09459299 -0.11249189 -0.049089264

bn1.running_mean f4 [256]
00000000: 3843 d53f bc95 1640 77bc 633f a196 a13d
00000010: 51f0 423f 73c7 873e c980 633f 0598 543f
00000020: dd69 033f 4d6f 243f 3508 9e3e c7f1 073f
00000030: 3ab3 ee3d 0c9c 8d3d 08e9 453f 9c43 333e
00000040: f8db 3940 951a ec3e 9045 f83f a74f ec3e
00000050: bfb8 bb3f 1b83 a53f 79e5 8840 2d98 943d
00000060: 2645 063e 82c0 993e 66ed bd3d ac0a 023e
00000070: ac97 853e 42f1 6d3d 70b0 4a3e 6c5f a83f
00000080: 0400 0000 ac44 1d3b 0400 0000 2012 2f3e
00000090: ada2 a63e 37ad 3b3f 3566 0d3e f338 6f3d
000000a0: 8b96 6b3e 9d81 a03e 2389 013e efe2 313d
000000b0: 0400 0000 b8e4 d63e 10d4 093d 7bee a63e
000000c0: b96f 8e3e c10b 083f 5d46 d33f aeb0 b03d
000000d0: bce4 613e 742d b33d 31f1 de3e fbb2 103f
000000e0: 097f bf3e 9977 393d 0c84 413f a499 e33f
000000f0: 76ca 1a3f d47a f53d 3bd5 443e a042 d93e
00000100: a63f a23f 4ef1 653c 9d75 823d 367b 3c3d
00000110: 0da3 113f ead2 ac3d 0eb5 343f 5b86 0f3f
00000120: a1aa 3e3f e818 a13d c30a 393f c705 903e
00000130: ca6c 193e 51ba a33f 65ea 943d 2cb6 2f3e
00000140: d005 8e3f 0400 0000 d62d 303f 26f0 213e
00000150: 6cc4 0f3f af3a d93e 22f3 093c b04d f63e
00000160: a38c af3d d442 403f 404a a83e 580c 763f
00000170: 506a 1d3f 561b 433e 29a9 c93f 946e 0740
00000180: b3ce 553d bd5a cf3e fa97 0d3f e0a1 c43d
00000190: b471 293e 81f9 e63d ad4f e13d 0400 0000
000001a0: 0b06 133f c39e cb3e 46d1 4c3f a3af 713c
000001b0: 1cc9 973f 633b 2c3f 0400 0000 733b 273d
000001c0: 8b63 023f 20d1 773f 622b fa3c f6e2 e43e
000001d0: 239f 003f c609 fd3e cd92 953d 1622 673e
000001e0: 0400 0000 9436 6a3d 1bd9 cc3e 17e1 3c3e
000001f0: e086 bb3e 6018 9c3b 0400 0000 144a b53e
00000200: da85 ba3d 5e3d 153d 8ea7 df3d 1aa9 7e3e
00000210: cd72 3f3e c5fd 2f3d c951 903e 4538 243c
00000220: f3e1 4a3f 43b7 953f d129 db3e 10fc ed3e
00000230: b58a 3a3e 757c 6c3f e7f4 3d3d 63dc 2040
00000240: 7665 143f 46b4 3b3c 9298 7e3e e87d 883f
00000250: d793 5a3d 5f3a 323f 7387 2f3e beed a03d
00000260: b881 763f 6c73 1640 37af f13d e5ae ee3c
00000270: fe23 113f 53ec 0d3e fa54 8a3e 9b8b ca3c
00000280: bc07 323e f8db 983e 25fd cb3c fab5 5b3f
00000290: ad6f d93d 7058 743e e31a 543d 3d92 763b
000002a0: 8c57 823d bf30 d03e d543 7b3e fcb3 243f
000002b0: 1848 2d3f 47f1 cf3f 1668 f53d 51ab 543f
000002c0: 464c 433e 0400 0000 fa75 543d 4173 2c3e
000002d0: 2cf3 663f 98cc a73f 5d2d 063e 1d69 8d3d
000002e0: 4888 3740 0400 0000 cd4d ba3e 4b05 0d40
000002f0: 468a 963f e87e 963e 7bf0 813e c8cf cb3f
00000300: 0400 0000 bd6d dd3c c86a 2e3d 73ad bf3d
00000310: 6e36 9d3d 36c3 673f 7bfa a23e 42ca 023f
00000320: ee10 1e3e a1be 5d3d fdc7 363d 23a2 123f
00000330: d5db 883e 048d e53e 8f83 cb3f 6fe5 383f
00000340: b4e3 233e cc13 8f3f 708a 293d e9f7 953e
00000350: 904f f13d 0400 0000 5d82 d93f 2a54 be3c
00000360: 6f9a 403f 0400 0000 7e61 e43e 6295 f93e
00000370: 34bf b43e ebd1 c83f 0400 0000 9a21 883e
00000380: a92e 423f f462 9c3c 68b0 9d3e 9e2a 973d
00000390: 76d1 523e 884a 2040 bf31 9c3e 2439 563e
000003a0: 4acd 5b3f 548f 1540 0fa3 b83d 1643 e13d
000003b0: 5ece 233e ef23 ec3f bfe8 d93e 14f1 2d3d
000003c0: bf45 f13d 0334 7d3f 9106 b23d e41a 3c40
000003d0: 6c90 3b3e a467 4440 7d18 433c 333c 403f
000003e0: 1a58 f13f 9612 423f 1ca3 ee3c 9338 e83e
000003f0: 18a1 ec3e a838 6940 a197 913f 4813 d33e
1.6661139 2.352889 0.8895945 0.07890058 0.76147944 0.26519355 0.88868386 0.83044463
0.5133341 0.6423233 0.30865636 0.531033 0.116552785 0.06914529 0.773087 0.1750626
2.9040508 0.4611403 1.9396229 0.4615452 1.4665755 1.2930635 4.278012 0.07255588
0.13112316 0.30029684 0.09273796 0.12699383 0.2609228 0.05809141 0.19793868 1.315412
6e-45 0.002399723 6e-45 0.17096758 0.32545987 0.7331118 0.1380852 0.05840392
0.23006646 0.31348887 0.1264997 0.04342931 6e-45 0.41971374 0.033649504 0.3260382
0.27819613 0.53142935 1.6505848 0.08627449 0.22059911 0.08748904 0.4354339 0.565231
0.37401608 0.045280073 0.7559211 1.7781262 0.6046518 0.11986318 0.19221966 0.42433643
1.2675674 0.014034582 0.06370089 0.04601594 0.5688942 0.08438666 0.7058877 0.56064385
0.7447911 0.078660786 0.72282046 0.28129408 0.14982906 1.2791234 0.0727127 0.17159337
1.1095524 6e-45 0.6881994 0.15814266 0.5615909 0.42427585 0.008419784 0.48106146
0.08571746 0.7510197 0.32869148 0.96112585 0.61490345 0.19053397 1.5754749 2.1161242
0.052199077 0.40498915 0.5531002 0.09601188 0.1654728 0.11278058 0.11001525 6e-45
0.57431096 0.39769563 0.80006826 0.014751348 1.1858249 0.67278117 6e-45 0.04082818
0.5093314 0.96803474 0.030538265 0.44704407 0.50242823 0.4942152 0.07303391 0.22571597
6e-45 0.057180956 0.40009388 0.1844524 0.3662634 0.004763648 6e-45 0.3540808
0.091075614 0.036435477 0.109206304 0.24869195 0.18696137 0.042966623 0.28187397 0.010023181
0.7925102 1.1696552 0.4280534 0.4648137 0.18216975 0.92377406 0.046376135 2.5134513
0.5796732 0.011456555 0.24862888 1.0663424 0.053363647 0.6962032 0.17141514 0.07857846
0.96291685 2.3507948 0.11800998 0.02913613 0.56695545 0.13859682 0.27017957 0.024724772
0.17385763 0.29855323 0.024900982 0.8582455 0.106170036 0.23861861 0.051783454 0.0037623786
0.063643545 0.4066219 0.24537595 0.64337134 0.6768813 1.6245507 0.119827434 0.8307391
0.19072065 6e-45 0.051870324 0.16840841 0.902148 1.3109312 0.13103242 0.069048144
2.867693 6e-45 0.36387482 2.203448 1.1760948 0.29393697 0.25378785 1.5922785
6e-45 0.027029866 0.042582303 0.09359255 0.07676397 0.90532243 0.31831726 0.5108987
0.15436146 0.054136876 0.044624317 0.5727865 0.2673022 0.4483415 1.5899523 0.7222509
0.1600483 1.1177917 0.04139179 0.29290703 0.117827535 6e-45 1.6992909 0.023233492
0.75235647 6e-45 0.4460563 0.48746783 0.35302126 1.5689062 6e-45 0.26588136
0.7585245 0.019090153 0.3079865 0.073811755 0.20587716 2.504549 0.30506703 0.20920235
0.8586012 2.336873 0.09015476 0.10999124 0.15996692 1.8448466 0.42560384 0.04246624
0.11780881 0.9890749 0.08692659 2.9391413 0.18316811 3.0688257 0.011907694 0.75091857
1.8855011 0.7580961 0.029130511 0.45355663 0.46216655 3.644083 1.1374398 0.41225648
