critic1_critic.pth (torch, 195379 bytes, 13 tensors)

fcs1.weight f4 [256, 48]
00000000: 61e3 17bd 8a9f 9bbd c714 42bd 795b 83bc
00000010: db70 34be cbad 22be 9ddd 38bd 2627 3e3b
00000020: 7010 d1bd 3c45 b5bb 34f9 8fbd d3d6 89be
00000030: 0e08 74bd f2fa a9bd 60b9 8ebd 25c1 8bbe
00000040: 1cdb 08bd 6ca1 24bd 4d4d cabb 8de6 7bbb
00000050: e2c8 ba3c baed 35bb e501 d4bd 010c 44bc
00000060: 127c 59bd e90e 333f 27e2 40bd e49e 7a3d
00000070: 7f9c 203e 9021 b3bd b24e 9bbc 44c9 183d
00000080: 0d74 363d de53 343f 605c 103d 7233 a5bd
00000090: 61b3 e13d a916 0dbe 52d0 a33c 7809 9a3c
000000a0: 9981 313e 43a2 2b3f f0d6 d03d 2a6d 17be
000000b0: 282f 4cbd 176d c73c 5e93 ae3d c299 39be
000000c0: 5a18 89bd f8f8 b63e 70e8 ed3c bc77 58be
000000d0: d3c2 053e 12e9 103c cb35 693c 4ef3 21be
000000e0: b1b1 2dbe 3143 c33e 434d a43c 0059 c83e
000000f0: a4bd 81bc 1f81 8abd 3cbc 9fbd 0c7d bb3e
00000100: e060 09be 3d4c c43e a71a 11be b704 06bd
00000110: 1a1b 88bd 787d 0dbe a757 f9bd d3aa b3bd
00000120: 0dbd 723e 7923 9f39 c171 a9bc 7038 333d
00000130: 1084 f1bd c69c 06bd 56e5 16bd 4e64 253d
00000140: 36a1 653e f875 a1bd 57d3 bfbd 93fc 1dbe
00000150: 6174 3ebc 4e46 d2bd 19d6 26bd 6d07 1cbe
00000160: 2147 c63d e3a8 05be f191 4bbd 9843 843d
00000170: f941 983d 9400 42be 2160 553d 1e95 a6bb
00000180: e460 9cbd b4fc 0e3f 4baa 3b3d 925f 4abd
00000190: 76ae 673c 7d31 8d3c db31 703d 5c4c aebd
000001a0: 8e7f d13d 07d7 2b3f d890 e6bb c9b8 9fbd
000001b0: ad0e 44bd 08e3 29be daf0 d8bc 9fa7 babd
000001c0: 71dd 783d eefc 0c3f 3b64 99bb 5968 3ebd
000001d0: f215 80be b79e 0cbd 4040 ec3c be1d 84bd
000001e0: 99d6 02be 712c ab3e 730a 703d 1ecb 5a3d
000001f0: 1b5c febb 362b d5bb eb3b 17bd 69a8 b1bc
00000200: 89b8 17be 445d c73e 7974 cbbb 141a 92bd
00000210: 1db7 903d 86b6 9dbd 22f6 6dbd 969b 49bd
00000220: c2eb 2bbe d475 c73e 2d02 63bd 8ca2 493e
00000230: 221b 893e 9a60 fabd 2ff8 a3bc ef2b cf3d
00000240: 36f8 e53d d8a2 373f 8bc1 00bd 3bda a2bb
00000250: 9061 4b3d 684c 27be 0a5d ffbc 6c2e 243d
00000260: 2562 d43c 88ed 1f3f 7bc9 0fbd a433 223e
00000270: 6ed0 b73d 001f e33d cdf1 473d 2c49 2a3e
00000280: 6b7b 91bc 6479 d53e ad9f ef3d 5c45 67be
00000290: a142 6e3d a194 263e 23b7 d73d 1418 55be
000002a0: 09c5 903e cf68 003f af69 8ebd c203 f13c
000002b0: 16b6 5bbd 16a7 dabd d3b7 9ebb ab9e afbc
000002c0: c824 9b3d df56 e43e f781 02bd e103 06bd
000002d0: 23a8 14bd e635 ce3d 200c c7bc fd0c 38bd
000002e0: 9efb ab3d 6ce4 af3e af77 273b d7e9 e7bd
000002f0: 1321 fcbc 49df 303e 39fc 733d 03c4 14be
00000300: 2ff4 8a3d 1037 af3d f059 153d 9312 26be
00000310: df94 5fbd e004 983d 5a0c bc3c 15fa 28be
00000320: 22b5 383d 7ef6 8a3d 3892 97bd ba55 23bd
00000330: 1a81 853b 6856 213e 5e63 91bd 3acb 9dbd
00000340: 6785 1abc f80a 793e a677 053d faf5 c93e
00000350: 5edc 3b3d daee c33d 5c1e 74bd 9a52 ab3e
00000360: 0081 a13e 2e13 123e 20ce 9bbc a629 2cbe
00000370: 6802 b53d ec6d 6e3d c343 b63c eef4 cdbd
00000380: 136e 163e 14d7 4c3e 84b9 3dbd 18b4 37bd
00000390: e26c 6b3c ab37 ec3d f49a 893d dfa3 a3bd
000003a0: 66a0 2d3e f0d7 bc3d 8d60 7cbd 496b c9be
000003b0: 8f07 9fbd bb5b 403e 1e47 c9bd 7161 c8be
000003c0: 8521 743e bb03 06be c74d 44bd 6524 513d
000003d0: 5aa0 0f3e 65b5 d9bd 8c6a 9fbc b278 99bb
000003e0: 63a6 473e 75f5 babd f5da 2b3d 4352 203d
000003f0: 8810 0a3e 9cf1 f4bd f9a2 1e3d e212 bcbb
-0.03708208 -0.07598789 -0.047383096 -0.016034828 -0.17621176 -0.1588661 -0.045133222 0.0029015034
-0.10208213 -0.005531935 -0.070299536 -0.2692171 -0.059577994 -0.08299817 -0.06968951 -0.27295795
-0.033412084 -0.040193006 -0.0061737658 -0.003843698 0.022800867 -0.0027760104 -0.10351924 -0.011965753
-0.05309684 0.69944626 -0.047090676 0.061186686 0.15684699 -0.08746636 -0.018958423 0.037301317
0.04454427 0.7044047 0.035244346 -0.08066453 0.11020542 -0.13778175 0.019996796 0.018803343
0.17334594 0.67044467 0.10197246 -0.14787737 -0.04984966 0.02434401 0.08524202 -0.1812506
-0.06694098 0.35736823 0.029041499 -0.21139425 0.13062601 0.008844631 0.014234017 -0.1581547
-0.16962315 0.381372 0.020056373 0.39130402 -0.015837498 -0.06762909 -0.07799575 0.3661884
-0.13415861 0.38339415 -0.14170323 -0.03271934 -0.06645794 -0.13817394 -0.121749215 -0.087728165
0.2370493 0.00030353272 -0.020684125 0.043754995 -0.11792767 -0.032864355 -0.036839806 0.04037886
0.22424778 -0.07883829 -0.09366482 -0.1542838 -0.011624427 -0.10267316 -0.040731523 -0.15237208
0.096815355 -0.13052706 -0.049699727 0.06458205 0.07434458 -0.18945533 0.05209363 -0.005083694
-0.07635668 0.55854344 0.0458167 -0.04940755 0.014140716 0.017235512 0.058641296 -0.08510658
0.10229407 0.6712498 -0.0070363097 -0.07798917 -0.04786556 -0.16590512 -0.026482034 -0.091140024
0.060758058 0.5507344 -0.004681138 -0.046486232 -0.25016743 -0.03433105 0.02883923 -0.06450985
-0.12777175 0.33432344 0.058603715 0.053416364 -0.0077624447 -0.0065053953 -0.036922377 -0.02168675
-0.14816488 0.38938344 -0.006208953 -0.0713388 0.07066176 -0.07700829 -0.05809606 -0.049220644
-0.16789153 0.38957083 -0.055421997 0.19690913 0.26778513 -0.122254565 -0.020015804 0.101158015
0.11228983 0.71732855 -0.031434577 -0.0049698628 0.04965359 -0.1633774 -0.031172294 0.040083334
0.025925705 0.6247182 -0.035104256 0.15840012 0.08975302 0.11089897 0.048814584 0.16629475
-0.017759046 0.41694176 0.117003776 -0.22585052 0.05816901 0.16267635 0.105329774 -0.20809966
0.28275326 0.50159925 -0.06953751 0.029420737 -0.053640448 -0.106764 -0.004843691 -0.021437963
0.07575375 0.44597527 -0.031862225 -0.032718543 -0.03629316 0.10068874 -0.024297774 -0.04493426
0.083976015 0.3435396 0.0025553515 -0.11323898 -0.03077749 0.17272677 0.05956671 -0.14527898
0.067848556 0.08555424 0.036462724 -0.16218023 -0.054585334 0.07422805 0.022955108 -0.16501649
0.045094617 0.06785296 -0.07400936 -0.039876677 0.004074228 0.15755618 -0.07099031 -0.07704778
-0.00943122 0.2432059 0.03258481 0.39445478 0.045864455 0.09567042 -0.059599265 0.33461457
0.31543732 0.14265129 -0.019019186 -0.16812763 0.088383496 0.0582103 0.022249108 -0.10056482
0.14690427 0.20003921 -0.0463195 -0.044849485 0.014369221 0.11534055 0.06719008 -0.0799024
0.16955718 0.09220874 -0.061615516 -0.39339665 -0.077651136 0.18784992 -0.09828018 -0.39136842
0.23840912 -0.1308736 -0.047925737 0.0510601 0.14026013 -0.106303014 -0.019459985 -0.0046835775
0.19497065 -0.091288485 0.04195686 0.03914095 0.13482869 -0.11960146 0.03872964 -0.0057395557

fcs1.bias f4 [256]
00000000: bcb1 4e3d 1a18 51be 3059 14be 60b5 79be
00000010: 08cd 263d a1e9 d23d 76b1 c73d 6912 463d
00000020: 50f6 593d b09c 9bbd e49a debc c323 2fbe
00000030: d874 9a3d 0b40 603d f9c3 733d e9c6 30bf
00000040: 297a 893d e616 dcbd e6dc 0c3e f9b6 8abe
00000050: b60b 1b3d 4d68 87bc a809 fd3d ebd8 65be
00000060: 2a62 f1bd 5b3a 1cbe 6e30 c039 76b7 bb3d
00000070: 5011 a2bc c92f debd 10f9 10be 9023 1dbf
00000080: 20fe 3fbd 6600 d1bd cdaf d23e ff00 4fbe
00000090: 2090 6cbe ee00 fbbd e97e fd3c 3add 623d
000000a0: e4b9 db3e b1bc fbbd d0d2 4d3e c0d6 b0be
000000b0: 8d6d 373d 8743 babd 8945 89be 0b55 cabe
000000c0: 0911 7fbe 31f6 c9bd 6b15 d0bd 36ab e6bd
000000d0: 458e b03d a127 be3d dde6 9cbd 23df 94be
000000e0: 47fc 9abe 069e 8abb cdff bfbd 261b ac3a
000000f0: 22e7 07be 42a8 0ebf 085a 4abe 26ae 55bd
00000100: 4783 b3be 3f9d f2be f285 b83d d5c8 0f3c
00000110: f3a9 e73c b091 e8bd 362c a43d bad1 803d
00000120: a0d2 53be 2322 843d e091 30bf bac3 053d
00000130: cb4e 783e 3e02 a9be 794d 9d3d d637 1e3e
00000140: 0aa7 2f3c 4106 32be 01e2 d1be 9ba3 1bbe
00000150: b682 67be 3a14 1ebe f386 8b3c 6139 943b
00000160: 1fb0 aabe 152d 1bbe 1ad8 f23d 0e06 5cbd
00000170: 3665 c8bb dfd4 de3c bbe1 26be 95d3 363e
00000180: 588c adbd 7cd3 943d 8857 a8be 2475 fcbd
00000190: dc1d 46bf 6b80 0f3e bf26 09be b122 2abe
000001a0: f7dc 79be 1be7 c13d e776 0dbe f423 05bf
000001b0: 3482 64bd e38a 71be 4218 753c d300 febc
000001c0: 9232 52be 4d2e 6fbc 91cb adbe 6e6d 50be
000001d0: cd54 87be 67f4 84be d072 adbe 1263 03be
000001e0: c9e5 e4bd 542b a53d 003d 23be 4256 133d
000001f0: 52fd 12be 21fb b6bc 0ee5 833e d662 b9be
00000200: 3080 77bd e6fe 97be 03a0 823c ffe3 6bbf
00000210: aec0 25bf 5574 9cbd 8eb9 05ba c143 2ebe
00000220: 5fae 8b3d 2ff4 a3be 999e 173e bff1 6bbe
00000230: 60c3 05bd bac5 23be 37b2 85be 7b09 18be
00000240: 890e 593e c6b0 7abe 8e6e 6fbe 1013 89be
00000250: 0818 3a3e e697 bfbe 918a c6be cb1c 1a3e
00000260: 939f 61be cf8f 8ebe f620 91bd 21aa 09bd
00000270: 3a4c b7bc 79b2 b8be c5b2 11be 3149 70be
00000280: 8384 0abe 3cc1 fabd 0f69 693e 71b9 cebe
00000290: 9232 21bf ff8a c3be b548 9bbe 16b1 e4bc
000002a0: 733b a1be 5a40 c4bd 10f0 bebe 9eb8 2bbe
000002b0: 5d96 afbb 1ca9 2e3c eadb 95be 00c0 99be
000002c0: 861f 033c 0162 713e c95d 0dbf 8b24 aabd
000002d0: 7e36 97be b3a2 5d3a 0b18 c8bd 7d9d 37be
000002e0: a1f3 0f3e 2d6b a43d 1c02 d0bd 46fe c1be
000002f0: ae91 e8bd f8b4 48be 417a ecbe 74a5 34be
00000300: 27c9 d53c d10e 41be 5e8b 0b3d d43b abbe
00000310: a466 e53c a5c6 02bf 3b60 3abe b7f5 98bd
00000320: 254e 12be e7da b0be 54cf a1bc 8ba6 1cbe
00000330: c630 d9be c370 98be c78d 1cbf c177 313d
00000340: ab50 453e 2f91 373e 79e5 c2be 1ef3 84bd
00000350: 95d7 b4be 8a04 12bf 150e 2fbe 3d5b 383e
00000360: f85c a1be 9acf 09be 9c36 18be 8c51 33be
00000370: 5a4c 97be 84b7 79be cce5 35be cb1e 43be
00000380: 186b fbbb 5ff1 5a3e 41b9 8cbe 0eab 57bf
00000390: f653 afbe d97e d33d 32c4 37be 9a9b ffbd
000003a0: da53 6abe cb51 d5bd ec3e bebb 88ba 1bbe
000003b0: 8bd5 03bf 58f9 a0be 48ae 56bd a632 84be
000003c0: 1667 dd3d 769d 43be a07f 89be 4dc5 e3bd
000003d0: ddce 113e d2b6 4a3d 23f9 f6be f433 a5bd
000003e0: 5a58 aebe 33ff 80bf 4435 0cbe c23b ffbd
000003f0: 79a2 ea3c e2ed 75be b510 43bc b043 103e
0.05046247 -0.2041935 -0.14487147 -0.24385595 0.040722877 0.102984674 0.09750645 0.0483574
0.053213418 -0.07598245 -0.027173467 -0.17103486 0.075418174 0.054748576 0.059513066 -0.6905351
0.06712753 -0.10746555 0.13756141 -0.27092722 0.037852965 -0.016529227 0.123553574 -0.22446029
-0.117863014 -0.15256636 0.00036657177 0.09165852 -0.019783646 -0.10848958 -0.1415751 -0.6138239
-0.04687321 -0.10205154 0.4114975 -0.20215224 -0.23101854 -0.12256037 0.030944305 0.05538676
0.4291526 -0.122918494 0.2009995 -0.3453884 0.04478221 -0.09094911 -0.26810864 -0.39518008
-0.24908842 -0.098614104 -0.10160335 -0.11263125 0.08620886 0.09284902 -0.07661221 -0.2907649
-0.30270597 -0.0042302636 -0.09374962 0.001313065 -0.13271764 -0.5572549 -0.19760907 -0.052168034
-0.35061094 -0.47385594 0.09009923 0.008775909 0.02827928 -0.11355913 0.08016245 0.06290002
-0.20685816 0.064518236 -0.6897259 0.032657363 0.24248807 -0.33009523 0.07680792 0.15450987
0.010720978 -0.17385198 -0.4099274 -0.1519913 -0.22608456 -0.15437403 0.017032122 0.0045234417
-0.33337495 -0.15153916 0.11857624 -0.05371671 -0.006115581 0.027201114 -0.16297047 0.1785415
-0.08474034 0.072669 -0.3287928 -0.1232703 -0.7738931 0.14013831 -0.13393687 -0.16614796
-0.24400698 0.09467908 -0.13814889 -0.52007985 -0.055788234 -0.23588137 0.014959397 -0.031006252
-0.20527104 -0.014598441 -0.3394437 -0.20354244 -0.26431885 -0.25967714 -0.33876657 -0.12830761
-0.111766405 0.08064905 -0.15941238 0.035970934 -0.14354447 -0.022336544 0.25760692 -0.36208218
-0.060424984 -0.2968666 0.01594544 -0.9214477 -0.6474713 -0.07639376 -0.0005101197 -0.17018034
0.06820368 -0.32022235 0.14806594 -0.23041438 -0.032657027 -0.15993395 -0.2611253 -0.14847367
0.21196951 -0.24481496 -0.23382017 -0.26772356 0.1817323 -0.37420577 -0.38777593 0.15050046
-0.22033529 -0.27844092 -0.07086365 -0.033609513 -0.022375215 -0.36073664 -0.14228351 -0.2346542
-0.13527112 -0.12243888 0.22793983 -0.40375856 -0.6296779 -0.38191983 -0.3032891 -0.027916472
-0.3149067 -0.095825866 -0.37292528 -0.16769645 -0.005358501 0.010660436 -0.29269344 -0.30029297
0.008003121 0.23572542 -0.5522123 -0.08307751 -0.29533762 0.0008454725 -0.09770211 -0.17931171
0.14057781 0.08028255 -0.10156652 -0.37889308 -0.11355911 -0.19600284 -0.46187022 -0.1764124
0.026096893 -0.18853308 0.034068458 -0.33444083 0.028003044 -0.5108436 -0.18200772 -0.074687414
-0.14287622 -0.3454201 -0.019752182 -0.15297906 -0.42420024 -0.2977353 -0.61153835 0.043327097
0.19269054 0.17926477 -0.380657 -0.064916834 -0.35320726 -0.57038176 -0.17095216 0.18003555
-0.31516242 -0.134581 -0.14864582 -0.17511576 -0.2955044 -0.24386412 -0.17763442 -0.19054715
-0.0076726787 0.21381138 -0.27485088 -0.84245384 -0.34243745 0.10326929 -0.17945936 -0.124808505
-0.2288355 -0.104159914 -0.0058058407 -0.15207875 -0.51497716 -0.31440234 -0.0524123 -0.25819892
0.10810678 -0.19103035 -0.26855183 -0.111216165 0.14239068 0.049490757 -0.4823695 -0.0806655
-0.34051782 -1.0077881 -0.13692194 -0.1246257 0.028641926 -0.24016526 -0.011905839 0.1408832

fc2.weight f4 [128, 260]
00000000: abfb 8ebc 3908 8fbd d8a3 73bd 84a0 50bd
00000010: 2782 913d 11a9 8ebc e3b4 c63d 81f6 15be
00000020: ffc8 6abe c45c e43c 6ae5 cebc 45e1 fabd
00000030: eda8 873b c5e1 5f3d 3d8c 28bd d0d2 9bbd
00000040: 86a7 bebc f606 a43d 9e58 913d c1df 013d
00000050: 003e 05bd 47d6 f23d 4db7 9cbc 65ac c8be
00000060: 2b96 a6be d56f c2be a102 443d 0b2a 1a3c
00000070: fed7 753d 1552 633c 8ab4 1a3e 43bb f6bd
00000080: 862b 2ebe 4013 1abe d9fd 2fbd a748 493d
00000090: dce8 8fbd 18ae c1bd c0c0 07be 0739 893b
000000a0: e487 a63d 8424 203d 9e04 663d c37a e43d
000000b0: 1c82 7c3c ca95 df3c 8b05 91bc 019b 13be
000000c0: 1a80 3a3e 8e15 193d af6a 45bd a0e3 d33d
000000d0: f21b 9abd 289d 0abe 16fc fb3d 3aca 2cbd
000000e0: dc06 973d 4042 243e 8d18 d8bc 44d4 e4bd
000000f0: 673a 13be 2a80 20be 463f c23d aff0 9c3d
00000100: d341 98bc 41cf c7ba 7641 923d 4fcd bbbc
00000110: e0da 8c3d 700f 71bd 50cf 48bd 6718 c8bc
00000120: 4908 37bd 80bf dabd 2974 68bd 2db7 513d
00000130: 5b93 a33c 3bb9 313c 546d 32bd a63a 85be
00000140: ac68 0ebe ae90 c0bd e756 b7bd e979 d73d
00000150: db76 013e af0e 21bd a3ad 1ebd a2a8 573e
00000160: 5b7b 36bd 2f86 053e ea78 d13d 4b86 443d
00000170: ae1f ea3d f866 323d 9c1d 873c 55dd 0abd
00000180: e35a d33d 5721 163d d38a 1b3d f921 bc3d
00000190: 09d3 8c3d 7c9a ce3c ff08 993d ae29 1abd
000001a0: 405b 20be 357f 00bd 0193 e4bd a0ca 00bd
000001b0: fe1e 9abd e9bd debd bbee ccbc 7225 89bc
000001c0: e472 0cbe 0e0b 0c3d c713 81bd 24db b13d
000001d0: 7d1f 21be b215 883d 7b61 c4bd 3a37 883d
000001e0: d541 e9bc ef03 0e3b 0d66 c9bc 0a2b d73d
000001f0: c772 b03d c5e8 323d cf69 34bd db51 7abd
00000200: 0e7b e23c 81f1 d0bd 28e1 473e c617 9cbd
00000210: 35b5 21be c2c4 63bd 5130 0f3d 2b71 303d
00000220: a508 0fbe e57e 923d b638 143d adbf 553e
00000230: 8c68 f6bd b205 013d 2892 33be cad9 c8bd
00000240: 9966 3fbd 6808 14be 517c 31be 8811 cf3d
00000250: 8b7e a03c ed33 95bd b37f 60be 8234 cabd
00000260: 3e1d 97bd 4261 983d a181 48be 7bf9 34be
00000270: 3e4a a8bd 5117 f1bd 00e5 c3bd 6a7e 50bd
00000280: fd9e 91bd c73a f73d 0fbb 33bd 34b3 20bd
00000290: 490f 2fbe cc7c d1be 2ef6 fa3d 3d41 9b3d
000002a0: 8c2e 66bd 74aa 6bbe 2b9f 223d 56c7 1dbe
000002b0: c455 a93d 01fc bf3d 8ea4 af3d 26fa 6fbd
000002c0: 2322 a2be cf57 853d fd8d e03d e221 203c
000002d0: 282f 8b3b 1dcb 493d 7f52 b7bb 6401 6bbd
000002e0: 43d5 093d 8c28 da3d 7aa1 393e 5319 13be
000002f0: 3c55 46bd 4d17 6e3b 261c f63c de70 a1be
00000300: 4ecf a1bd 2ee7 e93d 1a65 24be a8cf 0b3e
00000310: edb2 d33c 4bfd e3bd b777 48bd eb3a 3fb9
00000320: d583 3dbe df59 b43d f914 ddbd 124d 8a3d
00000330: 4ee5 a1bd 9936 0f3c 26b2 703d 33be 2b3d
00000340: 7c36 0a3e 6a29 e53d 21c5 adbb 536e b2bb
00000350: f1a9 27bc 1acd 2cbe 4141 423d 5454 8f3d
00000360: 5fe6 203e 181d 6dbe f454 193d 600b ccbd
00000370: 60ad 44be 658f a4bc 50a8 943d 7acc 48be
00000380: 1999 8d3c dac1 01bd c4d8 3e3e 7e6a 19bd
00000390: e568 2fbd 4368 793e 89de 87bd 25a2 b9bd
000003a0: 77a0 0bbe a5d2 0f3d 2d7b 653d dd22 43bd
000003b0: 2fea 47bd 6a90 98be 7ed1 e4bd c961 793d
000003c0: 067b e0bd 1514 63be 53c3 043e b36b 95be
000003d0: 7978 263b 9850 b5bd 6094 6fbe 8892 97bd
000003e0: cd8d 953c 897f 18be c165 7d3d 54b3 a63d
000003f0: a6f7 39be a6a5 8c3c 412f 343d 4a48 a03d
-0.017453989 -0.0698399 -0.059482425 -0.05093433 0.07104903 -0.017414602 0.0970247 -0.14644815
-0.22928236 0.027876265 -0.025255878 -0.12249998 0.0041400106 0.05465867 -0.041149367 -0.07608569
-0.02327324 0.0800914 0.070969805 0.03170753 -0.03252983 0.118572764 -0.019130373 -0.39194027
-0.32536444 -0.37975946 0.04785407 0.009409438 0.06002044 0.01387455 0.15107933 -0.12047436
-0.1700879 -0.15046406 -0.042966697 0.049141552 -0.07026836 -0.09457034 -0.13257122 0.0041877064
0.08131388 0.039097324 0.056156747 0.111562274 0.01541188 0.027293105 -0.017702838 -0.14414598
0.1821293 0.03737407 -0.048197445 0.103461504 -0.075248614 -0.13536513 0.12303941 -0.042185046
0.07374355 0.16040897 -0.026378894 -0.11173299 -0.14377747 -0.1567389 0.09484725 0.07663094
-0.018586075 -0.0015244262 0.07141392 -0.022925047 0.068776846 -0.058852613 -0.049025834 -0.024425698
-0.044685636 -0.10681057 -0.056751404 0.05120008 0.019967726 0.010847385 -0.043561295 -0.26021308
-0.13907117 -0.094025955 -0.08952122 0.105212994 0.12642996 -0.039320644 -0.03873981 0.21060422
-0.044551235 0.13039468 0.10228141 0.047979634 0.11431824 0.04355523 0.016493611 -0.033902485
0.1032007 0.03665289 0.03797419 0.09186167 0.06876189 0.025220148 0.07472419 -0.037637405
-0.15659809 -0.031371314 -0.11160851 -0.03144324 -0.075254425 -0.10876066 -0.02501618 -0.016741488
-0.13715702 0.03419023 -0.063026 0.08684376 -0.15734668 0.06644763 -0.095889054 0.06651159
-0.028473774 0.0021669825 -0.024584794 0.10506256 0.08615642 0.043679018 -0.04404622 -0.06111322
0.027646568 -0.10202313 0.19519484 -0.07621722 -0.15791781 -0.055607565 0.034958187 0.043076675
-0.13968141 0.071531095 0.036186896 0.208739 -0.120316595 0.031499572 -0.17536223 -0.09807165
-0.046728704 -0.14456332 -0.17332579 0.10110766 0.01959159 -0.07285295 -0.21923713 -0.09873296
-0.073786244 0.074404255 -0.195807 -0.17673294 -0.082172856 -0.117720254 -0.09565163 -0.050901808
-0.07110403 0.12071758 -0.043879565 -0.0392334 -0.17095675 -0.40915525 0.12253986 0.075808026
-0.056196734 -0.23014241 0.039702576 -0.15408072 0.082683116 0.09374238 0.08576308 -0.05858817
-0.3166667 0.06510889 0.10964582 0.009773703 0.004247565 0.04926597 -0.005594551 -0.057374373
0.033650648 0.10652265 0.18128005 -0.14365129 -0.04842113 0.0036329806 0.03004272 -0.31531423
-0.07900868 0.11421047 -0.16054192 0.13653433 0.025842154 -0.11132296 -0.048942294 -0.00018237128
-0.18507321 0.08806204 -0.10795016 0.06752981 -0.079050645 0.008741044 0.058763646 0.041929435
0.13497347 0.1118954 -0.0053030406 -0.0054452806 -0.010233388 -0.16875115 0.047425512 0.06998506
0.1571288 -0.2315563 0.037434533 -0.09963107 -0.19206762 -0.020087907 0.072586656 -0.19609252
0.017284917 -0.031679012 0.18637377 -0.037455074 -0.042824645 0.24356179 -0.06634242 -0.0906413
-0.13635431 0.035112996 0.056025673 -0.04764067 -0.04880732 -0.2979768 -0.1117277 0.06088427
-0.10960965 -0.2217563 0.12965135 -0.2918373 0.0025401397 -0.08853263 -0.23396444 -0.074009955
0.018256092 -0.14892401 0.06186462 0.08139673 -0.18160877 0.017168831 0.043990377 0.07826288

fc2.bias f4 [128]
00000000: adaa 01be 5271 29be e490 3cbe 2edb 28bd
00000010: 627d f2bc 2810 abbd 4fc3 57be 0773 c7bd
00000020: 5640 21be 4ceb 11be 2302 9fbd 7178 91bd
00000030: f3ac 0bbe 8879 afbd df39 33be 74ac 23be
00000040: 7ce8 50bd e133 1bbe 315a dcbc 575d 00be
00000050: 7323 2bbd ccbf 22be 4f77 23be a642 acbd
00000060: 7c9c 27be 8922 73bd 4dc2 2bbe 4df8 1ebe
00000070: d86a 3bbe eb01 2fbe 11c4 adbd 4ede b1bd
00000080: 7328 26be 2c9b a8bd 9900 2ebe 526e 23be
00000090: f90c cdbd fcd7 12be e183 25be 563c 2dbc
000000a0: 9fa3 41bd 4ecf 3cbd 697a 5cbe 165b 01be
000000b0: 9412 12bd e8d8 d1bd 0c29 6fbd 0c62 04be
000000c0: 14bb ddbd 808b 33be 64ab 8ebd 8eb3 bdbd
000000d0: ea15 3cbe 1267 36bd c8a5 15be a092 b1bd
000000e0: a1d5 97bd a16a eebd 9207 42bd 2b63 13be
000000f0: ba61 06be 4e91 02be c122 e9bd aa29 16be
00000100: 649c 1ebe 8bb8 3bbe e338 dbbd e46b e0bd
00000110: cd6d c8bd 231d 45be 40b8 39be 3e17 75be
00000120: 2f78 22be fef6 1abe bfa5 f6bd 858d 38be
00000130: a881 b5bd 37a2 edbd 73fc 8ebb bd22 1a3d
00000140: f0c7 edbd 6dc3 74bd a96d 48be 18fa 85bd
00000150: 1627 58bd 5a5e d1bd f6f2 12be 3f27 b93d
00000160: 1c81 1cbe 4fb2 4b3c 5685 5ebd ea76 88bd
00000170: b315 4c3c 4b65 f8bd e27c 07be 5c82 33bd
00000180: c9d6 ebbd 7f1e 8f3c 3929 483c 240a 2bbe
00000190: abd5 abbd 7d33 3cbd c514 f0bd 2861 6bbe
000001a0: 6cdd aaba 8a93 a4bd cc7d f9bd 7c44 b93b
000001b0: 6bbb 49be e2df 2ebd ae6f 22be 5149 0fbe
000001c0: dea5 74be 0a02 14bd 7310 dbbc e8e5 40bd
000001d0: 66ab afbe 0b4f 06be 6970 12be 2587 04bd
000001e0: 0c5c 38be b563 0ebe 7ab4 c8bd 6295 10be
000001f0: 0bee adbd 922d e0bd 62a9 d2bd 2c4a e3bd
-0.12662764 -0.16547135 -0.18414646 -0.04122465 -0.029600803 -0.08352691 -0.21070598 -0.097387366
-0.15747198 -0.14249915 -0.077640794 -0.071030505 -0.13640194 -0.08568102 -0.17502545 -0.15983754
-0.051002964 -0.15156509 -0.026898475 -0.12535606 -0.041781854 -0.15893477 -0.15963481 -0.0841115
-0.16368288 -0.059359107 -0.16773339 -0.15524407 -0.18302476 -0.17090575 -0.08484662 -0.086849794
-0.16226368 -0.08232722 -0.16992415 -0.15960053 -0.1001224 -0.14340204 -0.16163589 -0.010573467
-0.04727518 -0.04609614 -0.21531071 -0.12632403 -0.03566225 -0.1024645 -0.058388755 -0.12928027
-0.10826698 -0.17533684 -0.06966284 -0.09262763 -0.18367735 -0.04453189 -0.14614022 -0.086705446
-0.07413793 -0.116414316 -0.0473705 -0.14393298 -0.13123217 -0.12750742 -0.11383582 -0.14664331
-0.15489346 -0.18332116 -0.1070421 -0.109580785 -0.09786568 -0.19249396 -0.18136692 -0.23934647
-0.15866159 -0.15133283 -0.12043332 -0.18022735 -0.088626206 -0.11603206 -0.0043635904 0.037630785
-0.11610401 -0.059756685 -0.19573082 -0.06541842 -0.05277165 -0.10223074 -0.14350495 0.09040689
-0.15283626 0.012432649 -0.054326378 -0.06663306 0.012456345 -0.12128695 -0.13231233 -0.043825492
-0.115155764 0.017470596 0.0122168595 -0.16703087 -0.08390363 -0.04594754 -0.117227115 -0.22986281
-0.001303596 -0.08035953 -0.12182197 0.005653916 -0.197004 -0.04269398 -0.15862915 -0.13992812
-0.23891398 -0.036134757 -0.026741242 -0.047094256 -0.34310454 -0.1311609 -0.14300694 -0.032355446
-0.18003863 -0.13905223 -0.09800048 -0.14119485 -0.08492669 -0.10946192 -0.102862135 -0.110981315

fc3.weight f4 [1, 128]
00000000: 576c df3c 9ca4 ea3d ecef 9d3c dde4 9b3c
00000010: 5506 903c 3a44 b6bc 7ee5 f4bc af9a adbc
00000020: a480 46bd 812a 7ebc 3bb3 b13c 07c1 04bd
00000030: 0bc6 5a3c 75b0 febc 589c cc3c 0ff1 8bbc
00000040: 2415 bfbc 5711 cfbc 756a 573c 6477 ccbc
00000050: e058 9a3c 1628 16bd 4b03 afbc b9ee ff3c
00000060: 7fc9 b4bc 9fbc 0bbd 1446 d3bc dda7 04bd
00000070: 9b07 f3bc ad3f 7dbc 9270 d5bc 8e27 14bd
00000080: 3b9c 13bd 0ba7 f1bc 4a2b b4bc 28e3 e1bc
00000090: 4482 cc3c a307 b0bc 91ef eb3c c9a3 5d3c
000000a0: fd29 343c 5d3d 603c 27c0 d0bc 7783 1dbc
000000b0: 3a75 593c 43dc f73c 04a6 8d3c bf2b 59bd
000000c0: f741 25bd dd54 b13c c4a7 bbbc 47d6 153d
000000d0: 6932 093d 407f 073d dbf0 f63c 041f d03c
000000e0: 84b1 a5bc d88b 83bc 078b 8ebc 1194 ecbc
000000f0: 32e2 393d 8642 7a3c 2ad8 8e3c f064 ba3c
00000100: f493 f13c 777a 15bd 7509 1fbd b023 cf3c
00000110: 7a75 74bc fcce b9bc ca5b d73c afca 94bc
00000120: df1d 34bd 89fe 4dbc b716 aabc b242 8d3c
00000130: fba7 803c f867 b23c 5cf8 933c d1df a63c
00000140: c7a7 0bbd fffe 0e3c 1713 e4bc 8d08 8dbc
00000150: 1355 083c 8313 b7bc 3b5f 9ebc 1472 5e3c
00000160: f753 fcbc 1f73 163d dba2 893c 620b 98bc
00000170: 53db 5f3c f388 bcbc 2a79 5c3c 6aa1 1b3d
00000180: 7ab4 403d 7a8f 433c 07a2 bb3c 139d 08bc
00000190: 2069 583c 6616 6b3c 86bd 683c 134f a33d
000001a0: acc1 133d 2c85 ddbc fc05 ec3c c034 893c
000001b0: 2563 0b3d 80fc bf3c 9fb3 2e3d fd56 593d
000001c0: b2d8 98bc 87fe 643c d038 ebbc 0edd c23c
000001d0: 9051 4dbc 9d90 333d 256c 793c 0f38 74bc
000001e0: a865 cdbc 9905 4c3d dc3f 3f3d 9fa9 e1bc
000001f0: 97e3 10bd 4b53 aebc 8b6e d23c 4321 5f3d
0.02727334 0.11457178 0.019279443 0.019030029 0.017581144 -0.02224933 -0.029894587 -0.021191923
-0.048462525 -0.015513063 0.021691909 -0.032410648 0.013352881 -0.03109 0.024976894 -0.01708272
-0.02332551 -0.025276823 0.01314794 -0.024959274 0.018841207 -0.036659323 -0.021363875 0.031241762
-0.022068737 -0.03411543 -0.025790252 -0.03238665 -0.029666713 -0.015457076 -0.026054654 -0.036170535
-0.036037665 -0.029498598 -0.021993298 -0.027574137 0.02496446 -0.021488016 0.028800758 0.013527819
0.010996339 0.013686505 -0.02548225 -0.009613863 0.013272578 0.030256396 0.017291076 -0.053020235
-0.040346112 0.021646911 -0.022907145 0.036581304 0.03349534 0.03308034 0.030144146 0.025405414
-0.020226248 -0.016057894 -0.017400278 -0.028879197 0.045381732 0.0152746495 0.01743706 0.022753209
0.029489495 -0.036493745 -0.03882738 0.025285572 -0.014920587 -0.022681706 0.026288886 -0.018163053
-0.0439738 -0.012572893 -0.020762784 0.017243717 0.0157051 0.021778092 0.018062763 0.020370396
-0.03409555 0.008727788 -0.027841134 -0.017215991 0.0083210645 -0.022348171 -0.019332519 0.013577003
-0.030801756 0.03673088 0.016801288 -0.018560115 0.013663131 -0.023014521 0.013456622 0.037995733
0.047047116 0.011936063 0.02290441 -0.008338231 0.0132086575 0.014348602 0.014205342 0.079740666
0.03607337 -0.02704104 0.028811447 0.016748786 0.0340301 0.023435831 0.04265177 0.053061474
-0.018658016 0.0139767 -0.028713614 0.023787048 -0.012531653 0.043839086 0.015223538 -0.014905944
-0.025072888 0.049810026 0.04669176 -0.027546702 -0.035373297 -0.021279952 0.025687477 0.05447508

bn1.weight f4 [256]
00000000: a188 1d3f 504b fb3e dcbc 573f b493 263f
00000010: 602e 223f 6400 1c3f aadd 053f d0e5 123f
00000020: a7a0 053f 19ca 1d3f 5959 233f 2737 253f
00000030: 77f9 a33f 0f3a 4e3f 85e5 3c3f 6085 813f
00000040: 1eef 103f acc6 e23e bc43 a33f 35a1 1e3f
00000050: 72a7 2f3f db45 243f e49d e53e b6db 353f
00000060: bfc7 5d3f 0c8f af3f d624 023f 7f5f 143f
00000070: 90eb 4a3f c01b 2b3f 8555 073f 2a35 0a3f
00000080: b30f ec3e ecc5 3b3f 6c63 403f 7f50 253f
00000090: 1160 253f 612c 1e3f 7e6f 183f c7cd 093f
000000a0: 1342 2e3f bc8c 113f 6dae df3e d1df 013f
000000b0: 5e5b 0e3f ff89 1f3f 1662 653f bd82 283f
000000c0: 8ea5 3d3f 8409 1e3f 5c86 173f 3844 3a3f
000000d0: e9bb d13e 9d29 e03e 2290 0a3f bcca e83e
000000e0: 8d9c 403f fc18 3b3f edef f53e d263 cf3e
000000f0: 4b21 983f 3c7c 293f f4c8 e93e ef2f 183f
00000100: b385 0d3f 121a 3c3f d230 fe3e 7d61 233f
00000110: 413d 183f eb36 513f ff4f 363f 7b78 e83e
00000120: e1f3 433f 07df 413f fe1b ff3e c4ac 213f
00000130: 6235 413f 81a5 0a3f 9248 f03e 7a49 1e3f
00000140: 1e4b 113f 0a60 073f f7b0 283f 1e2c 1f3f
00000150: 047a 023f 9235 893f 7427 3f3f 11cd 063f
00000160: 5e51 dd3e dd27 2e3f 0950 143f 3a65 1d3f
00000170: 9d02 fd3e 77c8 f03e ee1f e53e c81e 0f3f
00000180: 5c4a 583f dd19 033f 7236 093f b2fa 183f
00000190: 6754 683f 72d0 1a3f 5ff0 603f 4a6b 243f
000001a0: f539 083f d5bb 1c3f 2bd5 f23e 05ee 483f
000001b0: bdbe 0a3f f991 403f 27dc 233f 54cf 203f
000001c0: da55 423f bb89 253f 026f 173f 89f1 923f
000001d0: ab54 2f3f a37a fa3e f70c 483f 4c89 3a3f
000001e0: 9ede 363f e617 1e3f caa2 053f e2c6 223f
000001f0: bde2 9c3f 3de0 193f 8d01 0f3f 9040 073f
00000200: d934 cb3e 9c75 053f c13b 463f 6779 7e3f
00000210: 839d 253f e636 3a3f 8f17 043f f354 eb3e
00000220: 63b0 e23e 1146 5b3f 6ec4 053f ab8e 3e3f
00000230: 5574 153f 370a 143f 9cdd 2b3f 84de 1d3f
00000240: bdcd 613f c0e7 023f 2353 183f a333 523f
00000250: 3d80 203f a603 8e3f 17c6 553f fdc7 733f
00000260: 4bbf f73e 7ded 193f 2b19 aa3f 0ed0 3f3f
00000270: 08f1 fa3e c590 e63e 8da7 0d3f a14b 1a3f
00000280: 071e 283f 165f 083f 25ab 233f c0f8 ff3e
00000290: 86f2 923f 1cad 4f3f 634a 163f 6f6b f63e
000002a0: 29a4 9d3f 8bd0 213f bd56 553f 1b18 473f
000002b0: 39ec 073f 6584 423f fdc0 173f 8737 1a3f
000002c0: 9dbf dd3e a184 433f 2161 5c3f b764 ee3e
000002d0: 8aa7 953f cf4d 313f 094e 393f bec2 193f
000002e0: 9ec7 543f 4b7e fb3e 2668 493f e804 363f
000002f0: 5472 2e3f de51 193f a621 063f 9a72 2c3f
00000300: 92c1 083f 79f4 6b3f 1ceb 233f 5914 443f
00000310: 1b5a 0f3f 99db 0c3f 7324 073f 2c26 ed3e
00000320: f2d1 273f a2fb e83e f4cd fa3e fc31 1d3f
00000330: f4dc 473f 3691 263f 2d68 a43f 5883 133f
00000340: 7c73 1f3f c898 9b3f 2f0c eb3e 130c f83e
00000350: e754 273f 8ad0 0e3f 3b4b 213f 5e52 d13e
00000360: 70c2 083f d9bd 3e3f c516 1f3f 0d19 013f
00000370: 4817 273f c50a 1f3f cecd 233f a3be 273f
00000380: 55ff f43e acf7 403f ca49 053f be89 333f
00000390: 22b1 2d3f 8398 503f 1741 203f ac67 1a3f
000003a0: 27ee b33e c38a 093f 44aa 123f aa25 473f
000003b0: 87ad c03e 6c93 453f 2882 393f a29a 0a3f
000003c0: e69e f83e 9481 173f 3060 7f3f 30b4 4b3f
000003d0: 7f49 f93e 3a5b f73e 1926 853f 0dcb 383f
000003e0: 27ec eb3e 7b5e 173f f884 313f 7b31 f83e
000003f0: c631 683f b6cf 4d3f 6e90 1f3f 5869 fb3e
0.61536604 0.49080896 0.8427255 0.6506913 0.6335201 0.60938096 0.5229136 0.57381916
0.5219826 0.616365 0.6380821 0.6453728 1.2810506 0.8055734 0.7378772 1.0118828
0.56614864 0.442922 1.2755046 0.6196473 0.68614876 0.6416909 0.44847023 0.7103838
0.86632913 1.371553 0.5083746 0.57958215 0.7926569 0.6683922 0.5286487 0.5398737
0.46105728 0.7334888 0.75151706 0.6457595 0.6459971 0.61786467 0.59545124 0.53829616
0.6806957 0.5685537 0.43687764 0.5073214 0.55608165 0.6231994 0.8960279 0.6582449
0.7408074 0.6173327 0.5918939 0.72760344 0.40963677 0.43781748 0.5412618 0.45467174
0.7523888 0.73085 0.4803461 0.40505844 1.188516 0.6620519 0.45661128 0.5944814
0.55282134 0.7347728 0.49646622 0.6382063 0.59468466 0.81724423 0.71215814 0.4540442
0.76544005 0.7573094 0.49826044 0.63154244 0.7547208 0.5415879 0.46930367 0.61830866
0.56755245 0.5288092 0.65895027 0.6217669 0.5096743 1.0719473 0.74669576 0.52656657
0.4322614 0.68029577 0.57934624 0.61482584 0.49416056 0.47027943 0.44750923 0.55906343
0.84488463 0.5121134 0.535987 0.5975753 0.9075379 0.6047431 0.8786678 0.6422621
0.53213435 0.6122411 0.4742826 0.7848819 0.54197294 0.75222737 0.640078 0.6281636
0.7591225 0.64663285 0.5915376 1.1479961 0.6848857 0.4892169 0.7814478 0.7286575
0.71433437 0.61755216 0.5220152 0.6358472 1.2256695 0.60107785 0.5586174 0.5283289
0.39688757 0.5213258 0.7743493 0.99403995 0.6469347 0.7274002 0.5159845 0.4596325
0.44275197 0.8565379 0.5225285 0.74436444 0.58380634 0.57828087 0.67135024 0.61667657
0.88204557 0.5113487 0.59501857 0.8211004 0.62695676 1.1094863 0.83505386 0.9522703
0.48388132 0.60128003 1.3288931 0.7492684 0.49012017 0.45032325 0.5533379 0.6027165
0.6567082 0.5327009 0.6393302 0.4999447 1.1480262 0.8112352 0.58707255 0.4812884
1.2315723 0.63208836 0.8333548 0.7777116 0.5309482 0.7598327 0.5927885 0.6024098
0.43310252 0.7637425 0.86085707 0.46561214 1.1691754 0.6925935 0.723847 0.6006278
0.8311709 0.4911979 0.7867454 0.71101236 0.681432 0.59890544 0.52395093 0.6736237
0.53420365 0.9216991 0.64030623 0.7659355 0.55996865 0.5502258 0.5278999 0.46318185
0.65554726 0.4550448 0.48985255 0.61404395 0.7807152 0.65065324 1.2844292 0.5762229
0.6228559 1.2156 0.45907733 0.48446712 0.65363926 0.55786955 0.6300542 0.40883154
0.5342169 0.74508435 0.6214412 0.5042885 0.652699 0.6212581 0.6398591 0.65525264
0.47851053 0.7537792 0.5206572 0.7013205 0.6784841 0.81482714 0.6259932 0.6031444
0.35142633 0.5372736 0.57291055 0.77791846 0.3763239 0.7717807 0.7246423 0.541422
0.4855873 0.59182096 0.99756145 0.7957182 0.48688886 0.48311788 1.0402251 0.7218483
0.46078607 0.5912854 0.6934352 0.4847525 0.9070095 0.80395067 0.6232976 0.49103808

bn1.bias f4 [256]
00000000: 1888 203e 54a1 3b3e cc44 ea3e 2828 623e
00000010: 29b5 193e ebbc 383e b9e7 11be 83fc 023d
00000020: ccf7 353e 8e1e 8abd 6a20 713e 710c 423e
00000030: 9623 013e 0758 793e 7d5e 633e c39a ae3e
00000040: f349 aabd a2fc d6bd 5671 083e 8dd9 923e
00000050: aa9c d73e db64 173e 7096 21bc 7b38 933e
00000060: 73aa c43e e69d 653e e2d1 563e 8897 2f3e
00000070: f330 d93e a92e 7d3e 0422 13bd 2159 4dbe
00000080: 94cd 073e 36ee 713e 86bb 193e 5864 803c
00000090: 9fbd 993e 96f4 673d a4f9 2e3e ba41 50be
000000a0: 1cf0 be3e 9dfd 7a3e 9276 4cbd 4bac a83d
000000b0: bf7d b7bd 2a9a 9c3e 4904 df3e 2bc7 4b3e
000000c0: 614c 4b3e 4c92 543e c163 4a3e a1d3 833e
000000d0: baa3 533c 16f7 6abd a411 833c 77e9 94bd
000000e0: bead db3e 8c52 8f3e 6f9f 083e 0d29 b53c
000000f0: 858f b63e 21b1 4e3e 5ad7 7a3d 709e e1bd
00000100: c703 ad3d ff70 803e 6e3e e5bd 7f1f 973e
00000110: df0f a13d e8ca a13e f5bc 493e 332c 9abd
00000120: 3b19 cf3d 354a 943e 9a2a e7bd 527c b33d
00000130: fa81 3c3e 4cf1 3abd ef43 583e 9989 b03d
00000140: 8402 c7bc a013 033d 16ff 443e 9806 c7bc
00000150: 5e4f 2c3d 0934 7d3e f3b6 133f 0b04 a93d
00000160: 884f 523d d752 a83e 3f19 02be 0591 083e
00000170: 1c10 cd3d 0cb8 83bd bd65 013e a138 3d3e
00000180: 8b95 3c3e 2ab2 b03d d535 873e 8fdc 073e
00000190: eab9 f73e ad15 a93e 2f2c 9d3e 119c 4e3e
000001a0: 321e 1d3e 0c23 ce3d 0c6f d63c c59d 983e
000001b0: 39ad 2e3e b046 923e 0a87 3b3e 387b 353e
000001c0: b673 b63e 1e19 463e 3638 933e 940c d83e
000001d0: 2f24 e43e 492d 1b3e fb05 b13e 339a 3b3e
000001e0: 1b58 a13e e6ac 753d 5862 ff3d 1373 dcbd
000001f0: ecdc b23d 2b99 913e a052 b0bc ce20 0abe
00000200: ec36 d4bd 6cae 23bd 0296 753e 833d 8e3e
00000210: bfff cd3e 8efc 8b3e 5d08 103d 0dbe 56bd
00000220: 427a 413e 9750 23be bf1b a43e 2a32 483e
00000230: 466a 233e eb12 923e a067 133e ce24 883e
00000240: 44bd 8e3e 8cb1 e43d f5d9 4a3e 0510 e33e
00000250: 2c46 303d 7da6 613e b063 493e 149c d73e
00000260: ad97 cbbc b724 5f3e 8257 e13e b1e6 a73e
00000270: 7fbb 623e e380 5abd e72e 903e 4717 41bd
00000280: fbdd 813e a976 97bd 3cc8 9fbb e834 cf3d
00000290: c9aa 363e b509 e83e fcc0 963d 0d9b 313d
000002a0: f8a5 eb3e 6380 6f3e 0a5b 963e 0d66 003f
000002b0: 4fe5 893d 670a 8c3e 66f5 aa3e 7f9d 213d
000002c0: 807a 5fbd e35e c83e 91cb af3d 0f11 333e
000002d0: 6f1f 6a3e d51f 0f3e b58e a43d 230d e23e
000002e0: 0aaa 4a3e 65e6 f3bd 9328 9a3e 9e09 003e
000002f0: e0cc 3b3e e7d6 053e ac81 b23d 2965 833e
00000300: 96b0 f0bd a805 95bd bb99 ae3e 1ab1 ee3e
00000310: ea00 123e 8ef1 003e 1ace 9a3e a3bc 58bd
00000320: eacb 4b3e 2f3f 083e fe15 0a3e a7d8 a83d
00000330: 3ef0 d23e 0403 b73e ac4e 003e 48e2 a3bd
00000340: 68d0 513e ff69 a63e 37f4 1ebe d37e 593e
00000350: 0614 4a3e 4fcb 69bd 3ad5 003e ec87 113d
00000360: 86e8 563e 3753 9a3e c525 363e 03ab 923d
00000370: 2f02 793e 4e4f c23e 2a29 503d fca3 b33d
00000380: 1817 323e a03f b73e 2205 343e 418f 0c3e
00000390: 64c4 e83e 0dfd b93e c5cf ca3e cf88 653e
000003a0: 51c5 be3b bc5a b4bd 5ad7 963d 13c4 a33e
000003b0: 3799 a63b 1f42 5d3e b0c4 403e 4e1d 0a3d
000003c0: 35da 6f3d 811d b43e b954 fd3a e3d5 ab3e
000003d0: 572e 25bc f9ff aa3e 18dc 813e 0875 9b3e
000003e0: 1873 933d b21e b4bc 5ffb 333e f130 383c
000003f0: a46d f03e 5f7d ab3e 44d3 573e 3f8e cf3d
0.15676916 0.1832326 0.45755613 0.22085631 0.15010513 0.18040816 -0.14248551 0.031979095
0.17770308 -0.06744109 0.23547521 0.18950059 0.12611231 0.24349986 0.22204013 0.3410245
-0.08314886 -0.10497405 0.13324484 0.28681603 0.42111713 0.14784567 -0.009862527 0.2875403
0.38411292 0.22423515 0.20978501 0.17147648 0.42420158 0.2472483 -0.03592111 -0.20053531
0.13262016 0.23626027 0.15012941 0.015672848 0.30027482 0.05662974 0.17087418 -0.20337573
0.37292564 0.24510808 -0.049917765 0.08235987 -0.08959531 0.30586368 0.43557957 0.19900195
0.19853355 0.20758933 0.19764616 0.25747398 0.012917453 -0.057364546 0.015999623 -0.072710924
0.42905992 0.27992666 0.13342069 0.022114301 0.35656372 0.20184757 0.06124053 -0.11016548
0.08447986 0.2508621 -0.11193548 0.29516217 0.07864355 0.31600118 0.19700988 -0.075279616
0.10112234 0.28962865 -0.112874225 0.087639466 0.18408957 -0.045640275 0.21119665 0.08619995
-0.024293192 0.032001138 0.19237933 -0.024295136 0.042067878 0.24726881 0.57701033 0.08252724
0.05134538 0.32875702 -0.12704943 0.1333657 0.10012838 -0.064315885 0.12636466 0.18478633
0.18416421 0.08627732 0.26408258 0.1326773 0.4838403 0.3302435 0.30697772 0.20176722
0.1534355 0.100652784 0.026175998 0.2980787 0.17058267 0.28569555 0.18313232 0.17722785
0.35635155 0.19345519 0.28753823 0.42197096 0.44558856 0.15153994 0.34574875 0.18320541
0.31512532 0.059979342 0.124699295 -0.10764136 0.08733544 0.2843717 -0.021523774 -0.13489076
-0.10362038 -0.039961264 0.23983005 0.27781305 0.4023418 0.2734112 0.035164226 -0.05242734
0.18894294 -0.15948711 0.3205242 0.19550386 0.15958509 0.28530058 0.14394999 0.2659058
0.27878773 0.11166677 0.19809707 0.4434816 0.04303567 0.22036166 0.19666934 0.42111266
-0.024852598 0.2179135 0.44012076 0.3279319 0.22141837 -0.053345572 0.28160784 -0.04714134
0.2536467 -0.073956795 -0.0048761647 0.10117513 0.17838587 0.45319906 0.073610276 0.04336076
0.46025062 0.2338882 0.29366332 0.5015572 0.0673319 0.27351686 0.3339035 0.03945684
-0.054560184 0.39134893 0.08583749 0.17486976 0.22863553 0.13976987 0.08035032 0.44150648
0.19791427 -0.11909179 0.3010908 0.12503669 0.18339872 0.1307026 0.08716139 0.25663117
-0.11752431 -0.072764695 0.34101662 0.46619493 0.14258161 0.12592146 0.30235368 -0.052914273
0.19902006 0.13305353 0.13484952 0.08244448 0.41198915 0.35744488 0.12530011 -0.08002144
0.20489657 0.32502744 -0.15522848 0.21239786 0.19734201 -0.057078656 0.1258134 0.035530016
0.20987138 0.30141613 0.17787845 0.07161524 0.24317239 0.3795113 0.050820507 0.08771512
0.17391622 0.3579073 0.17580083 0.13726522 0.45462334 0.36325875 0.3961164 0.2241547
0.005821862 -0.08806369 0.07365294 0.3198553 0.0050841826 0.21607254 0.1882503 0.033719353
0.058557708 0.3517876 0.0019327617 0.3356162 -0.010081849 0.33398417 0.2536323 0.30362725
0.07199687 -0.021987293 0.17576359 0.011242137 0.4695865 0.33494088 0.21076685 0.10134553

bn1.running_mean f4 [256]
00000000: 6e77 d93f 9007 e53e 8b3e eb3f ae73 233f
00000010: 5ba0 3f3f 20ba 2d3f 6e0d 3740 b7db 143f
00000020: 1936 e33f 767c 993f f425 ea3f 44c5 0e3f
00000030: e044 7041 9962 4d3f 82fb 0a3f 4a62 d93f
00000040: caba a83f 2da1 8140 07be 8741 317e 0740
00000050: f1f7 e93f d22d 123f cf8a 1d3f ded0 7f3f
00000060: 9c39 b33f 42fb 863e 7253 d13f 4966 4c40
00000070: d998 5e40 ef10 b03f ee4a 7540 758a 9b40
00000080: 8a9c 2240 87c3 083f 2872 dd3e 6c45 7040
00000090: 3525 1e41 f512 7440 861b 083f 17e1 4140
000000a0: 30ad 3d3f d704 1f40 7006 353f c0d2 bd40
000000b0: 1c56 c43f 3010 0040 bdcc f43f 2eb9 843f
000000c0: e08d b63f 981e 0140 3e54 2b3f d2e3 fe3f
000000d0: 47c4 d13e 8b01 d63f 56a4 483f 4fd9 5b40
000000e0: 5cc2 3340 6a38 9b3f e899 c93f 72b9 063f
000000f0: be2c 433f e2f9 123f 58bc b63f 0528 dd3f
00000100: ed53 813f 8701 743f c2c7 973f 1706 1a40
00000110: 1ed1 6540 7da0 a63f e429 ee3f 041e 7c40
00000120: 49a9 313f 5cff 923f 5de8 2040 d7cd a63f
00000130: 07ba 043f 8b38 b03f dc35 0f3e afc8 a23f
00000140: faf3 743f 61d0 223f 82ca 2b40 35b1 923f
00000150: ca99 c73f 99ff 4c3e 560c af40 3c67 3240
00000160: b2e4 e33f 66dd 5a40 1d53 8c3f 491b ab3f
00000170: cad7 1640 5fd0 e73f 0ca0 023f d131 cb3f
00000180: ae59 853f dc3a 2940 ee4c d83f dd86 d53f
00000190: 939b f73f bb60 4e40 582d fc3f d621 7e3f
000001a0: d8a1 ef3f fc72 3f3f f68f 0940 db00 1a40
000001b0: a699 9640 4264 043f 88a2 b33f e79b 123f
000001c0: f197 a73f 2a31 593f 08ce a43f 2802 bd3f
000001d0: 6158 2b40 6b8f 7a3f 71e7 aa3f 81c4 a53f
000001e0: c547 0540 bc53 533f 7cd7 063f 17d6 c13f
000001f0: 0c22 333f 6b4a 1e40 f7ef 1740 8ddb 9c3f
00000200: 4d61 783f 1eac 913f 6194 673f 9f30 0340
00000210: 0962 fb3f 59fa ea40 8a91 bd3f 755e 863f
00000220: d930 8740 1da7 a940 ad95 6240 2509 b63e
00000230: 81c4 9a3f 8417 4540 3ae5 1740 41c5 cb40
00000240: 9914 7b3f 7c77 873f ac85 353f 5e0a cd3f
00000250: cc42 d03e e2b5 443f 69fd eb3e 3269 f93e
00000260: 3a5e 673f b313 013f b02e 803e 4e19 593f
00000270: 3590 d93f 0718 e83f c57e a440 acde 2f40
00000280: d94c 9f3f 077c 993f 484d dc3f 6f99 b640
00000290: f4a3 2e3e 18cf 8a3f 83dc 8340 b73a 6240
000002a0: 3a6b 263f 8c95 a03f f074 9c40 48e2 e93f
000002b0: 7c2b c240 6c9a 983f ac6e 7c40 446b 9c3f
000002c0: df2d 8f3f 6894 8b3f e47e 823f e976 2f3f
000002d0: 057f 2d41 d4f8 6b3f e3a6 373f 2b35 4a40
000002e0: b881 cb3f 525e 563f 71b6 0640 ed72 4d40
000002f0: 600d 8a3f 8860 bf3f c142 0741 ebcb 963f
00000300: 123e df3f d679 8d40 f37a 2040 f92b 3d40
00000310: ef9d b93f 078e cb40 bf4f 6e40 e280 e73e
00000320: 7ca2 a53f df10 c53e 644e 6340 a13e a63f
00000330: 6d2b fa40 a847 2540 3e0e 3f41 992b 0b40
00000340: 49ab 9d3f 0f7a 933e feab b340 6c0a 3f40
00000350: 28af 9a3f 6e2f ae40 3577 8f3f f890 303f
00000360: ae63 793f 6e12 853f 7896 9a3f 3127 1440
00000370: 3a10 823f 6daf 0641 cc6c 8d40 988a 5a40
00000380: b7e2 8a40 6c04 3a3f 3eae 3f3f 4316 4d40
00000390: 6a40 8640 800e b43f 9ab2 fb40 bcb5 c03e
000003a0: 9e89 1240 f383 4f3f 5ada 6d3f 0299 6c3f
000003b0: 4632 e340 c400 e93f 4e15 473f f351 a23f
000003c0: 4579 cc3f 8fe4 a940 5a06 883f c782 ae3f
000003d0: 81f1 a13f 159f 333f 467a d03e 6d27 a03f
000003e0: 0b36 2b3f d433 fb40 8522 0b3f b9dd a940
000003f0: 2060 a03f 69cf d63f f8d3 f83f eaad e33e
1.6989572 0.44732332 1.8378462 0.6384839 0.7485406 0.6786213 2.8601947 0.5814776
1.7750884 1.1991107 1.8292832 0.55769753 15.016815 0.80228573 0.5429002 1.698312
1.3182003 4.050925 16.967787 2.117077 1.8278791 0.57101166 0.6153993 0.9992808
1.4001956 0.2636357 1.635359 3.193743 3.478079 1.3755168 3.8326983 4.8606515
2.5408044 0.5342335 0.43251157 3.7542372 9.884084 3.813657 0.53167 3.0293634
0.7409239 2.4846704 0.7071295 5.9319763 1.5338778 2.000988 1.9124981 1.0369012
1.4262047 2.0174923 0.6692542 1.9913275 0.4097006 1.6719221 0.78375757 3.4351385
2.8087378 1.2126591 1.5750093 0.5262672 0.76240146 0.5741254 1.4276228 1.7277838
1.0103737 0.9531483 1.1857836 2.4066217 3.5908885 1.3017727 1.8606534 3.939332
0.69398934 1.148418 2.5141823 1.3031567 0.51846355 1.3767256 0.1398539 1.2717494
0.9568478 0.6359921 2.684235 1.1460329 1.5593808 0.20019378 5.470256 2.787551
1.7804167 3.419763 1.0962864 1.3367702 2.3569207 1.8110465 0.5102546 1.5874578
1.0417993 2.6442175 1.6898477 1.6681782 1.9344352 3.224654 1.9701338 0.9927038
1.8721266 0.7478483 2.1494117 2.4063022 4.706256 0.5171548 1.4033976 0.5726914
1.3093244 0.84840643 1.2875376 1.4766283 2.6772692 0.9787509 1.335188 1.2950593
2.0825055 0.82549644 0.52672553 1.514346 0.69973826 2.473292 2.3740213 1.2254502
0.9702347 1.1380651 0.90460783 2.0498426 1.9639293 7.34306 1.481004 1.0497576
4.224713 5.3016496 3.5403855 0.35553852 1.2091218 3.0795603 2.3733659 6.367829
0.98078305 1.0583339 0.7090709 1.6018789 0.40675962 0.7684003 0.46091774 0.4871307
0.90378153 0.50420684 0.2503562 0.84804237 1.6997133 1.8132333 5.140475 2.7479658
1.2445327 1.1990975 1.7211084 5.7062297 0.1705473 1.084445 4.120668 3.5348337
0.65007365 1.2545638 4.8892746 1.827218 6.067808 1.1922126 3.9442549 1.2220235
1.1185874 1.0904665 1.0194974 0.6854082 10.843511 0.92176557 0.71739024 3.159495
1.5898962 0.8373767 2.1048853 3.2101395 1.0785332 1.4951334 8.453797 1.1780981
1.7440817 4.4211226 2.5075042 2.9558089 1.4501323 6.3610873 3.7236173 0.45215517
1.2940211 0.38489434 3.5516596 1.2987863 7.817801 2.5824986 11.940977 2.174536
1.2317897 0.2880406 5.614745 2.985011 1.2084703 5.4432898 1.1208254 0.68971205
0.97417724 1.0396249 1.207717 2.314892 1.0161202 8.417829 4.419531 3.414709
4.340175 0.72663 0.7487525 3.2044837 4.195363 1.4066925 7.865552 0.37638652
2.2896495 0.81060714 0.92911303 0.9242097 7.099887 1.8203359 0.77766883 1.2681259
1.5974509 5.30915 1.0626938 1.363366 1.2651826 0.70164615 0.40718287 1.2512032
0.6687934 7.8500767 0.5434955 5.3083158 1.2529335 1.6782047 1.9439688 0.44468623

bn1.running_var f4 [256]
00000000: 763c 2241 abea f33f c9df 2441 1d9e 3140
00000010: 103f 8340 9a16 8e40 168a a841 53b7 1a40
00000020: 6959 2541 80fc a240 7411 2341 af95 3d40
00000030: effd 8643 bf77 7a40 2f4f 6740 8932 a740
00000040: a7ff a240 818f 0842 f6f7 a843 a15e 0641
00000050: 5576 4741 db53 4640 c1fe 2540 9298 d440
00000060: 8892 2841 6aad 933f c025 1741 7e80 ff41
00000070: f2d7 1242 7c9e ce40 6852 2b42 8640 8a41
00000080: 35dc a441 4e76 4c40 6156 d33f 7955 3842
00000090: 5692 7642 5fa7 f141 ef22 3640 439b ab41
000000a0: c0a8 9f40 3cac 6d41 3d03 8d40 5f18 0e42
000000b0: cbe7 1841 3a8b 4941 b99a f940 b828 9240
000000c0: 012f 9d40 1fbc 4341 649b 5940 4781 fd40
000000d0: 2018 c83f b3fb 3d41 2336 a640 5508 8541
000000e0: dcb4 6841 df2d 1041 98ec 0741 82de 2140
000000f0: 38c6 9f3f ee01 0240 1b87 1141 11b8 1541
00000100: a9f3 9c40 8183 e340 e59a c140 c5a5 8f41
00000110: 0ac6 d841 1976 0641 d860 ea40 f106 ce41
00000120: 42b8 c33f b54a 1341 de52 eb40 6942 1141
00000130: 2151 4440 bcf8 2541 f6de 263f 16bb 1d41
00000140: 06af 7f40 f223 4d40 0c7e 6141 b600 e440
00000150: f849 3d41 e515 743f 8455 0942 41ec bc41
00000160: 0e66 2541 27c6 fe41 9aba 1141 dcdd a140
00000170: ed2e 3841 49d4 1041 dc56 3540 b1cf 0441
00000180: 28c8 9240 152a 9d41 ccb9 3941 b2a8 2e41
00000190: be17 9540 3125 c041 90a9 9741 16b1 cf40
000001a0: a389 dc40 3ba3 4b40 dde0 4241 f33f 2c41
000001b0: d2f2 e941 9078 fe3f c909 0641 f3c0 1b40
000001c0: 29cf 0441 0c20 b640 8fce cc40 5d48 1541
000001d0: e4f7 7441 e556 bf40 7c79 b540 0e11 2a41
000001e0: c047 7d41 979b a740 7313 2840 870a 2441
000001f0: 5615 503f 8772 8f41 6f75 a341 f0a9 7c40
00000200: cd20 ff40 9058 4b40 cfb0 7c40 86d2 7840
00000210: b02f 5141 d463 2942 ce88 1f41 1ae2 9d40
00000220: 9913 1042 f542 5a42 07f6 de41 3088 2340
00000230: 7692 c540 dfb2 e141 44ed 8e41 9881 2042
00000240: eddd b640 912c be40 16da 9340 4b03 bb40
00000250: db67 a53f b0a1 d13e 6310 5f40 e3d5 d23f
00000260: c6b1 5540 d49b f43f 5b20 a13f 2b04 ae40
00000270: e35d 0541 cb52 4241 aee5 2a42 b971 7741
00000280: 74eb e840 010f 3641 95dc 3741 3705 c041
00000290: d656 843e d528 6240 a69a 7641 cbb0 bd41
000002a0: 1887 3c40 f485 2941 1c81 f841 8bba cf40
000002b0: 0cb6 f841 d1fe 0d41 0b75 e141 6f5a 1841
000002c0: 302b ca40 37ae c540 31d7 1d40 88d8 9840
000002d0: b5ad 5c43 fbb4 6d40 fb0c 5a40 b6b5 a441
000002e0: 8797 2041 d968 c640 9245 1a41 5962 dd41
000002f0: dfae d840 bc10 3c41 faca 0542 7e44 fe40
00000300: 2b4e 6d41 bb3a 0a42 a700 8341 4dfe 9141
00000310: 9d67 0141 ccae ea41 a43a 2a42 103d c73f
00000320: 8e75 0141 126c e83f 7041 9641 7726 1c41
00000330: 78b7 5f42 96c5 8e41 430a 2f43 7087 0041
00000340: 8990 b940 8ffb 2e3f c511 fd41 3a3c 9f41
00000350: c5c6 0241 8c31 b941 4ef3 be40 3149 5340
00000360: 3d86 9640 dd3f 0041 ab56 0941 00bc a241
00000370: 199b 8940 a596 d341 64c7 3942 9e06 8241
00000380: 3785 0a42 e078 5440 77a7 b340 d979 1041
00000390: 84d9 1a42 6e00 ff40 bd29 dc42 3c6b e93f
000003a0: 4b65 5f41 f456 b040 b74f a040 ebda a440
000003b0: c81b ce41 2b60 6541 7f9b 7b40 8dbe 4e40
000003c0: 7102 2541 92e9 c141 92ef c640 e9ae 2041
000003d0: f0b7 ef40 954f 5e40 d202 a03f 252d c740
000003e0: 1dac 9840 918a 0042 9b68 e73f 391e 0e42
000003f0: 8a00 f040 5823 2341 3c46 1341 225f 1340
10.139761 1.905599 10.304635 2.7752755 4.101448 4.440259 21.067425 2.4174392
10.334329 5.0933228 10.191761 2.962261 269.98386 3.9135587 3.614208 5.224919
5.0937076 34.14014 337.9372 8.398103 12.46639 3.0988681 2.593674 6.6436243
10.535774 1.1537297 9.446716 31.93774 36.710884 6.456846 42.830475 17.281506
20.607523 3.1947207 1.6510736 46.08347 61.642906 30.206724 2.8458822 21.450811
4.9893494 14.854549 4.4066453 35.5238 9.55659 12.596491 7.800137 4.5674706
4.911988 12.233428 3.4001093 7.922031 1.5632362 11.87395 5.1941085 16.629068
14.544155 9.011199 8.495262 2.5292058 1.2482367 2.0313678 9.095485 9.357438
4.9047437 7.1098027 6.050158 17.955942 27.096699 8.403832 7.3243217 25.75339
1.5290606 9.205739 7.3538656 9.078713 3.0674517 10.373226 0.6518396 9.858175
3.9950576 3.205319 14.093273 7.125087 11.830559 0.9534591 34.33351 23.615358
10.337416 31.846754 9.108057 5.0583324 11.5114565 9.051827 2.8334265 8.300706
4.586933 19.645548 11.607861 10.916185 4.659148 24.01816 18.957794 6.490367
6.8918014 3.1818378 12.179898 10.765613 29.243565 1.9880543 8.377389 2.4336517
8.300576 5.691412 6.4002147 9.330167 15.31052 5.9793572 5.6710796 10.629164
15.830017 5.237743 2.626187 10.25257 0.81282556 17.930922 20.43234 3.9478722
7.972754 3.1772804 3.9482915 3.8878493 13.074142 42.34749 9.9709 4.9338503
36.01914 54.565388 27.87013 2.5551872 6.1741285 28.21234 17.865852 40.126556
5.7145905 5.94294 4.620372 5.844152 1.2922319 0.4094367 3.4853752 1.6471523
3.3389754 1.9110055 1.2587999 5.438009 8.335422 12.145213 42.724297 15.465264
7.278742 11.378663 11.491353 24.002546 0.258475 3.5337422 15.412756 23.711325
2.9457455 10.595203 31.063042 6.4915214 31.08889 8.874711 28.18215 9.5220785
6.317772 6.1775165 2.4662592 4.776432 220.67854 3.7141712 3.4070423 20.588726
10.036994 6.200299 9.641985 27.673021 6.7713466 11.754086 33.44822 7.945861
14.831584 34.557354 16.375319 18.24917 8.087796 29.33535 42.557266 1.556551
8.0912 1.815798 18.781952 9.759391 55.92917 17.846478 175.04008 8.033066
5.7988935 0.683526 31.633677 19.904408 8.173528 23.149193 5.9672003 3.3013422
4.7038865 8.015592 8.583659 20.341797 4.300183 26.448557 46.444717 16.253231
34.630093 3.3198776 5.6141925 9.029748 38.712418 7.9688025 110.08152 1.823585
13.96223 5.5106144 5.009731 5.1517234 25.763565 14.3359785 3.9313657 3.2303803
10.313096 24.239048 6.2167444 10.042703 7.4912033 3.4736073 1.2500861 6.224261
4.77101 32.13532 1.8078798 35.529514 7.500066 10.196129 9.204647 2.3026814
