critic0_critic.pth (torch, 195379 bytes, 13 tensors)

fcs1.weight f4 [256, 48]
00000000: f67f bcbc 388c 233f bbd7 b1bd 7e6f 14bd
00000010: 2d8f c2bc 493b 88be 293c adbd 87bf 8dbc
00000020: 3d0f cabd f57f 303f c5e0 87bd 7626 a9bd
00000030: 160a 803c 3395 4cbe 08a1 86bd a0d0 b0bd
00000040: e6fc bfbd 327e 223f 98a9 b1bc 5091 c5bd
00000050: bc9f da3c 5944 08be c2c7 f3bd 9c33 d6bd
00000060: 2168 2dbe b05d 89be c12f f9bc 7c99 c4ba
00000070: 78b2 8f3b d759 47be 54d5 15bb d3f5 cfbc
00000080: 70a7 1abe 1ab8 7abe 13fc d6bc c963 c7bd
00000090: 205a 0f3d 1257 82be 43f2 29bd 283f 0a3b
000000a0: 72ae 86bd 0756 97be 1091 05bb 2c25 90be
000000b0: cd1a 5cbd 5ffe d8bd edc1 99bc 1a3b a1be
000000c0: 1b60 aabd 2642 973e 039b e93c 9bb7 19be
000000d0: 6963 153e 0df2 943e 239a 603c bc65 c6bd
000000e0: bc56 68bd 8ddc bf3e d392 523d dcb0 8e3d
000000f0: b7ea b03b bc19 893d f50b 3fbd 4481 363d
00000100: 4bce c23d b7d1 eb3e 427a a1bc 7278 af3e
00000110: 4c63 1ebe 895d 0cbe 2636 7f39 044e 933e
00000120: 602b 263e f19f 323e f26b 443b 4e9e 13bd
00000130: f562 08be bb2e 7f3e 5d96 57bc cb72 21bd
00000140: 9137 ac3e 3b9f 623e 86ea 34bd e84f 593d
00000150: 6799 06bd 0aa9 023d d49b 0f3c 3224 613d
00000160: b126 983e 6ba7 c43e 0f02 10bd 7707 b33e
00000170: be76 263e 8fe0 40be 1b78 883d 2d5c 8f3e
00000180: b804 d93d cb51 cb3e e252 883c c0fe a83d
00000190: 695a 093e e331 133e 4d61 f13c b4c4 3f3d
000001a0: 2c61 213e 8e68 c93e 6b7d a73d a5c4 a1bd
000001b0: 3aa5 833d e0ee 3f3e f954 7f3d a7b2 bcbd
000001c0: 8730 033e 6135 c23e 349b ee3c ea80 cfbe
000001d0: b261 c5bc af0e 833e 4a4d 803d 7cbb d8be
000001e0: 0a73 fb3c 3e0c ec3c e920 513d 1ee8 c3bd
000001f0: 61d2 02be d2c4 f53d 3525 36bd c8db 2ebe
00000200: 5c1c 85bd 3654 01bd 421a 32bc 310e 3f3b
00000210: b7ea 29bd 227b 8d3e e086 80bd 0311 cd3c
00000220: e2b5 063d d9d6 2e3e 83da a8bd 3f57 753e
00000230: 7cdb 2a3d fb14 2c3e e0ad 40bd 1d4a 133e
00000240: 8fad 153e 3d3c f0be c248 f5b8 25c1 17bd
00000250: ddf2 743e a436 f53d f06f 1839 3222 033c
00000260: a182 523e 090e bebe ff3d 713b c85c f33d
00000270: 755b 2f3e d3f1 0c3e 8c67 b33d 15c4 013e
00000280: 5ea3 103d 5623 dbbe 8717 8cbb 06e0 a73d
00000290: bd85 1c3d 5fb5 873e 22a8 82bc ea3a cc3d
000002a0: c715 de3b 2232 28be 7d48 eabd 1208 0d3d
000002b0: 0108 79be 4a94 343e cc94 4bbd 3f91 86bc
000002c0: bffc ff3d 2db3 75bd 4f49 af3d a779 65bd
000002d0: 233a f1bd 697d 023e 09c7 be3d e0c0 8bbd
000002e0: e086 273e 2432 94bd 8049 94bd 4962 163e
000002f0: 385a 31bc b1da 8c3e 5239 7cbc ce26 eb3d
00000300: 026b 863d 6f3b 8fbe 7173 0b3d 918a 67be
00000310: 8f4d e3bc 683b 803d f63f a83c 1f72 6abe
00000320: c4e7 193e cee2 c6bd 6c1a 8dbd 8a2e 543d
00000330: 3e49 3dbd 4d4b edbd daeb 86bd 37b6 6f3c
00000340: 0019 873d 878f 06be 3c56 363e 89de 0dbe
00000350: fcac 21be d665 36be 5fe3 af3d 2f25 4bbe
00000360: 147f a3bd 102e 833e 5054 48bd 5add 46be
00000370: 0e16 7c3d 8bda 3e3d 4c61 fabb 7dad 01be
00000380: 2796 a7bc 4711 b83e ebd8 003b a40a a0be
00000390: 3d6a 843d 9ce0 21be 277e ec3d bcfc b1be
000003a0: 644e abbd a195 843e 7c73 cfbd f459 afbc
000003b0: c51f 013e 1d03 b0bd 2645 0dbe e6bc 9ebc
000003c0: ceb8 b5bc 4def 44bd a54a 913c 3d33 1b3e
000003d0: 8a38 f83d 6650 483d 2d3d 3d3d 843c c43d
000003e0: 7572 d0bd 9b94 29bd 8f82 163d 57d6 953c
000003f0: 71e3 7a3d eeb4 883c a74a 093d 33d4 d9bc
-0.023010235 0.6388583 -0.086837254 -0.03623914 -0.023749912 -0.2660773 -0.0845874 -0.017303241
-0.09866188 0.68945247 -0.06634668 -0.08259289 0.01562981 -0.1997879 -0.06573683 -0.08633542
-0.093744084 0.6347381 -0.021687314 -0.09646857 0.026687495 -0.13307323 -0.11903335 -0.104590625
-0.16934253 -0.2682929 -0.030418279 -0.0014999355 0.004385289 -0.19467865 -0.002286275 -0.025385773
-0.15102935 -0.24484292 -0.026243245 -0.097358294 0.03499806 -0.25457054 -0.041490804 0.0021094773
-0.065762416 -0.2955782 -0.0020380653 -0.2815336 -0.053736497 -0.105953924 -0.018769229 -0.31490403
-0.08319112 0.29542655 0.028516298 -0.15011446 0.14588703 0.2909092 0.013708624 -0.09687373
-0.05672334 0.37472954 0.051409554 0.06967327 0.005399074 0.066943616 -0.046642262 0.04455687
0.095120035 0.46058437 -0.019711617 0.3427158 -0.15467566 -0.13707556 0.00024338867 0.2877046
0.16227484 0.17443825 0.0029971567 -0.036039643 -0.13318999 0.2492017 -0.013158408 -0.039416116
0.33636144 0.22131054 -0.04416897 0.05305472 -0.03286114 0.03189949 0.00876518 0.05496616
0.2971702 0.3840898 -0.035158213 0.34966633 0.16256234 -0.18835662 0.06663533 0.28000012
0.10596603 0.3971084 0.016641084 0.08251715 0.13413395 0.14374499 0.029465342 0.04681845
0.15759724 0.3933758 0.081782185 -0.07898835 0.06427999 0.18743467 0.062336896 -0.09213763
0.1281148 0.3793135 0.029126741 -0.4052804 -0.024094436 0.2559714 0.06264742 -0.4233054
0.030694503 0.028814431 0.051056776 -0.09565757 -0.12775566 0.12000431 -0.044469077 -0.17076027
-0.0649955 -0.03157445 -0.010870518 0.0029152746 -0.041483607 0.27633005 -0.06275725 0.025032526
0.0328883 0.17074145 -0.08244803 0.23959063 0.041713223 0.16804878 -0.04704082 0.1438374
0.14616989 -0.46920958 -0.000116960626 -0.03704943 0.2392077 0.119733125 0.0001453755 0.008003758
0.20557643 -0.37120083 0.0036810634 0.11882931 0.17124732 0.13764124 0.087599844 0.12672456
0.03531205 -0.42800397 -0.0042752656 0.08197026 0.03821348 0.26505563 -0.015949313 0.099721745
0.0067774984 -0.16425374 -0.11439607 0.034431525 -0.2431946 0.17634693 -0.04970245 -0.01642668
0.12499379 -0.05998533 0.085589044 -0.05602422 -0.11778667 0.12743153 0.09315307 -0.06823897
0.16360044 -0.07236126 -0.072405815 0.1468593 -0.0108247325 0.27510598 -0.015394526 0.11482011
0.06563379 -0.27975032 0.03404564 -0.22611453 -0.027746944 0.06261331 0.020538311 -0.22895096
0.15029818 -0.09711228 -0.06889805 0.051802196 -0.046212427 -0.11586628 -0.06587954 0.014630846
0.06596565 -0.13140689 0.17806333 -0.13854422 -0.15788645 -0.17812285 0.085882895 -0.19838403
-0.079832226 0.2562108 -0.04890853 -0.19420376 0.06154447 0.046595138 -0.007640993 -0.12663837
-0.02045734 0.35950682 0.0019660543 -0.31258118 0.06465576 -0.15808338 0.11547499 -0.34763134
-0.08364561 0.25895408 -0.10129449 -0.021405198 0.12609775 -0.08594344 -0.1379591 -0.019377183
-0.022182848 -0.048079778 0.017735789 0.15156265 0.12120159 0.0489048 0.04620092 0.09581855
-0.10178081 -0.041401487 0.036745604 0.018290682 0.06125206 0.016687836 0.03351846 -0.026590442

fcs1.bias f4 [256]
00000000: e498 fbbc 2680 bbbd 7497 20be 8367 2dbe
00000010: 645a 1e3d 24bf 143e 4730 163d 360c 9ebd
00000020: f6b0 6a3e 03b4 f8bc 36b5 043e 4144 80be
00000030: fc38 1d3d 4282 973e 39c8 1bbe 6d72 12bf
00000040: f19e 22be c8e0 02be 73a2 88be 2961 99bd
00000050: 245a 8f3c 332d a6be 697f 073d 00cd 3bbc
00000060: 1dc7 00be a8b5 ddbe 6395 5cbd 87b8 67be
00000070: c3d2 a4be b766 bebe 3472 1bbe 144f 283d
00000080: c580 2ebd 7702 1abe eb09 30be df89 863c
00000090: 04f0 c6be 71ad fabd 682f 8bbd 3067 a0bc
000000a0: d74c d23d 41d1 c7bb 87b8 5fbe 48a9 b6be
000000b0: 3567 a7bd 3d2f 46bd e907 d7bd 42aa 0abf
000000c0: 63b1 21be 7c20 37be f757 7fbb fbe1 873d
000000d0: bef5 46be ec34 f9ba 75d7 52be 6802 02be
000000e0: ad57 02bf 5513 97bd 4988 833c a64b 86be
000000f0: f605 003c ac3a 43bf 3371 c0be 5cd2 1abe
00000100: 63a8 aabe eced dcbe 6d19 78bb 854f ccbe
00000110: 0575 45be 7550 903d 7bfd 203e 8b99 233d
00000120: 1079 61be a0e1 79bd 155e 1cbe 6a1a 2cbe
00000130: dd11 57bd 925a b2be 34ce 9d3e 0861 a0bd
00000140: bc0e 313d 147a d93d db48 03be 5955 60bd
00000150: 4729 e23c f94a 5abe 5571 1abe 74a2 e43c
00000160: 875f 38be 0064 37be bc07 873e 380e c83d
00000170: 898a 4cbe 9f4f 8f3b f9c9 08be 1019 42be
00000180: 645f 51bb 6724 363d 56b8 2bbe f670 3ebe
00000190: 326c 8f3d 7bad 113b 6eeb b3bd a976 92be
000001a0: c9e3 9dbc 2065 193e 34a9 8abd 842e 90be
000001b0: 6988 12be 7955 4ebe 8f5b dc3d 0a82 853e
000001c0: e386 e4be f5c1 d0bd 8f82 12bd c367 46bd
000001d0: 0506 e2bd 5780 4abd 22ca 3b3d 931e 5abd
000001e0: 980a 14bf d164 d3bd 64dd 52bd c57e b6bd
000001f0: a99e 8abe 3474 0ebe 0248 de3c 1d49 a2be
00000200: f551 7ebe 0782 40be bdff debe 12eb 88bf
00000210: 37f5 90be d685 cabd 4e20 34be fd89 b4bd
00000220: 5d89 3a3b 80ae adbe 256d db3d 9f18 c1be
00000230: fb29 b0bd e79d 8ebe eedb 173d b788 7ebe
00000240: 0cc8 643e 3f2f 30be 436b 1b3c 74b1 53be
00000250: 5d9f 7bbe a51e 043e 55c7 37be acb8 fb3d
00000260: a6ea cfbd 43f1 a3be 369e 873d 2dfe 92be
00000270: 1c39 0c3e 8435 32bf b1a2 8fbe ca02 fd3d
00000280: 2674 913b 71be c5bd 591a b83c 797f 84be
00000290: a966 08bf c2e1 edbe 3846 bcbe 8592 0d3d
000002a0: fe65 313e ef4a 3fbe 4c32 51be 1c46 f0be
000002b0: 9ac7 50be bb5c 5ebe 3683 f6be 5fe2 eabd
000002c0: 2481 f53d 2410 bd3d 5df8 873d 92e6 4c3d
000002d0: 3450 9dbd bc1f b13c f07f 233e 4e38 94be
000002e0: 94aa ed3d 5ca4 f8bc bf5c 3e3e f2b8 11be
000002f0: 8915 c3bd 5d3f 22be 521c 57be 178b 02be
00000300: 15e1 a53d 729a 2bbe c43e 37be d99f a1be
00000310: 6612 42be 82cc a8be 557e 8cbe 138f c1bd
00000320: 4e82 9f3d 40e9 be3d bae4 17be 4d74 08be
00000330: 9546 b73c 5165 1fbe 7982 bebd 8fd0 a93e
00000340: 6576 a6be 8712 2dbe d2d3 5a3d 7000 6dbe
00000350: 798b d6bd 38b6 1fbe bf86 a2be 8325 903d
00000360: 5379 4cbe 5f9c 04bd ff10 d8bd b7e5 6bbe
00000370: a266 93be 2549 8abc 619c cdbd f6e1 92be
00000380: 183c 15be 2691 fa3d 4414 2dbf d31a 3abf
00000390: 317c 543d e19d 49be 430e 09be fc3c 9a3c
000003a0: a7a0 4abc 1f6d 373e 71a6 f03d ed35 23bf
000003b0: 1a31 1fbe 2e89 d5be ca8f 71be ffb5 983d
000003c0: d926 ddbe 76d0 6dbe 91e9 e3be 31c7 e03c
000003d0: 4beb 4b3a c526 cf3e 813c 153d 481b 8abe
000003e0: 8699 b3be 97da 98bd b2bc 933d 72ab d4bd
000003f0: 200c 883e 325d c5be dbe4 3bbe 2ec9 0c3d
-0.030712552 -0.09155302 -0.15682775 -0.16934018 0.038660422 0.1452604 0.036667135 -0.07717173
0.22919068 -0.030359274 0.12959751 -0.25052074 0.038384423 0.29591566 -0.15213098 -0.5720585
-0.15880944 -0.1278106 -0.2668644 -0.07489235 0.017499037 -0.3245636 0.033080492 -0.01146245
-0.12575956 -0.43302655 -0.053853404 -0.22628985 -0.32192048 -0.3718774 -0.15180284 0.04109104
-0.042603273 -0.15040003 -0.17191283 0.016423164 -0.38854992 -0.122401126 -0.067961514 -0.019580454
0.10268562 -0.006097943 -0.21847735 -0.35676026 -0.08173982 -0.048384894 -0.104995556 -0.5416604
-0.15790324 -0.17883486 -0.0038962343 0.06634899 -0.1942968 -0.0019012964 -0.20590003 -0.1269623
-0.5091503 -0.07376734 0.016056197 -0.2622959 0.007813921 -0.762614 -0.37586364 -0.15119308
-0.33331594 -0.4315027 -0.0037856952 -0.3990442 -0.1928292 0.07046596 0.15721695 0.03994135
-0.22018838 -0.06100619 -0.15270264 -0.16806951 -0.05250727 -0.34834725 0.30821383 -0.07831007
0.043226942 0.10618988 -0.12820761 -0.054768894 0.027607573 -0.21317662 -0.15082295 0.027909495
-0.18005191 -0.1790924 0.26373088 0.09768337 -0.19974722 0.0043735052 -0.13358296 -0.18954873
-0.0031947726 0.04446831 -0.16769537 -0.18597779 0.070030585 0.0022228647 -0.08785139 -0.28606156
-0.019273655 0.14979982 -0.06770554 -0.2816049 -0.14309849 -0.20149793 0.10759651 0.26075774
-0.4463416 -0.10193244 -0.03576904 -0.0484388 -0.110363044 -0.0494388 0.045847066 -0.053251814
-0.57828665 -0.103219636 -0.051480666 -0.08910898 -0.27074173 -0.13911515 0.027133945 -0.31696406
-0.24835952 -0.18799601 -0.43554488 -1.0696738 -0.28312084 -0.098888084 -0.17590448 -0.08815382
0.0028463223 -0.33922195 0.10714177 -0.37714097 -0.08601757 -0.27854845 0.037074976 -0.2485684
0.22341937 -0.17205523 0.009486022 -0.20673162 -0.24572511 0.12902315 -0.17947133 0.12291083
-0.101521775 -0.32020006 0.06621973 -0.28709546 0.1369366 -0.6961291 -0.2805381 0.123540476
0.004438895 -0.096554644 0.022473501 -0.25878504 -0.53281647 -0.46461302 -0.36772323 0.03456356
0.17324063 -0.18680929 -0.20429343 -0.4692849 -0.20388642 -0.21715061 -0.4814698 -0.11468958
0.11987522 0.09231594 0.066391684 0.050024576 -0.07681313 0.021621577 0.15966773 -0.28949207
0.11604801 -0.03035181 0.18590067 -0.14230707 -0.09525592 -0.15844484 -0.21006897 -0.12748371
0.080995716 -0.16758135 -0.17895037 -0.31567267 -0.18952331 -0.32968527 -0.27440134 -0.09451117
0.077885255 0.09321833 -0.14833346 -0.13325615 0.022372523 -0.15565993 -0.093022294 0.3316693
-0.32512203 -0.16901599 0.053424664 -0.23144698 -0.10475821 -0.15596855 -0.31743428 0.07038405
-0.19968157 -0.03237569 -0.10550117 -0.23036848 -0.2878924 -0.016880581 -0.100395925 -0.2868802
-0.14573705 0.12234716 -0.6760905 -0.7269718 0.05187625 -0.19689132 -0.13384347 0.018827908
-0.012367404 0.1791272 0.11750496 -0.6375416 -0.15546075 -0.41706222 -0.23590007 0.07456588
-0.431937 -0.23224053 -0.44514135 0.027438732 0.0007778897 0.40459266 0.036434654 -0.2697394
-0.35078067 -0.07463568 0.07213725 -0.10384263 0.2657175 -0.38547665 -0.1834902 0.034371547

fc2.weight f4 [128, 260]
00000000: 5c62 82be 673a 9a3d c001 16bd ab0b 00be
00000010: d3db b7bc 486f 8ebb 7f40 0cbc 6afa 453e
00000020: 24ad bebd 4768 013d 2d6e e0bc af53 063d
00000030: 487f 7d3d 2994 7abd 3d9b 54bd 93da 62be
00000040: 7fb7 b0bd 55f2 b63d b5fe 4cbe aea9 913c
00000050: 53da 423e 40c8 3e3d 89e9 683e f003 a03d
00000060: ad5f 02be 3328 883d 5995 0c3e 2009 33bc
00000070: 4b85 ec3d 9e2a 033d 21e3 27be 176b bf3d
00000080: b4bf 00be d700 d7bc ad09 1fbe fff2 7dbd
00000090: ded3 7e3d f985 2cbd ca01 1dbd 86c4 8ebd
000000a0: 802c 31bd e4f8 973d eac8 19be 8284 4fbe
000000b0: 46cd 3e3e dffc bb3c 5a3a 38bd 141d eebd
000000c0: ef1f b73d 3a9b d9bd bf99 debb 150f 47bd
000000d0: 7a79 7e3c dfa0 463d 2205 65be 15c5 26be
000000e0: c1f0 d9bd 469d d23d 572d e8bd 52c6 53bd
000000f0: 6f5f 20be aa00 18be 8d1e c1bc dfa9 febd
00000100: 1765 073e 4fce 263d c58d 22bd cf4a 4e3d
00000110: 67b2 423d a66b d13d f333 b8bd e9e4 1fbe
00000120: 2885 09be 3772 353d d800 94be 2777 273e
00000130: 5036 f3bd 5923 d73d 9f04 8bbc 80d1 fa3d
00000140: 903f bf3d 18f0 053e 20d8 a03d 0c47 1abd
00000150: 14ef 35bd 61c6 16be bf87 893b 942d 8c3c
00000160: b32b 64be 6de1 2dbe 200b e6bd e6f3 913d
00000170: d6ad 823d 8757 fe3d 1739 bcbd 956b 1f3e
00000180: 0345 c93d 28d8 003c 4bd2 6d3e c082 553d
00000190: 70db 653a d77f 34bd 6265 713e 9a41 df3d
000001a0: fbf5 44bd a0ce 103e bdc1 e83c 56bf a9bc
000001b0: 09ba 343d 608d 86bd de0d 103d 4d6b c3ba
000001c0: 7f66 34bd 8091 3c3d c384 c63d ab18 77bc
000001d0: 1a98 6fbe 76f1 4abd 0e88 7c3d 5ae9 133e
000001e0: a66c 843d b65e 2dbe 7e5b ff3c c987 07bc
000001f0: f7b2 383d 64ac 553e 9bc1 5c3d 2f04 0d3e
00000200: eed9 36be 64d0 e03c 38e2 5abd 22b3 81bd
00000210: 643a 98bd 358e e6bc 8ae6 debd 51ce dfbd
00000220: eb2b dfbd 6922 93bd bc99 de3a 3674 9a3c
00000230: e87b 31bd 8fa0 9f3b 151f 483d 4f51 1a3c
00000240: fdb1 73bd 52f3 91bd 469e a0bc dd4b d2bb
00000250: 0eb0 403d 7704 403d a408 1bbe 9ec3 8ebd
00000260: ca04 dfbd ee8b a6bd e0d0 02be 3c0d cf3d
00000270: 9594 bf3d 535b 2dbd e6bb e6bd 56a2 0fbe
00000280: 71e1 06be f463 0f3d bfda 7fbc e618 473d
00000290: 064b 8bbe 20b6 873d 7331 b83c 31de 32be
000002a0: 11aa 803b 250b e9bc ffb3 ec3d 99c7 9bbd
000002b0: 5977 19bd c4a0 fdbc 74c1 4d3d 8d55 c13c
000002c0: d6f4 84be 576a 0b3d ba94 e43a 89ab 03be
000002d0: 81c5 83be 32f2 04bd 4132 9a3d 3b8c 3dbd
000002e0: 5e96 193b ecd5 20bd 0fd5 323d 1335 1ebd
000002f0: 0802 0c3d 5210 023e 5fca febc 7e18 b83d
00000300: 86d0 253e b9b5 9a3d 1601 33be e19f 623d
00000310: 9847 f3bd a4c7 d63d c249 81be dd0c 8bbd
00000320: 5826 a9bc 0439 d53c ac81 a5bd 4862 17be
00000330: 5a3b 48bd 47fd d8bc 9328 b73d 624f 723c
00000340: c58a b93d 0098 713d c72f b83d 80e3 eebc
00000350: 6e5a 6a3d fcf9 d33d 5478 a2bd 83d5 eebd
00000360: 9ee1 97bd 5d17 0c3d 36d3 a9be bea6 3c3e
00000370: 5d29 3c3d 5f99 5dbd d58c cb3b 6665 b2bc
00000380: eb94 3e3d 44f7 a83c 1c71 75bd 1af5 1ebe
00000390: 2046 3f3e de43 2d3d 046d 543e 07ec 11bc
000003a0: 7e4b 053e 7194 f2bd 07e8 5bbe b55c a13d
000003b0: 96d6 27bd 6a3b afbe 9df1 10bd cfd0 6f3e
000003c0: 03a6 a0bd f908 543d bc88 df3d 8b11 8ebc
000003d0: 9560 37bd b3e6 96bb 901c 20be 8a8f d3be
000003e0: 3911 65bd 12ab f5bd 5127 033e 8763 0a3e
000003f0: b3df 093e 1080 413d 9000 21be 508b 123c
-0.25465667 0.075306706 -0.036622763 -0.12504451 -0.022443688 -0.004346762 -0.008560299 0.19333807
-0.09310368 0.031593587 -0.027396286 0.03279465 0.061888963 -0.061176453 -0.05190586 -0.22153692
-0.08628749 0.0893294 -0.20019038 0.017781105 0.19028597 0.046577692 0.22745337 0.07813251
-0.1273181 0.066482924 0.13728847 -0.010927469 0.11548861 0.032023065 -0.16395237 0.09346598
-0.12573129 -0.026245518 -0.15531035 -0.061999317 0.06221377 -0.042119954 -0.038331784 -0.069710776
-0.04325533 0.07420519 -0.15018049 -0.20265391 0.18632993 0.022947727 -0.044977523 -0.1162664
0.08941638 -0.1062531 -0.0067932303 -0.048598368 0.015531892 0.048493262 -0.2236524 -0.16286118
-0.10641623 0.10283904 -0.11336773 -0.051702805 -0.15661405 -0.14844003 -0.023574138 -0.12434744
0.13222156 0.040724095 -0.039685983 0.05036431 0.04753342 0.102256104 -0.089942835 -0.15614666
-0.13429701 0.044298377 -0.28906894 0.16354047 -0.11875594 0.10504789 -0.016969977 0.1224699
0.093382955 0.1307987 0.078537226 -0.03766541 -0.044417456 -0.14724113 0.0041970904 0.017111577
-0.22282295 -0.16980524 -0.11232591 0.07126598 0.06380813 0.12419038 -0.091905765 0.15568383
0.09827616 0.007864036 0.23224752 0.052126646 0.00087683555 -0.04406723 0.2357383 0.109011844
-0.048086148 0.14141321 0.028412694 -0.020721119 0.04412273 -0.06569934 0.035169475 -0.0014909297
-0.04404306 0.046037197 0.09693291 -0.015081565 -0.23397866 -0.04954668 0.06165319 0.14444485
0.064660355 -0.1693066 0.031171557 -0.00827212 0.04509255 0.20866543 0.053895574 0.13771127
-0.17856571 0.027443118 -0.053438395 -0.06332995 -0.07433012 -0.028143981 -0.108838156 -0.109280236
-0.108970486 -0.071842976 0.0016983072 0.018854242 -0.043331057 0.004871435 0.048857767 0.0094188
-0.059495915 -0.07126488 -0.01960672 -0.006417735 0.0470429 0.046879258 -0.15140015 -0.06970905
-0.10889585 -0.08132158 -0.12774992 0.10109946 0.09354512 -0.04232342 -0.112663075 -0.1402677
-0.13171937 0.035007432 -0.015616118 0.04860773 -0.27205676 0.066265345 0.022484517 -0.17467572
0.0039265235 -0.028447697 0.11557769 -0.076064296 -0.037467334 -0.030960448 0.05023332 0.023600364
-0.25968045 0.03403696 0.0017439344 -0.12858404 -0.2573662 -0.032457538 0.075291164 -0.046276312
0.0023435573 -0.03926651 0.04366022 -0.038624834 0.034181625 0.12701538 -0.031102357 0.089890465
0.16192827 0.07554192 -0.17480883 0.055328254 -0.1187889 0.10487297 -0.25251585 -0.06789563
-0.020648167 0.026028164 -0.080813736 -0.14783585 -0.048884727 -0.02648796 0.08943286 0.014789434
0.09059671 0.05898285 0.08993488 -0.029161215 0.057215147 0.10350415 -0.07933107 -0.11661818
-0.0741608 0.03420197 -0.33168954 0.18422982 0.045937885 -0.054101344 0.006211857 -0.021776866
0.046528738 0.020625718 -0.059922323 -0.15523186 0.18679094 0.04230105 0.20744711 -0.008906371
0.13017079 -0.11844719 -0.2147523 0.078790106 -0.04097613 -0.34225017 -0.03538667 0.23419498
-0.07844164 0.05176637 0.10914752 -0.01734235 -0.044769842 -0.004605138 -0.15635896 -0.4132045
-0.055924628 -0.1199552 0.12807967 0.13514529 0.1346424 0.04724127 -0.15722871 0.0089443475

fc2.bias f4 [128]
00000000: 0acd d4bd 8677 8bbb af04 fcbd b7db 70bd
00000010: c101 5dbe 0c9d 2cbe 0698 4fbd 20d2 23be
00000020: 11d1 28be fcf0 f3bd 00bb 5ebe 52c8 183c
00000030: 1905 3dbe 4308 51bd ff40 90be c97c 5dbe
00000040: 812c e3bd 6f91 87be 3a51 8dbd 4b66 75bd
00000050: 4c16 5ebe a538 6fbe 41c1 5bbd 8cf7 6cbd
00000060: b2e4 40bd a35e 2bbe 0038 4cbe d7a1 3ebe
00000070: a1dc 1dbe 5a66 80be e829 4abe 64c9 60bd
00000080: c469 a2be 7883 17be dfca 1bbe 9ffb 24be
00000090: ee88 bfbd feeb 03be bda7 36be b875 aebd
000000a0: 28c1 98bd e5d0 01be 9549 f5bd c7b3 6dbe
000000b0: d457 ecbd 7b2b d3bd f1ad e4bd 298a 2ebe
000000c0: d5b5 efbd 6e48 34be 79bb f3bd f0cd 1fbe
000000d0: 6f00 f9bd 24c1 84be ff01 7f3d 8265 06be
000000e0: c78b 88bd 1cb5 6ebe 4f75 d5bd ab60 0bbe
000000f0: 8cb8 d7bd 8b70 edbd 27df eabd 7fdb 60bd
00000100: 311b 6fbe d1fc cebd 064b 15be 514c e8bd
00000110: d9bc 22be e638 09be dc2a 5fbe b11c 67be
00000120: 5f44 bdbd 60db b9bd 5d97 19be 1ea9 77be
00000130: dbf9 42be e892 f2bd a25b 873c 9672 d0bc
00000140: 4d15 fabd b420 7dbd 8824 2bbe 54e5 d6bd
00000150: 6e14 09be 4327 84bd c0f1 b0bd 9691 55bc
00000160: 6f39 0dbe 1efb e9bd c3e9 5fbd ab28 a2bd
00000170: ab08 c9bd 4896 13be 39a9 1ebe 59f1 83bc
00000180: 94e1 debd f8d1 01be 9b84 f2bc 6b42 2cbe
00000190: cf4f e2bd 6132 55bd 1fa2 15be c0d0 58be
000001a0: bd77 8bbd f8b9 9cbd 896c 78be c49d 86bd
000001b0: 5e6b edbd 84da 9fbd 46a4 e0bd 3f50 14be
000001c0: f653 3bbe 7203 36bc abfc 64bd 7488 46be
000001d0: b20b 4dbe 326d 22be e6f1 14be a91f d3bd
000001e0: 49a3 64be e0e2 e6bd 2b7b 2ebe 7206 14be
000001f0: 09fc 9bbc 6f3c 06be f140 4fbe 7aea 12be
-0.103906706 -0.0042561917 -0.12305581 -0.058803286 -0.215827 -0.16856784 -0.05068209 -0.15998125
-0.16486003 -0.119111985 -0.21751022 0.009325104 -0.18458976 -0.05103327 -0.28174588 -0.21629633
-0.11092473 -0.26478145 -0.06900258 -0.059912007 -0.21688193 -0.23361452 -0.0536511 -0.057853267
-0.0470931 -0.1673532 -0.19943237 -0.18616425 -0.15416194 -0.25078088 -0.19742548 -0.05487956
-0.31721318 -0.14796245 -0.15214108 -0.16111611 -0.09352289 -0.12882993 -0.17837425 -0.08518547
-0.07458717 -0.12677343 -0.11976925 -0.23213111 -0.115401894 -0.103110276 -0.11165989 -0.17044891
-0.117046036 -0.17605755 -0.11900992 -0.15605903 -0.12158286 -0.25928605 0.062257763 -0.1312466
-0.066672854 -0.23311275 -0.104227655 -0.13611095 -0.105332464 -0.115937315 -0.11468344 -0.054896828
-0.23350216 -0.10106815 -0.145794 -0.11342681 -0.15892352 -0.13400611 -0.21793693 -0.22569539
-0.092415564 -0.090750456 -0.14999147 -0.24185607 -0.19040625 -0.118444264 0.016523186 -0.025445264
-0.12211094 -0.061798766 -0.16713154 -0.104929596 -0.133867 -0.06452801 -0.0863986 -0.013035199
-0.1379144 -0.1142485 -0.054666292 -0.07917913 -0.098161064 -0.14412796 -0.15494241 -0.016106294
-0.10882869 -0.12677753 -0.029604247 -0.16822211 -0.110503785 -0.05205 -0.14612626 -0.21173382
-0.06809948 -0.07652658 -0.24260153 -0.0657306 -0.11592744 -0.078053504 -0.10968833 -0.14483736
-0.18293747 -0.01110922 -0.055905025 -0.1938799 -0.20023993 -0.15861967 -0.14545402 -0.10308773
-0.22327913 -0.11273742 -0.17039172 -0.14455584 -0.019041078 -0.13108991 -0.20239617 -0.14347258

fc3.weight f4 [1, 128]
00000000: d5ee ac3c 830f a83c aa86 b03c 6b12 043d
00000010: 35c1 87bd 0e56 f9bc 6b49 10bd 2a9a 74bd
00000020: 312d dcbc b67f edbc 3213 9b3d 4317 8f3c
00000030: b7de 543d 3a08 acbc 55a5 063d 052c 493d
00000040: 8c56 b8bc 3e2a 94bd 9933 a03c fead 9cbc
00000050: c03b 203d a53e b2bc cd10 f9bc b5c2 143d
00000060: 2dfe c4bc dc8d cabc 7f4a 60bd 3004 51bd
00000070: 3d86 0bbd 7070 52bd 378f 5fbd 4c76 39bd
00000080: b3d8 98bc abde bfbc 48a7 50bd b308 57bd
00000090: 2811 463d 3ef3 05bd f18a bcbc 7150 1e3d
000000a0: cd88 683d 8af6 ce3c 2073 a23c abb8 11bd
000000b0: 749a 2a3d ef98 053d 75e7 ee3c 088f 6bbd
000000c0: 7855 15bd da17 0abd ce12 08bd c79a eb3c
000000d0: 4f5d 063d 36f4 dabc 05db b53c e145 1c3d
000000e0: fc09 81bc 2a0e 01bd 6072 15bd 64b6 16bd
000000f0: 35d7 c23c a169 ae3c 37dd d53c 7d4e d53c
00000100: 5ede 013d 0da6 953c cac0 07bd 2d88 023d
00000110: f266 88bc 2cde e9bc e79d 513c 1b0c 2a3d
00000120: 447b ddbc 71f8 37bc 75bb a9bc d089 2bbd
00000130: b751 be3d 2bb9 a13c 5c67 963c a5e8 e03c
00000140: e7a0 92bc cc34 f33c 2064 e3bc 85b3 e0bc
00000150: 95f6 4e3d c407 02bd b24f bc3c f7d3 8a3c
00000160: 9424 99bc a7cf 4a3d e966 cd3c 47a3 bfbc
00000170: c286 c13c 581e 1ebd 09e5 993c 0b54 9e3c
00000180: 28ba aa3c 550e 353d 091f 793c a9f0 60bc
00000190: 6fdb 6a3c a397 a43c 9c46 7fbc a9ec f5bc
000001a0: 3062 2f3d efc8 00bd 8c38 01bd 2e67 8d3c
000001b0: aafb 883c cb36 db3c 1bbc be3c 1544 8e3d
000001c0: caf7 413d 6396 7b3c bb3a d4bc 6419 783c
000001d0: 183e 00bd 50c3 02bd 2cd8 15bd 73c5 b1bc
000001e0: f3b5 cbbc 5fa9 003d 452e 40bd f8a7 06bd
000001f0: 2972 9f3c 578d 24bd dbb5 0a3d 1b57 7f3c
0.021109978 0.020515209 0.021548588 0.032244127 -0.06628648 -0.030436542 -0.035226267 -0.059717335
-0.026877018 -0.028991561 0.075720206 0.017467147 0.05197021 -0.021000016 0.032872517 0.049114246
-0.022502206 -0.072346196 0.019555854 -0.019125935 0.039119482 -0.021758387 -0.030403519 0.0363185
-0.024046982 -0.024725847 -0.054758545 -0.051029384 -0.034063566 -0.05137676 -0.05457994 -0.045278832
-0.018658018 -0.023421606 -0.05094078 -0.05249853 0.048356205 -0.032702677 -0.023015471 0.038650934
0.05677109 0.025264043 0.019830287 -0.035576504 0.041651204 0.032616552 0.029163102 -0.057509452
-0.036458462 -0.033714153 -0.03322106 0.028760327 0.03280383 -0.026727777 0.022199163 0.03815258
-0.015751831 -0.03150765 -0.03648603 -0.036795035 0.02378426 0.021290602 0.02610646 0.026038403
0.031706207 0.018267656 -0.033142842 0.03186815 -0.01665065 -0.028548323 0.0127939945 0.04151545
-0.027036317 -0.011228667 -0.02071927 -0.041879475 0.092929296 0.019741615 0.018359832 0.027454684
-0.01789899 0.029688261 -0.027757704 -0.027429352 0.050528128 -0.031745687 0.02298722 0.016946776
-0.0186942 0.04951444 0.025073485 -0.023393286 0.023623828 -0.038603157 0.01878597 0.019327184
0.02084072 0.04420312 0.015205153 -0.013729253 0.014334544 0.020091837 -0.015580799 -0.030020075
0.04281825 -0.031441625 -0.031548068 0.017261114 0.016721565 0.026759526 0.023283055 0.06946579
0.04735545 0.015355679 -0.025906911 0.015142772 -0.031309217 -0.031924546 -0.03658311 -0.021700596
-0.024867034 0.031411525 -0.046919126 -0.03287503 0.019463615 -0.040173855 0.033864837 0.015584732

bn1.weight f4 [256]
00000000: 4f05 243f 01c2 3d3f 8386 353f cc57 3b3f
00000010: a972 273f 9ccc 4b3f d1c5 2f3f a339 293f
00000020: d24f 173f 2ba8 153f f07d 193f 21c9 173f
00000030: 3d68 653f f17f 5a3f 8511 753f 1526 673f
00000040: 3df1 fb3e 4450 003f 3748 413f a041 4c3f
00000050: c656 133f c4b8 fb3e c7fd 013f 0bba 0b3f
00000060: ab03 403f f919 883f 4655 0c3f 5c0f 293f
00000070: 2d31 413f 7bb8 323f ba8f 4f3f 9119 213f
00000080: 54a5 313f cff6 303f 245e 8c3f d080 143f
00000090: bef0 043f 6e59 ef3e 0576 193f 8ff5 e63e
000000a0: 5b2b 333f 97ca 2d3f 2e8b 113f 27d5 203f
000000b0: d5cd f73e 6d36 f13e 7be8 173f 79e9 223f
000000c0: c240 163f 1e41 223f 4bf3 1c3f ddc4 1a3f
000000d0: b0e9 303f cb18 183f 9e51 493f e7a3 143f
000000e0: 60a1 513f c06e 403f fe20 303f 1419 033f
000000f0: 8ef0 b43f 9317 473f 58d0 e93e cb96 453f
00000100: 73c1 343f 4669 3a3f 3ac1 133f ad9f 123f
00000110: eb80 443f 8f49 533f 14b6 1b3f 39f3 103f
00000120: 5b32 403f d410 393f 83e8 4f3f 31b9 233f
00000130: 3ea2 743f 086c 273f 8757 263f 4def 113f
00000140: 0b3f 033f e662 d93e 346e 113f 336a 683f
00000150: df7a fd3e d1ee 243f e04c 103f 158e d33e
00000160: 6831 2b3f b269 343f 2ee5 2d3f b614 f13e
00000170: bb91 393f ea29 023f 3b5f 4a3f 6f50 2e3f
00000180: be95 633f 935e 0d3f 5cd4 863f bd75 193f
00000190: 3e03 243f 2224 043f ff89 363f d31c 263f
000001a0: 52f0 143f 7748 fa3e 9a96 0a3f d841 bb3f
000001b0: b980 053f 7667 163f 7a66 113f 6a21 2f3f
000001c0: 2142 123f 7093 113f db7d 3e3f 7502 2b3f
000001d0: b5a8 ee3e 9c71 0c3f 0f16 f23e 68db 1e3f
000001e0: d653 313f 7f74 523f 6b6b 8b3f 4c21 3e3f
000001f0: 64e1 333f 47bb 263f d58a 113f 69dd 043f
00000200: 59cb 233f 5ae4 193f ffb1 183f ee16 5e3f
00000210: 29e8 653f bf8b 093f c868 133f 65bd 2e3f
00000220: 0ae9 4d3f df0e 753f 0d7a 293f 4ff0 463f
00000230: 7270 1f3f 2467 323f 494a 213f 5814 d83e
00000240: 56ed 463f 9b94 203f 6f77 2f3f 5cf3 153f
00000250: b59e 363f accf 943f 672a 503f 9d06 ab3f
00000260: c50a 433f 63a0 653f 7882 773f bcf2 113f
00000270: d011 8d3f 9261 e83e 4456 fa3e 2ef3 1d3f
00000280: cc88 523f ffc4 003f 71ed 0f3f 2f8a 993f
00000290: 343d 853f 1382 963f 801a 393f 9c81 3e3f
000002a0: da97 4d3f af73 2d3f 669d 5d3f d106 3f3f
000002b0: 080a 2d3f fbd1 333f aa24 543f 8edb 183f
000002c0: 3339 3e3f 108e 5e3f e491 5d3f 6c61 173f
000002d0: 3ed8 523f e79c 4b3f 4791 2e3f c9a0 143f
000002e0: e1d6 ef3e 4c4c 163f 4c18 353f 6732 2a3f
000002f0: 77b4 233f c753 1d3f a5d2 163f 1850 f83e
00000300: 5492 1e3f c57a 263f 72b5 2a3f e459 e03e
00000310: 8d4f 013f f317 243f 3d75 313f 03f6 0e3f
00000320: a6dd 363f 882a 3b3f de36 043f 0d62 093f
00000330: 1939 703f d791 1a3f 6e45 1a3f cfe9 dd3e
00000340: 6ddf 243f 2d90 a23f 0771 253f cffd 073f
00000350: 0f4d 333f 0da1 f73e b60e 103f fd07 313f
00000360: 0e33 183f a04d 493f e586 133f 47d2 163f
00000370: 990a 223f 42a0 f93e ea83 da3e 45e9 fc3e
00000380: 5ace 0f3f 9572 093f 2c76 b13f 4a2c 5d3f
00000390: 1175 553f 7f82 213f c90b 563f 37cb 123f
000003a0: e75a 043f 6183 0b3f 3cfe 183f 7c08 683f
000003b0: 9072 203f b368 9b3f 1ea3 183f 1224 4a3f
000003c0: dacc 233f 078f 363f 5eb6 3b3f a4dd 373f
000003d0: 00d3 f23e 5c38 6b3f 8394 153f 8a8d 2a3f
000003e0: 9e12 0b3f 09b5 ac3f a1aa ed3e db11 1c3f
000003f0: dc64 473f 585c 063f de2c 7f3f 1118 0f3f
0.640706 0.7412415 0.70908374 0.7318084 0.6540933 0.79609084 0.6866122 0.6610357
0.5910617 0.5845973 0.5995779 0.59291273 0.8961218 0.85351473 0.9572986 0.90292484
0.49207488 0.50122476 0.75500816 0.79787636 0.5755428 0.49164402 0.5077786 0.54580754
0.75005597 1.0632926 0.54817617 0.6603906 0.7546566 0.69812745 0.81078684 0.62929636
0.69392896 0.691266 1.096623 0.5800905 0.51929843 0.46747917 0.5994571 0.4510922
0.6998803 0.6788725 0.56852996 0.62825245 0.48399225 0.47111836 0.5933911 0.636375
0.5869256 0.6338061 0.61308736 0.6045664 0.6910658 0.5941283 0.7864016 0.58062595
0.81886864 0.7516899 0.6880034 0.5121014 1.4135911 0.77770346 0.45666766 0.77183217
0.7060768 0.72816885 0.57716715 0.57274896 0.76759213 0.82534117 0.60824704 0.5662113
0.75076836 0.722913 0.8121416 0.63954455 0.9556006 0.6539922 0.64977306 0.5700577
0.5126807 0.42458266 0.5680878 0.9078705 0.49507806 0.64426905 0.563673 0.41319337
0.6687226 0.7047378 0.67927825 0.47086114 0.7248799 0.50845206 0.7905156 0.6809148
0.88900363 0.55222434 1.0533557 0.5994528 0.6406745 0.51617634 0.71304315 0.6488773
0.581792 0.4888341 0.5413605 1.4629469 0.5214954 0.5875162 0.5679699 0.6841036
0.57132155 0.56865597 0.7441079 0.66800624 0.46613088 0.54860854 0.47282454 0.6205354
0.6926855 0.8220901 1.0892156 0.74269557 0.70265794 0.6512951 0.56852466 0.51900345
0.6398216 0.6011406 0.596466 0.8675374 0.89807373 0.5372886 0.5758176 0.68257743
0.80433714 0.95725816 0.6620186 0.7771043 0.6228095 0.6968863 0.63003975 0.4220302
0.77705896 0.62726754 0.68541616 0.5857446 0.7133592 1.1625876 0.813147 1.3361393
0.7618831 0.89697856 0.96683455 0.5701101 1.1021061 0.4538694 0.4889394 0.6169919
0.82239985 0.5030059 0.5622168 1.1995295 1.0409303 1.1758446 0.7230606 0.7441652
0.8030983 0.67754644 0.86568296 0.74619776 0.6759343 0.7024228 0.82868445 0.59710014
0.7430603 0.8693552 0.86550736 0.5913303 0.8236121 0.7953629 0.68190426 0.5805784
0.46843627 0.5871017 0.707402 0.6648316 0.6394724 0.6145596 0.5891517 0.48498607
0.6194203 0.6503108 0.66683114 0.4381858 0.5051201 0.64099044 0.69319516 0.55844134
0.7143196 0.7311177 0.5164622 0.5366524 0.93837124 0.60378784 0.6026219 0.43342444
0.6440342 1.2700249 0.6462559 0.53121656 0.7003946 0.4836506 0.5627245 0.69152814
0.59452903 0.7863407 0.5762771 0.5891461 0.6329742 0.4875508 0.42678767 0.4939672
0.5617424 0.53690463 1.3864188 0.86395705 0.83381754 0.63089746 0.8361173 0.5734133
0.51701206 0.54497343 0.5976293 0.90637946 0.6267481 1.2141327 0.596239 0.7896129
0.63984454 0.7131199 0.73325145 0.7182257 0.47426605 0.9188287 0.58429736 0.6662222
0.5432528 1.3492748 0.46419242 0.60964745 0.77888274 0.52484655 0.99677837 0.558961

bn1.bias f4 [256]
00000000: 87f4 63bd 5579 793e 8f73 123f fc26 bd3e
00000010: 3a4f 923e ada7 8b3e 3208 4dbe 906d b1bd
00000020: 98e6 b43d 5e75 753c e664 883c 69a7 be3e
00000030: 2e65 5bbe 272a 123e 1339 8c3e c60e 063f
00000040: 1cb5 663c 802a bcbc 289a 66bd 724e 503e
00000050: 18ee 433e e193 4dbd 9520 4fbe 8408 713e
00000060: b94f bf3e 46b0 b53e ed98 0d3e 8420 2c3e
00000070: bc89 973e a6a6 053e a3bb a43e 732b 9f3d
00000080: 2e07 b93e 90a8 573e 103b a43e 4502 cdbd
00000090: b7cc f5bb d0ae 293b 215d 6a3e bdb4 97bd
000000a0: 6d70 8e3e c13a 213d fbff cf3c 0b33 543e
000000b0: 3333 80be 80d2 713c 67a1 013e 54e1 883c
000000c0: 9707 0b3e 976f fa3e f17c 943e f37e a4bd
000000d0: a71a 063e 0c1a 5d3e 0238 be3e eb1e a6bd
000000e0: 993c 883d e3da f93d 6a32 a3bc 3dc5 4e3e
000000f0: 72f9 f03e bd66 bb3e 6021 b4bd 1e49 233e
00000100: d617 4a3e b2d1 8b3e f0db 043e 51d0 443e
00000110: bede 913e 06a0 833e aa3a 943d 0d11 fc3d
00000120: 9ba2 903e 0d67 df3d bb5e ac3e 1ce4 6ebe
00000130: 93cd 573e cd08 103e 0622 993e 350c 51be
00000140: 4f9a d7bd ade7 28be e8a6 473e 0bb0 e23e
00000150: d852 0ebe 6f01 debc d2e7 d23d 6525 c6bd
00000160: 84b4 d13d 29f5 913e e1bf 25be e350 96bc
00000170: 1dec 013e df61 67bd 9bee d1bd 6506 03bd
00000180: 7f57 663e 8e0d 8cbd a4a2 e83d 8436 403e
00000190: a4a2 423e b207 0c3e 1fa7 853e 203d ab3d
000001a0: 90b0 963d c2e7 76be 4c9a bdbd 5e13 8c3e
000001b0: 0c54 b33e 7f6c 623e 322a a43b 4227 de3e
000001c0: b468 d33e d533 0f3e bf6c 893e c611 633e
000001d0: 5f5e f03d 5880 d13c 6d55 91bd 51bb 253e
000001e0: c3b0 0cbd c063 f23d 75cd b23e 22ed 943e
000001f0: bcff 8c3e e040 24bd 644e da3b e226 0fbe
00000200: 6ed4 71bd 7222 9a3d da9d 753d e3d3 a03e
00000210: fbcb f73e bd2f 3b3d 6036 b93d f228 3f3e
00000220: ba12 853e b18d 3e3e 2df0 ac3e bf08 313e
00000230: 9415 a93d 7fa0 8a3e c788 033e da35 183e
00000240: 672f d43e 8025 883e a221 c23e 1be0 a63d
00000250: 158b b53e cf27 b13e a9e5 c23e 63fd e43e
00000260: edfa 363e f8d9 6d3e a8df c63e 554f 983d
00000270: fc03 0e3f 8f27 1abe cffa 5c3e e65a 6f3d
00000280: 0c26 c63e 8a3c fd3d 1690 1d3d cd6b 843e
00000290: da50 a23e b87f 943e 5eb5 853e 128f 49bc
000002a0: 18d3 d13e fbf8 343e 8ad8 afbd 9652 b33e
000002b0: ae5d 903e 7514 293d c0d4 d23e 13bd 873d
000002c0: 41a5 593e e09a 843e 703e bb3e 6192 c53d
000002d0: a3ef d03e dfe6 5b3e b8c2 7d3e 6aff 013f
000002e0: 82d7 68bd 54e2 1d3e d32a 0c3e 9a45 5d3e
000002f0: a561 863e f2cf 103c cc79 423e 4606 a9be
00000300: 773a 973c 3645 0f3e 87dd 0ebd 750e 383e
00000310: 7ff7 ddbc 3559 54bd ba99 8b3e bf87 3ebc
00000320: 5c27 6e3e 1af1 923e d5ba bb3c 751c 09bd
00000330: 50f4 ec3e 4778 8f3e 01da 513e aeeb 52be
00000340: 1f42 683d 707d a53e bcf5 acbc e12d af3e
00000350: b5a5 d8bc b95a 153d 2ac4 c43d de9f 783e
00000360: abc7 ab3e 6bd2 ed3e cd17 8d3e 30ee 573d
00000370: 0126 443e 2afc fb3e b19a 4abd dfe8 4abd
00000380: df3d e33d e4f6 5d3e 4fdb db3e 8f43 b43d
00000390: 4410 de3e 636d 9f3e d2f0 063f 679f 0c3e
000003a0: e1cf 263e b6cc 99be 6b1f 3f3e e2e0 d13d
000003b0: b11a 903e e8fc d23e 7690 ac3e 6e90 0c3e
000003c0: 4e4f f73c a18e 093f 8750 553e f763 ce3e
000003d0: cb4c c33c ecdb 0e3f 65ea 233c 7362 4f3e
000003e0: 51ef 583d d9dd 853e a6ab 4cba d02c 39bc
000003f0: cfa0 963e 4840 30bd 80c7 233e fa7c a53d
-0.05565312 0.24362691 0.5720758 0.36943805 0.2857607 0.27276364 -0.20022658 -0.086634755
0.08833045 0.014981596 0.016649675 0.372371 -0.21425316 0.14273892 0.27387294 0.5236629
0.014081266 -0.022969484 -0.05629936 0.20342425 0.19133794 -0.050189856 -0.20227273 0.23538405
0.3736551 0.35486048 0.13827868 0.16809279 0.2959727 0.13051853 0.32174405 0.07771959
0.3613829 0.21060395 0.3207631 -0.100101985 -0.0075012106 0.002589155 0.22887088 -0.0740752
0.2782015 0.039362673 0.025390616 0.20722596 -0.25039062 0.01475966 0.12659226 0.016709007
0.13577114 0.4891326 0.29001573 -0.08032026 0.13096105 0.21591967 0.37152106 -0.08111366
0.06652183 0.121999525 -0.0199215 0.20192428 0.47065312 0.3660182 -0.08795428 0.1594586
0.19735655 0.27308422 0.12974524 0.19220091 0.2849025 0.25708026 0.07237752 0.1230794
0.28249058 0.10908327 0.33666024 -0.23329204 0.21074514 0.14065857 0.2990877 -0.20414813
-0.10527479 -0.16494627 0.19497263 0.44274935 -0.1389879 -0.027100293 0.102981225 -0.09675101
0.10239509 0.28507355 -0.16186477 -0.018349117 0.12687726 -0.05648982 -0.102505885 -0.03198852
0.22494315 -0.06838523 0.11359146 0.18770796 0.19007355 0.1367481 0.26104066 0.08361268
0.073578954 -0.24111846 -0.092579454 0.27358526 0.3502506 0.221117 0.005009913 0.43389326
0.4129082 0.13984616 0.2684078 0.22174749 0.1173675 0.025573894 -0.07096372 0.16184737
-0.03434826 0.11835432 0.34922376 0.29087168 0.2753886 -0.040100932 0.006662177 -0.13979676
-0.05904048 0.07526101 0.059964992 0.31411657 0.48397812 0.045699824 0.09043574 0.18667963
0.2599085 0.18608738 0.3377699 0.17288493 0.08256069 0.27075574 0.12845145 0.14864293
0.41442415 0.2659111 0.37916285 0.081482135 0.35457674 0.34600684 0.38065842 0.4472457
0.17869158 0.2322768 0.3884251 0.074370064 0.5547483 -0.15054153 0.21580051 0.058436297
0.38700902 0.123650625 0.03846749 0.25863495 0.3170231 0.29003692 0.26114935 -0.012302177
0.40981364 0.17673104 -0.085862234 0.35023946 0.28196472 0.041279275 0.4117794 0.0662786
0.21254446 0.2589941 0.36571074 0.0964706 0.40807828 0.21474789 0.2478131 0.50780356
-0.05684615 0.15418369 0.13688211 0.21608582 0.26246372 0.0088386405 0.18991774 -0.330126
0.018460495 0.13991246 -0.034879234 0.17974265 -0.027095554 -0.051842887 0.27265722 -0.011629044
0.23257202 0.2869957 0.022916237 -0.033474404 0.46280146 0.28021452 0.20493318 -0.20597717
0.056703683 0.32322264 -0.021113269 0.3421469 -0.026446203 0.036463473 0.09607728 0.24279734
0.33550772 0.464496 0.2755722 0.052717388 0.19155122 0.49215823 -0.04946393 -0.04953849
0.11095785 0.21676213 0.42940757 0.08801948 0.43371785 0.31138143 0.5271121 0.13732682
0.16290237 -0.30038995 0.18664329 0.10247971 0.28145364 0.41208577 0.33703965 0.1372697
0.030189183 0.5373326 0.208315 0.40310642 0.023840329 0.55804324 0.0100046145 0.20252399
0.052962605 0.2614582 -0.000780756 -0.011302188 0.29419562 -0.043030053 0.15994072 0.08080478

bn1.running_mean f4 [256]
00000000: 7b77 903f 7b8f 093f e1fc 1640 64ce 1640
00000010: 586f 0e40 5d72 7f3f 8bf8 1340 7006 0140
00000020: 4a28 cd3f f632 c53f 168e 0c40 9dff 7040
00000030: 6a99 0e41 1411 4d3f a023 aa3e 8dd9 2f40
00000040: a10a 0b40 bdec 7440 28f0 c73f 3b98 ca3f
00000050: 8704 c13f 53f0 6040 4904 ef3f 4c76 493f
00000060: 470d 5240 d6da 983e e917 d43e 1b72 0d40
00000070: a5f9 953f 73b0 4a40 0514 5240 8ac9 6f40
00000080: e032 7a40 7c04 3d3f ba14 ff3e 37af cd3f
00000090: 689b 9440 80bb 0e40 91a4 5a3f 71de 1340
000000a0: 3c88 a13f 40f6 f33f 359a 953f 8f0c b340
000000b0: eb35 3340 32e2 643f bd0a b33f fcbd 623f
000000c0: e06f 903f 09dd 9340 8924 c13f 6c7a 1b40
000000d0: fa6d 663f 6f26 0e3f 7542 833f 0257 2d40
000000e0: dc92 c93f b1ab 2b3f 5a03 0e3f 9d35 d73e
000000f0: 0259 723e 92a4 343f ab6b 8240 e1bb 433f
00000100: 2bf0 6440 dd9a 463f d6bd 9640 2458 8840
00000110: fa02 1640 bff8 6b3f 02ee 0940 bb96 763f
00000120: 1ca6 1640 63f7 c03f c6ec 1840 1924 8c40
00000130: e1a3 523f d6fd 813f bb02 433f 4ae7 5d40
00000140: e48a 993f d763 3c3f 4559 2440 7fea 6c40
00000150: a307 923f 302d 1d3f f52f 3840 6367 bb3f
00000160: 5341 9e3f 5412 e13f 7402 8d3f 7ac8 d03f
00000170: 9285 da3f 6da6 6c3f 54b2 0b40 7378 e33f
00000180: 973e ec3e 73b9 9b3f e640 2040 d16e 2b40
00000190: cd7d 8a3e 0315 0d40 c36c 533f c7d1 0e40
000001a0: 1067 2d3f d898 0340 0b44 2940 c634 0040
000001b0: d529 0440 d1e6 2f3f fdef 1e3f 4e8a 7640
000001c0: 456d 243f 3024 f23f 4c84 023f a037 2a3f
000001d0: 21d2 cd3f 9137 813f 061d 4f3f f209 373f
000001e0: 924a d13f 487e 8d3f 527f 433f f2a4 863f
000001f0: 4790 0440 334f 0e40 8ee0 7240 8e76 4440
00000200: c4d1 e63e f26a bb3f 87b5 1e40 edcc b840
00000210: 1f18 eb3f f6f7 0740 be10 253f f53a 9b3f
00000220: 5717 f43f c404 0340 61ff ec3f 7f9d 7c3f
00000230: bc9e e43f fdee 1f40 91d2 f73f 3a58 b740
00000240: e5ce 3d3f e422 643f efc8 953f a817 ee3f
00000250: 6c51 e33f b20d 563f 820f df3f 24df c33e
00000260: c3fb 823f 2321 e53f 3d0a 023f cca7 4a40
00000270: d49b ec3f 968d 4240 775d c540 ff0a f33f
00000280: 6ca8 1440 11f1 263f 5a4a 2d40 38a7 703f
00000290: c8d7 953e 7f0f f23e 3db7 b840 da7b 5c3f
000002a0: c2d7 0240 56c1 ba3f a0e3 1c41 29de 1a40
000002b0: c440 0a40 6be9 0b3f 6271 7240 0bea ab3e
000002c0: 12f5 e03e f3a0 303f d294 d03e 66f6 833f
000002d0: d4d1 d33f 2e2f d03e 88b1 1340 b4d8 d340
000002e0: f50b 2a40 cec8 a43f fac0 b73f d4eb d23f
000002f0: f2ae 443f ef10 6840 e7dc 1440 317b 7540
00000300: 633f f33f c847 383f fc31 9a3f 86f7 cb40
00000310: 9955 b240 794c 8040 3540 1640 a364 9a3f
00000320: 9a3e c03f cbad 783f 637f e13f b6aa 813f
00000330: d7aa 9b3f a0ba fa3f 718a 843f a327 aa3f
00000340: 5add 973f 54b6 0c3f 1d71 8740 1a78 7040
00000350: a6ee 5f3f d9b2 2440 2683 f13f a812 5b3f
00000360: 8131 7940 937f f23f f48d 1340 0988 863f
00000370: 03a3 b540 bd5d 2641 c494 3940 0a79 ae3f
00000380: 644b 8d3f d5f8 633f ba46 183f 8928 3541
00000390: 10ef 943f 366d b640 a7dd 1e40 2450 a33e
000003a0: 12e5 3040 6473 7940 f6a3 0140 f67f 9f3f
000003b0: c7cf 0b40 56e2 ac3e d19a 8640 5267 fd3f
000003c0: d9bf a43f d99f 6f40 b9b6 6840 b778 fa3f
000003d0: 4d55 cd3e 7571 173f 033d 8d3f 1a6e 763f
000003e0: 63f3 2b3f 16a2 4a41 df3d 2e40 e0f4 4840
000003f0: 9061 2f3f 0d0b 913f e817 d440 4b0c 2f3f
1.1286463 0.5373456 2.3591845 2.356347 2.225546 0.9978388 2.3120449 2.016018
1.602792 1.5406177 2.1961722 3.7656014 8.912455 0.80104184 0.33230305 2.7476532
2.1725237 3.8269494 1.5620165 1.5827707 1.5079507 3.5146682 1.8673183 0.7869613
3.2820604 0.2985446 0.41424492 2.2100894 1.171681 3.1670196 3.282472 3.746676
3.9093552 0.7383497 0.498205 1.6069096 4.6439705 2.230194 0.8540736 2.3104517
1.26197 1.9059525 1.1687685 5.595283 2.800166 0.89407647 1.3987652 0.88571143
1.1284142 4.620732 1.5089275 2.429347 0.9001156 0.55527395 1.0254656 2.7084355
1.5747943 0.67058855 0.55473864 0.4203309 0.23666766 0.70563614 4.075643 0.76458555
3.5771587 0.7758005 4.7106733 4.2607594 2.3439317 0.9217643 2.1551518 0.96323746
2.3538885 1.5075496 2.3894515 4.3794065 0.8228131 1.015559 0.7617604 3.4672418
1.1995511 0.73589844 2.5679486 3.7018125 1.140858 0.61397076 2.877927 1.4640926
1.2363685 1.7583718 1.1016374 1.631118 1.7072012 0.92441446 2.1827593 1.7771133
0.46141502 1.216597 2.503961 2.6786387 0.27049103 2.2044075 0.8258783 2.2315538
0.67735386 2.0562038 2.644778 2.003221 2.0650532 0.6871157 0.62084943 3.8521914
0.6422923 1.8917294 0.5098312 0.66491127 1.6079751 1.0095083 0.8090366 0.7149955
1.6350882 1.1054163 0.7636615 1.0519087 2.071306 2.223584 3.7949557 3.069736
0.45081913 1.4642012 2.4798295 5.7750154 1.8366736 2.1245093 0.6447867 1.2127367
1.9069623 2.0471659 1.8515435 0.9867782 1.7860942 2.4989617 1.9361135 5.72952
0.7414382 0.8911574 1.1701945 1.8600969 1.7759223 0.8361465 1.7426608 0.3825618
1.0233082 1.7900738 0.5079687 3.1664915 1.8485055 3.0398917 6.1676593 1.8987731
2.3227797 0.6521159 2.707663 0.94005156 0.2926619 0.47277448 5.772368 0.8612648
2.0444188 1.4590251 9.8055725 2.4198096 2.160203 0.5465304 3.7881703 0.33576998
0.43936974 0.6899559 0.4073854 1.030957 1.654841 0.40660995 2.3077106 6.620203
2.6569798 1.2873781 1.4355767 1.6478219 0.76829445 3.6260335 2.3259828 3.835644
1.9003719 0.7198453 1.2046504 6.3739653 5.572949 4.009335 2.347669 1.2061962
1.5019104 0.9714019 1.7617 1.0130222 1.2161511 1.9588203 1.0354749 1.3293346
1.1864426 0.5496571 4.232558 3.7573304 0.87473524 2.573416 1.8868148 0.8557534
3.8936465 1.8945183 2.3055391 1.0510265 5.676149 10.397885 2.899705 1.3630688
1.1038632 0.8905156 0.5948292 11.322396 1.1635456 5.7008314 2.4822786 0.3189708
2.7639813 3.897668 2.0256324 1.2460926 2.1845567 0.3376643 4.2063985 1.9797156
1.2871047 3.7441313 3.6361525 1.9568089 0.40104142 0.59157497 1.1034244 0.9626175
0.67168254 12.664572 2.7225263 3.139946 0.68508244 1.1331497 6.6279182 0.6837813

bn1.running_var f4 [256]
00000000: 7b20 d240 ef7e f53f da65 6c41 3874 3841
00000010: 1b6d 9641 ca85 ab40 99d3 4641 423a 4741
00000020: 2fa9 4641 1e5e f340 19c2 4b41 9b4e a941
00000030: 91fe d842 7418 7640 4f2a e53f e630 a640
00000040: 06bf 1941 7344 2642 0e05 1341 62f8 2741
00000050: 37f0 0641 4950 a641 f3ca 4a41 b135 b240
00000060: 64db 8b41 c87c a43f e0bf 3440 12a1 5241
00000070: a82a 0241 b378 6e41 83ef 8d41 ca7e ac41
00000080: e6f8 dd41 09e1 8f40 9c6e b83f 1e81 2a41
00000090: 8ec7 c941 3fde 8c41 73eb a740 bd97 9e41
000000a0: 73e2 fa40 64a0 7d41 e63b 0c41 3a76 0542
000000b0: f727 ba41 5f5f 3940 b26b 0941 bcbe 6940
000000c0: ac57 ba40 f233 0342 4eae ff40 b83f 8841
000000d0: 5bcf a240 c547 2340 63b1 9b40 e244 6441
000000e0: 77d4 da40 a357 7240 2e78 1c40 66d5 0b40
000000f0: 323a 803f decc c83f e088 0742 6efe 9b40
00000100: 3f7e 1642 fad4 4540 8099 9941 812d e141
00000110: 8377 0841 88ac c340 f823 3441 b632 a540
00000120: ef63 7b41 952f 3941 eaa3 3241 8711 d241
00000130: 0ead c240 ec55 9440 7606 e640 de2f c141
00000140: 6cd1 9e40 48b5 8540 aaf3 4241 a6e0 9a41
00000150: 071e de40 579b 1e40 18de 3841 ea86 3241
00000160: 1033 f340 0c18 4f41 ed7e b740 7ab1 5641
00000170: 7eda 1941 dc09 9840 0095 a441 0c4d bd40
00000180: 0e3d 1a40 9314 0641 6843 8141 a7a5 ad41
00000190: 3bbd 8b3f cc3b 4d41 33e2 a040 f0ef 6041
000001a0: 0f3b 2440 acf1 5c41 f4b2 a741 3f44 1c41
000001b0: 345d 4f41 158c 8c40 de62 e53f b6c8 7041
000001c0: a0f5 2240 d611 8541 d7dc 6440 f45b 5d40
000001d0: 452b 3e41 14b8 e840 5ac3 a240 67bd 7340
000001e0: 724d e940 433e d540 cd27 3c40 d349 e240
000001f0: 0e00 8041 6b06 f940 e34a c741 b812 4541
00000200: cef4 1b40 573b 0341 c6a0 5b41 61b8 5f41
00000210: 93b6 4241 d0b2 4f41 cb59 8240 6754 0641
00000220: 7673 1a41 d6a8 f440 58e8 3741 c937 cf40
00000230: 11b9 4541 d296 9441 6629 4041 ee1a de41
00000240: cc14 c140 952c fe40 45d8 9340 02f8 3341
00000250: e360 e140 4083 8a3f 7d84 3941 a746 c53f
00000260: 02d8 c040 f5e5 c040 5563 a33f 2e2a bc41
00000270: bb3b 1c41 10cc 0441 08c1 2542 17ed 7941
00000280: 920c 9441 0536 6440 6a96 7141 77aa 923f
00000290: d525 8b3f fd44 023f a8c4 0542 ebda 8940
000002a0: 6699 2341 8344 bd40 0786 fa42 35f9 8e40
000002b0: dbc7 0d41 912c 2a40 7543 a141 b156 8a3f
000002c0: a517 1440 e9d7 aa40 774b d23f cf25 c640
000002d0: 1ceb cc40 bd0d f03f 9a8b 8f41 f9a5 4642
000002e0: 58b9 c241 fe0c 0041 3572 1241 6bca 3b41
000002f0: 6097 8240 bbe2 3642 52a0 6b41 fd29 2142
00000300: 4d81 4341 dfc3 4340 b0f8 9840 0aa1 1d42
00000310: 9b97 2942 de64 8641 207b 8941 e98d fa40
00000320: 36bd a140 c51f b740 0223 0f41 2377 ae40
00000330: c365 b940 10e9 0441 36b2 c740 e9e4 ef40
00000340: 60ff e240 9e6f 9f3f 6194 e641 1861 f341
00000350: b081 9040 448f 9341 3c2f 4141 29cb a840
00000360: c4b4 e741 4f83 1741 cd57 7041 e9d1 c840
00000370: a43e c541 0ed0 5a42 6a43 a641 3e23 0a41
00000380: 9c0d ee40 628c b840 784e ef3f c778 2b41
00000390: 9f30 1441 24f8 c841 ba19 aa41 a5d0 a03f
000003a0: 19ac 7a41 64d1 e241 95aa 8241 02a6 5540
000003b0: 1da9 7941 70e3 7e3f 8c04 1c42 36ea 4041
000003c0: ef2b ce40 7a7c b641 6a6e 9d41 dbd2 8841
000003d0: 2edc c73f 223f 9240 f410 e540 58ee e740
000003e0: 72d1 8940 234a 8b43 fd1b 8741 7490 5f41
000003f0: 4ffb 7440 1b19 d840 5a12 8542 7eb5 7b40
6.566465 1.9179362 14.774866 11.528374 18.803274 5.3600817 12.42666 12.451723
12.416305 7.605239 12.734887 21.163382 108.4972 3.8452425 1.7903537 5.193469
9.609137 41.566845 9.188734 10.49814 8.433646 20.789202 12.674548 5.569054
17.482124 1.285058 2.8242111 13.164324 8.135414 14.904468 17.74195 21.561909
27.746532 4.49622 1.4408755 10.656523 25.222439 17.608519 5.2474914 19.824091
7.8401427 15.851658 8.764624 33.365456 23.269514 2.896446 8.588793 3.6522665
5.823202 32.800728 7.9900274 17.031113 5.087812 2.5512555 4.8654037 14.266817
6.8384356 3.786599 2.4448352 2.1848998 1.001776 1.568752 33.883667 4.8748083
37.623287 3.091124 19.199951 28.147219 8.529178 6.114811 11.258781 5.1624403
15.711898 11.574117 11.165018 26.258558 6.083625 4.6354885 7.1882887 24.148373
4.963064 4.178379 12.184488 19.359692 6.9411654 2.4782312 11.554222 11.157938
7.599983 12.943371 5.734244 13.418329 9.615843 4.7512035 20.572754 5.915655
2.4099765 8.380023 16.157913 21.705885 1.0917124 12.827099 5.027612 14.0585785
2.5661047 13.809002 20.96238 9.766662 12.960255 4.3921 1.7920797 15.049002
2.5462418 16.633709 3.575979 3.4587374 11.885564 7.2724705 5.0863466 3.8084352
7.290704 6.6638503 2.9399292 7.0715117 16.000027 7.7820334 24.911566 12.31707
2.4368167 8.201987 13.726751 13.982514 12.169574 12.981155 4.073461 8.395606
9.653189 7.64561 11.494225 6.4755597 12.357682 18.573643 12.010107 27.76315
6.0337887 7.942942 4.62015 11.248049 7.043077 1.0821304 11.594846 1.5412186
6.026368 6.028071 1.2764689 23.520596 9.764583 8.29982 41.438507 15.620383
18.506138 3.565797 15.099222 1.1458272 1.087092 0.5088652 33.442047 4.3079734
10.224951 5.9146132 125.26177 4.467921 8.861293 2.65897 20.157938 1.0807706
2.3139431 5.338856 1.642928 6.1921153 6.4037 1.8754193 17.943165 49.662083
24.3405 8.003172 9.152883 11.736918 4.0809784 45.721416 14.726641 40.291004
12.219068 3.05883 4.7803574 39.407265 42.398052 16.799252 17.18512 7.829823
5.054347 5.722628 8.946047 5.452043 5.793672 8.3069 6.2405043 7.496693
7.0936737 1.2455938 28.82245 30.42241 4.515831 18.444954 12.074032 5.2748
28.963264 9.469558 15.021436 6.275624 24.655586 54.70318 20.782917 8.633604
7.4391613 5.7671366 1.8695822 10.716987 9.26187 25.121162 21.262562 1.2563673
15.667016 28.352242 16.333292 3.3382573 15.603787 0.9956579 39.00444 12.05718
6.442863 22.81078 19.678913 17.102957 1.5614069 4.5702066 7.1583195 7.2478447
4.306817 278.5792 16.888666 13.972767 3.8278387 6.7530646 66.53584 3.9329524
